lstm_pytorch/lstm1.pth (torch, 279654 bytes, 5 tensors)

lstm1.weight_ih_l0 f4 [512, 5]
00000000: 665c 993e 5db6 333e 9b7c ab3e b013 67bd
00000010: 4298 d53e 4d4a 29bc 9503 04be 891a 2b3c
00000020: 7b35 93bd cc5a d8bc 89ba f8bd afc3 9b3b
00000030: 9bd0 9abc 8bba 433d 8b6c 423c 4652 30be
00000040: 020d 0abe b4a7 0ebe 9bbb 583d 77a4 273d
00000050: a666 c5ba 4a06 b9bc 9874 e2bd d6e1 783d
00000060: ae82 3dbd 845e 143d 320b 493e 736e 923e
00000070: 6546 5c3e acc7 143e 40f2 233e 5e18 89bc
00000080: 2950 81bd e988 cbbc c506 d1bd f7d1 edbd
00000090: 7254 a5bc 2cc8 c1bd 9cb1 47bd 9bf2 c3bd
000000a0: b236 d7bd 1ef6 f63c 5cd2 75bd 225b 233d
000000b0: 8ce3 9fbd 3495 083d 7e76 423c 5be0 a23d
000000c0: 8cf3 a1bb 8b71 d43d d8e7 74bd 0c00 8c3d
000000d0: dfd8 26be d8d5 713d 6a64 11bd 436f 783d
000000e0: 463e e3bd 50e2 d7bd 0e40 383d 7d9d 113d
000000f0: 9ec7 8e3d f025 0f3d 2b1a ea3d 1f00 5ebd
00000100: 0bcc a7bc 6bea d53c 183e 08be da41 ae3d
00000110: 15a5 c2bd 4642 c33d 01e5 523d 87ef b93d
00000120: 4b06 93bc 2efc a73d f45c 363d a804 dfbe
00000130: 96a8 c7bd 753c b9be 2d38 4fbd 884d 03bc
00000140: 1ce5 223e 70a8 83bd e790 49bd 2dbc 84bc
00000150: 3940 a23d 79a0 4c3e dd5f b5bc 3907 a83d
00000160: 3a3f bcba 17fd 1c3e bbed ba3d 1ca0 273d
00000170: c3cc 053e 79b0 5a3c 3fd8 4d3c fd78 c93a
00000180: 25ff 893c 98a9 69bd fde5 57be 3040 dd3c
00000190: ae5f abbd a07d 4ebd 5de7 41be 3b59 323d
000001a0: c8a3 c6bd ee0c 4fba ecd7 8dbd 7690 1dbe
000001b0: 37e8 13bd 6097 fdbd 1977 5dbd b89b a2bd
000001c0: 288c efbd ba57 4f3d 5331 84bd 4e1e 9bbe
000001d0: cb17 84bc f887 38be aa61 d03d 5201 d3bb
000001e0: f719 09be 6a51 53bd 7d68 cf3c a731 cf3d
000001f0: 8c72 2e3b 6293 c1bd 3bf3 d6bb e2f3 1abd
00000200: 6a51 07be 0b45 70bd dcab c1bd 0c3e a1bd
00000210: 9c2f 01be c3a7 b1bd a94c aabc f125 033e
00000220: 4b6d b33d 2c41 463d 67eb 53bc 51ec 293e
00000230: a2bb 793d 58e0 403d a1e7 073d 5048 8d3d
00000240: 1b86 bcbd 4a30 4dbe 8b82 ab3c b11b 0ebd
00000250: 4834 6a3e a515 dabd c092 0c3d ec6a 16bd
00000260: e9fe 2abd 20fc d5bd 2b51 fe3a d503 02bf
00000270: ea1e 15be 2946 aebe 3292 53be f080 20be
00000280: 71e7 88bd 0af0 9c3d 6467 743d 6c72 3ebd
00000290: 8ed7 0e3e da8c 11be 89ff bdbd fd44 1fbd
000002a0: 78fe 1e3e a8f8 233d b292 103e 0e74 8c3d
000002b0: 8ff0 983e e936 7a3e 5026 263e afda c83d
000002c0: 0cca 61bd be67 083d 88b9 51bd 7d9f 0b3e
000002d0: e909 253e d9c3 5cbd db90 ccbd 1fee d9bd
000002e0: 8b6d ed3b 94b1 adbd 06a4 303d 7581 64bd
000002f0: f693 cabd df8c 36bd 676f f83c 18f7 d3bd
00000300: 49be 64bc 93dd 103d d10f ffbc f8fa adbd
00000310: 0a6d 1cbc 195b 1dbe 1129 debc 3c01 fabc
00000320: 9907 913e 1878 8f3e 3548 493e 6c9e 1b3e
00000330: 904d ca3e cc39 65be e2fa 29be e2e1 2cbe
00000340: 388b 2fbd 87af 0dbe e1a9 40be bcd2 17bd
00000350: e638 e4bd 3676 69bb 2e32 9cbb 9ed6 07bd
00000360: cefb eabc 428c 923d 2615 3f3c 4276 d13d
00000370: 04e6 af3d 1776 cabd 0f00 f0bd 11ce be3c
00000380: 7bb4 a8bd 075f 1c3e 60c2 f73d ab3a 3b3e
00000390: e62d 0e3e 262e 283d 3ed4 393d 0de7 38b9
000003a0: 7d63 3fbc cb04 9c3d ef6d 9f3d 3733 713e
000003b0: 2605 c53d cd12 be3d efac 313c bd9c acbd
000003c0: a586 a1be 5b74 e5bd 2ae6 6bbe cbf1 80bd
000003d0: ff11 f6bd 674a 513e fd09 fc3e 0ac5 013f
000003e0: ae15 fb3e 1040 d23e db39 1abf ee95 61be
000003f0: 7d1a 02bf d01c 63be 3ecd 81be 3ed6 8a3d
0.29953307 0.17550035 0.33493504 -0.05641526 0.41717726 -0.010332656 -0.12891991 0.010443338
-0.07187935 -0.026410483 -0.12144954 0.004753552 -0.018898299 0.047785323 0.011866699 -0.17218885
-0.13481525 -0.13931161 0.05291329 0.04092833 -0.0015060499 -0.022586007 -0.11057395 0.06076225
-0.046267204 0.03622295 0.19633177 0.2859989 0.21511228 0.14529294 0.1601038 -0.016735252
-0.063141175 -0.024845557 -0.10206369 -0.11612313 -0.020181868 -0.09462008 -0.048753366 -0.09567758
-0.10508479 0.030146655 -0.060015067 0.039881833 -0.07807073 0.033345416 0.011869071 0.07952949
-0.004942363 0.10373219 -0.059791416 0.068359464 -0.16293667 0.059041828 -0.035496153 0.060652982
-0.11095862 -0.105412126 0.044982962 0.035550583 0.06971668 0.03494829 0.114307724 -0.054199334
-0.020483037 0.026112756 -0.13304937 0.08508654 -0.09504143 0.09534125 0.051487926 0.09078889
-0.017947337 0.08202396 0.04452224 -0.4355824 -0.09748952 -0.36178938 -0.050590683 -0.00801409
0.15907711 -0.06428611 -0.049210455 -0.01620301 0.07922406 0.1998309 -0.022140438 0.082045026
-0.0014362105 0.15330921 0.09127375 0.040924177 0.13066392 0.013347738 0.012563764 0.001537114
0.016845295 -0.057046503 -0.21083827 0.027008146 -0.08367859 -0.050412774 -0.18935914 0.043542128
-0.096992075 -0.000789835 -0.069259495 -0.15387139 -0.03611013 -0.12382388 -0.05406866 -0.07939857
-0.116966546 0.050620772 -0.0645472 -0.30296558 -0.016124627 -0.18020618 0.10174878 -0.0064393664
-0.13388811 -0.051591314 0.025318379 0.10116892 0.0026618568 -0.09451939 -0.006559757 -0.03783024
-0.13214651 -0.058659595 -0.09456608 -0.078731626 -0.12615818 -0.08674576 -0.020788508 0.12807442
0.0876108 0.048401996 -0.012934542 0.16594054 0.060969956 0.04708895 0.033179883 0.06898558
-0.09205266 -0.20037952 0.020936271 -0.034694377 0.22871506 -0.106486596 0.03431964 -0.036723062
-0.041747008 -0.1044848 0.0019402852 -0.507871 -0.14562574 -0.34037903 -0.20661238 -0.15674186
-0.06684769 0.07662971 0.059668913 -0.04649584 0.13949415 -0.14213887 -0.09277255 -0.03888415
0.1552676 0.04003206 0.1411846 0.06858073 0.29871032 0.24435009 0.16225553 0.098073356
-0.055124328 0.03330206 -0.051202327 0.13635059 0.16117062 -0.053897712 -0.099885665 -0.10641121
0.0072457246 -0.08481136 0.043125175 -0.055787522 -0.098915026 -0.04456794 0.030326558 -0.10349864
-0.013961383 0.03536756 -0.031135472 -0.08495134 -0.009547481 -0.15366782 -0.027119191 -0.030518167
0.2832611 0.28021312 0.19656451 0.15197152 0.395123 -0.22385329 -0.1659961 -0.16883042
-0.04285738 -0.1383649 -0.18814804 -0.037066206 -0.11143665 -0.0035623438 -0.004766724 -0.03316366
-0.028684523 0.07155658 0.011662757 0.10227634 0.08588794 -0.09885805 -0.11718761 0.02329162
-0.08237549 0.15270625 0.12097621 0.18284099 0.13884696 0.041059636 0.045368426 -0.0001763368
-0.011681435 0.07618102 0.0778464 0.23554693 0.096201226 0.0928093 0.010844453 -0.08428333
-0.31548038 -0.11203834 -0.2303702 -0.06296118 -0.12015151 0.20438538 0.4922637 0.5069128
0.49039978 0.410645 -0.6024453 -0.2202985 -0.5082167 -0.2217896 -0.253519 0.06779145

lstm1.weight_hh_l0 f4 [512, 128]
00000000: 704e c83e a211 69bd fbb8 f13d f1c0 763c
00000010: 108f 9cbc 440d 9d3e 5357 2cbe 1f4e 123d
00000020: 5ccf bfbd 91ab bbbd adde 52bd 7a2b cf3d
00000030: 60eb 103e dd14 e8bc 7041 e2bd 1c59 a23d
00000040: 6e67 77bc 0f1b 443d 0ddd 79bd 6a1e 0f3e
00000050: 4190 f83d 0bb6 2dbe d818 d43d 542c c43c
00000060: c35b 79bd 7e03 65be e56b b63c a5aa 1fbe
00000070: c77b c03d 8e27 81be b9f1 3f3c 6ba5 123e
00000080: f930 963e ed3f 46be 765b 813d f135 03bd
00000090: f807 763e 9a00 9abe 83fc f0bd da16 2ebe
000000a0: 0a82 93be d1b2 7c3e 3a75 2dbe 0dd4 a2be
000000b0: a910 483e 8469 dabd b97f c33d 8704 c0be
000000c0: 3db3 62be bc08 a1bd 1dd0 083e f56b c53d
000000d0: 4d40 c6be d2da 89bc b57e b33d 117d 0e3f
000000e0: 1928 7bbe 3efa a6be c7ed abbe 223c 27be
000000f0: 658f bcbe 9af8 29be b8e8 473d 7729 7bbe
00000100: a308 8ebd d99e d73d 0b1c 523e 18ef 4d3e
00000110: 0539 c13d a8da 293e cca3 f7bd 9e05 90be
00000120: b2c4 3bbe 46b2 02bf 182d 013e 1e4a d03d
00000130: 6304 47be 2774 0c3e d0d0 eebd 02a5 32be
00000140: 2ea5 4abe f1fb 82be c06b eabd 31ca 4fbe
00000150: 3bfc cabe 971a 453e f59d 6d3d dfac 40be
00000160: 27c4 aabd 0152 9cbe 31a5 ce3d 7225 183f
00000170: 20d6 36be 23f7 483d b936 4e3d 2002 023d
00000180: c596 9d3e fe06 b0be 5df2 043c b4c4 9dbd
00000190: b1dc 383e 7906 7cbb 0942 d43d aa0c 3c3e
000001a0: 8433 5fbe 5d87 003e 9e78 0cbe e794 013d
000001b0: 6b00 973e 0e46 233d a712 303e 9d7a ad3d
000001c0: e477 fcbd 8656 dbbd b710 3bbe b74d 9f3e
000001d0: acef 3ebd 438a c63d b50e 02be 7880 7dbe
000001e0: 01f8 06be c63a 47be b044 3ebe a142 313e
000001f0: 53b7 9fbb 0f54 1b3f caf3 223e 0f66 febd
00000200: 5f0d e03d 1130 8cbd 6e34 d13c 3d8c d7bd
00000210: 7de3 8fbd c469 863d 4bd4 92ba 9711 f6bc
00000220: 2c8b 043c 31e2 b0bd 4372 d3bc ecf0 37bd
00000230: a96c ba3d a434 bd3d 8307 7fbd b842 cf3d
00000240: ab13 4a3d dfeb 373d 3ea0 7c3d d374 3bba
00000250: c420 a33d 915f a0bc f9fd 653d a23b 3a3d
00000260: 2781 b93c d8f9 f5bd 805f b3bc b19f 6f3c
00000270: cae1 9abc c755 1a3d af70 ff3c fbd5 563d
00000280: 54a4 e43b 97d0 48bd 150b a43d 5fd3 70bd
00000290: 616a 7f3d c8a3 f83c 9664 f5bd 64cb e5bc
000002a0: 8960 abbd 7dd2 793d 9a94 51bd ced0 a9bd
000002b0: b51f ae3d f2a3 a63d f81e f43d 478b cfbd
000002c0: 84a0 563c 1464 2abd 4124 5bbd 0002 70bb
000002d0: 4473 27be 73b8 de3d a6be e13d 743e 463e
000002e0: e87e 83bd 0272 8fbd 78ef 0f3c 0d6d bfbd
000002f0: dbb4 94bd 01e4 95bd c516 8bbd b652 17bd
00000300: 771f 34bd 6101 353d aae7 9d3d bbcd bdbc
00000310: 2307 163e b04f 57bc 6548 cebd 2809 723c
00000320: 9f33 c9bd 2f9c a7bd 09ed a53c 6c4a ae3b
00000330: 4c49 db3b 245a 86bb 8094 5cbd d27c 473d
00000340: 01e3 cf3c 4c09 2a3d 0f34 8fbd 31f1 f3ba
00000350: 12ab 063d 81c8 75bd 5f25 90ba ee40 063d
00000360: 3364 a5bd e96d b9bd 3610 d03d ee37 913d
00000370: 47ac 94bd 0e6b 9abd a449 2dbd 3dd2 953d
00000380: 140f 1abd a7c2 09bd e9ff ae3d 87d5 00be
00000390: 6ae6 e53c 457d 37bb bf2e cc3d 4292 d53d
000003a0: fec4 773d 2a7c cf3d 1146 40bd 5565 55bd
000003b0: 74b6 8b3d 8034 d2bd 30fa 9ebc 6bcf 54bd
000003c0: b886 d7bd e104 1bbd 93a6 53bd f5bc f33c
000003d0: 35fd 5d3d 3802 a9bc b4ae b4bc a1c3 bdbd
000003e0: 4182 543c 096a a63c 4a4b 08bd 3bdf d73d
000003f0: 6b8f 9abc c39c 023b 7dfa 82bc eb71 64bd
0.39122343 -0.05690158 0.1180286 0.015060649 -0.019111186 0.30674183 -0.16830187 0.035719033
-0.093657225 -0.09163583 -0.05148189 0.10115714 0.14152288 -0.02833026 -0.110476375 0.079271525
-0.015100343 0.047877368 -0.061001826 0.13976446 0.12136889 -0.16963975 0.10356301 0.023946919
-0.060878526 -0.22364613 0.022268245 -0.1559244 0.09398609 -0.2522549 0.011715346 0.14320914
0.29334238 -0.19360323 0.06316273 -0.032033864 0.24026477 -0.30078584 -0.11766913 -0.17000905
-0.2881015 0.24677588 -0.1693925 -0.31802407 0.19537605 -0.10664657 0.095458455 -0.37503454
-0.22138686 -0.07862994 0.13360639 0.09639732 -0.38720933 -0.016827974 0.08764402 0.55659586
-0.24527015 -0.32612795 -0.33579847 -0.16331533 -0.3682815 -0.1659874 0.048805922 -0.24527536
-0.06935241 0.10528345 0.2051851 0.20110738 0.09434704 0.16587317 -0.12091789 -0.28129286
-0.18336752 -0.51053274 0.12614858 0.10170387 -0.19435267 0.13716184 -0.116609216 -0.17445758
-0.19789574 -0.2558284 -0.11446333 -0.20291974 -0.39645562 0.19248424 0.058011968 -0.18815945
-0.08338194 -0.30531314 0.100901015 0.59432137 -0.1785512 0.049063813 0.050345156 0.031740308
0.3077909 -0.34380335 0.0081144245 -0.07703534 0.18052937 -0.0038456006 0.10364158 0.18364206
-0.21796995 0.12551637 -0.13717887 0.031636145 0.29492506 0.03986173 0.17194615 0.08470652
-0.12327555 -0.107098624 -0.18268095 0.3111398 -0.046615288 0.0969434 -0.12700923 -0.24756038
-0.13180543 -0.19456014 -0.1858089 0.17310573 -0.004874149 0.6067514 0.1591331 -0.1242181
0.1094005 -0.068451054 0.025537696 -0.10524795 -0.07025812 0.06563142 -0.0011202184 -0.030037684
0.008089822 -0.086368926 -0.02581132 -0.044907495 0.091027565 0.09238556 -0.062263023 0.101201475
0.049335163 0.04490268 0.061676256 -0.0007150892 0.07965234 -0.01957682 0.05615041 0.045467027
0.022644592 -0.120105445 -0.021896124 0.014625476 -0.018906493 0.03767946 0.031181661 0.05245016
0.0069775973 -0.04902705 0.08009926 -0.05879533 0.06235731 0.030351534 -0.11982076 -0.028051086
-0.08368022 0.060991753 -0.051167108 -0.082917795 0.085021414 0.08136739 0.11919969 -0.10133987
0.013099793 -0.04159935 -0.05350137 -0.0036622286 -0.16352564 0.10875025 0.110226914 0.19359761
-0.0642069 -0.07004167 0.008785121 -0.09346972 -0.07261058 -0.07318879 -0.06791452 -0.036944114
-0.04397532 0.04419077 0.07710202 -0.023169389 0.1465116 -0.013141558 -0.10072402 0.014772691
-0.09824299 -0.081840865 0.020254629 0.0053189304 0.0066920873 -0.004100101 -0.053852558 0.048703022
0.025376799 0.041512772 -0.06992351 -0.0018611309 0.03287799 -0.06000567 -0.0010997466 0.032776766
-0.08075752 -0.09054167 0.10159342 0.07090746 -0.07259422 -0.0753995 -0.042306557 0.073154904
-0.037612036 -0.0336329 0.08544905 -0.12581454 0.028063972 -0.002799825 0.099698536 0.10428287
0.0604906 0.10131104 -0.04694182 -0.05209859 0.068219095 -0.1026392 -0.019406408 -0.05195562
-0.105237424 -0.03784645 -0.05167253 0.029753188 0.054196555 -0.02063094 -0.022055961 -0.09265829
0.012970508 0.020314233 -0.033274926 0.10540625 -0.018867215 0.0019929863 -0.015988583 -0.055772703

lstm1.bias_ih_l0 f4 [512]
00000000: cb8b 9c3d a562 fa3c 1cdd be3d f70f 193c
00000010: 942a aa3d 4e06 513d 3fb3 30bd 6f2e 263d
00000020: 301e 603c b217 9e3c 2f09 7b3c 2b29 1e3d
00000030: 15fb 953d 4a8d 8dbd 434b b6bc 207f 0d3e
00000040: 9897 a6ba c3c1 373d 0140 a4bc bebe 943c
00000050: edb0 8cbd 1e93 98bd 25e7 e43d 08ba 023d
00000060: 2313 d93b f746 6cbd c044 1c3d 4505 583d
00000070: eae8 23bc ec9b 5d3d 03f2 a0bb 4c94 c13d
00000080: e73b 0c3d d5d7 a23b 8024 253d 90e8 40bd
00000090: beb5 c3bd d38b 5dbc 8cdf be3d cbe6 a33c
000000a0: 3d8e 183d cb57 c8bd 0535 3abc c9b5 7e3d
000000b0: d0d4 b1bd 5905 9c3d 976a 9b3d 462e 0c3d
000000c0: 4349 55bd b836 b63e ff50 c83b 8be7 f23c
000000d0: 99a4 9a3d f0c6 533d 5a2a 44bd 74bb 4ebd
000000e0: 9dbe a8bc 175a 163c 55d4 1b3e 74b3 88bc
000000f0: db03 22bc ec86 9f3c 571c 6fbd 49e6 013c
00000100: 8926 7abb 123d 25bd abb2 a23d 34b0 733c
00000110: 1f94 e7bd de84 823c 2b18 33bc 7121 8cbc
00000120: cfbe b4bd 66f0 453d db95 853d 9f31 3bbd
00000130: 7c12 6e3e d4af 84bd 92dc a23c d4ec bd3c
00000140: 7f5e 84bd fcdd f33d e42d b43d 237f 46bd
00000150: 60de afba bb5d a83c a2d3 debc 11fe 1d3d
00000160: f256 d43c f5a0 073e 6efd 41bc db73 973a
00000170: f969 bcbd 06f3 9c3d c45b fcbc 29ed 913c
00000180: 40b9 a33d d7a2 61bd 7ec0 cebd ed28 6abd
00000190: 2dc2 133d 7e8c b1bd f763 7ebb b84c d9bc
000001a0: 0ed1 523d 0143 c3bd 48f1 a53b 1391 37bd
000001b0: a252 81bd 745d 043d de77 6bbb 56d6 2eba
000001c0: 80de d5bd 4984 cabd 8008 5cbd 4b18 87bc
000001d0: 35d4 f8bd e06a b93a 4432 28bd da31 913d
000001e0: a383 6abd 32b3 80bd e004 033d da12 cabd
000001f0: 62a0 173e 546c c2bd f145 2f3d 4ec4 5fbd
00000200: b15b 333d 8489 713a 5f27 cc3a 2ddf 81bd
00000210: 37d5 673d 6ad7 dbbc 518f a9bd 91b6 1dbd
00000220: cf60 373d 70f3 ccbb 7952 c23c 1674 a23d
00000230: 62ca b0bd f5e1 61bd b15e ba3c c68a 023d
00000240: 4f66 93bc 2463 95bc dc84 adbd d8e3 91bd
00000250: 3975 eabc 7102 2dbd 7e09 1d3d c261 10bd
00000260: b278 bb3c cd94 293c 3acf c5bd bb25 2c3d
00000270: 7d8d 99bb d8d7 9c3d ad28 81bd 543d d9bd
00000280: 4cc9 e33c 80b1 07bd 7dea c3bd a516 dbbc
00000290: 2cb9 6abc 0fdf 003d 91cd 9dbc 4712 65bd
000002a0: c18a 84bd 6c30 a2bd a8ab 1b3d 94a0 4f3d
000002b0: e325 eebc ec8e 5b3d 751f 853d 6408 aebc
000002c0: f71b 323d c571 843d fb62 2abc 8e5b ba3c
000002d0: 89a2 9bbd 9bbb 32bd 37c8 be3d fe23 0c3e
000002e0: 7f30 8d3c 2200 f4bc 8b54 3cbd e61e 7a3d
000002f0: 285e 633d c144 16bd 47da 10bd 4c72 473d
00000300: ab7c e13c 03cd bb3d eeb2 993d 2632 483d
00000310: 02d4 d2bd 2f2c a13d 4e90 7dbd dbef 283d
00000320: f6a8 833d 1273 f2bc 0f31 5d3c f141 8abd
00000330: 12a0 ac3c 1d1e 3c3d 90f0 8fbd acce 963c
00000340: d96c 103c ca8d 333d a82b 3e3d ec46 e33c
00000350: 1fe9 ecbd 4944 973c 82f7 c4bc 574a 45bc
00000360: 91f2 77bd a022 0c3e e348 3cbd c3f9 27bd
00000370: 3b30 713c b306 89bc c1b8 64bd 4a7a 01bc
00000380: c5a5 8ebc fdb0 6e3d 5984 79bd 4d73 8f3c
00000390: d8be 9b3d 10c2 633c 1814 37bd f48d 5bbd
000003a0: a213 c6bc cb72 aabd 0d8a f9bc eab4 e2bc
000003b0: 5229 4739 ee21 3c3d 00cf 893d 0317 8dbd
000003c0: a9cc 7cbd 05ab 4c3d ba4f 9d3d 70e2 86bd
000003d0: 4973 743d 1ffb c7bd 6624 363d 2138 dbbc
000003e0: 55bc 6abd 101f 9bbc 592a 1dbd 7488 8cbd
000003f0: 19cc 4fbd 7bf3 bdbd 9359 073d 695e d5bb
0.07643851 0.030564616 0.09319517 0.009342185 0.083089024 0.051031403 -0.043139692 0.040571626
0.013679072 0.019298408 0.015322014 0.03861348 0.07323281 -0.069117144 -0.022252684 0.13818026
-0.0012709973 0.04486252 -0.02005005 0.01815736 -0.068696834 -0.074499354 0.111769 0.031915694
0.0066245957 -0.057684865 0.038151503 0.0527394 -0.0100042615 0.054103777 -0.0049116625 0.094521135
0.034236815 0.004969577 0.040318012 -0.04709679 -0.09556149 -0.013522106 0.09319982 0.020007512
0.037245024 -0.0978237 -0.01136518 0.062185083 -0.08683169 0.076182075 0.0758869 0.034223817
-0.05207182 0.35588622 0.006113171 0.029651424 0.07550926 0.051703393 -0.047891952 -0.050471738
-0.020598704 0.0091767525 0.15217717 -0.016687132 -0.0098886145 0.019473515 -0.058376636 0.007928439
-0.0038169941 -0.040341444 0.079442345 0.014873553 -0.11307549 0.015932497 -0.010931055 -0.01710579
-0.08825456 0.048324965 0.06522723 -0.04570162 0.23249239 -0.06478849 0.019880567 0.023184218
-0.06463336 0.119075745 0.087978154 -0.04846109 -0.0013417713 0.020552507 -0.027200524 0.038572375
0.025920365 0.13244994 -0.0118402075 0.0011554913 -0.091999 0.076635405 -0.030805476 0.017813282
0.07994318 -0.055086937 -0.10095309 -0.057167936 0.036073852 -0.08669375 -0.0038816908 -0.02652584
0.0514689 -0.09534264 0.0050641634 -0.044816088 -0.06314589 0.032315686 -0.00359296 -0.0006669512
-0.10442829 -0.09888513 -0.053719044 -0.016491076 -0.1214985 0.0014146231 -0.041063562 0.070895866
-0.057254445 -0.06284179 0.03198707 -0.09866877 0.14807275 -0.09493318 0.04279131 -0.05463057
0.043788616 0.0009213912 0.0015575698 -0.063413955 0.056599822 -0.026836116 -0.082792886 -0.038504187
0.04477006 -0.006254606 0.023720967 0.07932298 -0.086323515 -0.05514713 0.02275023 0.031870626
-0.01799312 -0.01823575 -0.084726065 -0.07123536 -0.02862035 -0.042238656 0.03833913 -0.03524948
0.0228847 0.010350418 -0.09658666 0.04202817 -0.004686056 0.076583564 -0.063065864 -0.106074005
0.027805947 -0.03312826 -0.095662095 -0.026744196 -0.014326375 0.031462725 -0.01926306 -0.055925634
-0.06471778 -0.07919392 0.0380055 0.05069025 -0.0290708 0.053603098 0.065001406 -0.021244235
0.0434837 0.06467012 -0.010399575 0.022748735 -0.075993605 -0.043635946 0.09315532 0.13685605
0.017235039 -0.02978522 -0.045979064 0.061064623 0.055509716 -0.036686663 -0.035364415 0.048692986
0.027525267 0.09169962 0.07504831 0.04887595 -0.102943435 0.078697555 -0.061905198 0.04124437
0.06428711 -0.029595885 0.013500466 -0.067508586 0.021072421 0.045927156 -0.070283055 0.018409096
0.008815014 0.043836392 0.046428353 0.02774378 -0.11567902 0.018465178 -0.024043802 -0.01204165
-0.060534064 0.13685083 -0.045967948 -0.041009676 0.014720972 -0.016726827 -0.055840258 -0.007902691
-0.01741303 0.058274258 -0.060917232 0.017511034 0.0760476 0.013901249 -0.044696897 -0.053602174
-0.024179284 -0.08322676 -0.030461336 -0.027674157 0.00018993512 0.045930795 0.06728935 -0.06889155
-0.061718617 0.049967784 0.07681222 -0.06586158 0.059680257 -0.097646944 0.044468306 -0.026760163
-0.057308514 -0.01893571 -0.038370464 -0.06861964 -0.050731752 -0.09274956 0.03304441 -0.0065114987

lstm1.bias_hh_l0 f4 [512]
00000000: 784e 833d c1eb 943c 03b6 c0bc 1bac e93b
00000010: 0239 933d 08ac cb3d 2988 f7bc 2231 3e3d
00000020: 099b 3ebd ed87 203d 21f9 6f3d ce92 f1bc
00000030: 5a89 8c3b 3eac d0bd 0fd9 753b ca93 1b3d
00000040: ab61 823c fd37 76bd 051b f5bc 756a c83c
00000050: 6fac 613d a20e 8b3c 29d1 dc3d aef6 9f3d
00000060: b146 cebc f6d6 10be cd00 d4bc 2ed2 d43d
00000070: 17fd bd3c 7b41 813d 81b6 debd 59fb ebbc
00000080: db48 513d 3736 be3d 62e8 49bd 4766 813d
00000090: 3cc4 293d f5f7 8dbd 38dc cf3d 8ad4 c2bb
000000a0: 5c41 003e 1ffe 4f3d 03fc 72bc 9146 4dbd
000000b0: 001b 96bd bc62 023e cbfc 59bd cb47 fa3c
000000c0: a733 60bd 8c0b 9c3e 4eef 24bd 7728 8fbd
000000d0: 7c60 55bd fc99 113d 4f98 93bc 9048 9f3d
000000e0: 71ea f23c e4e6 67bd d9df 52bc 9e11 bd3c
000000f0: 1178 713d 01c6 00bd 15d6 f0bc a974 42bd
00000100: 9adb a6bd 7ba8 f83a 143e 0f3c dcb1 babd
00000110: eb04 bbbd b75a b6bd 8a4b a8bd 728f 6dbd
00000120: 5543 223d 059a 4d3d 0b84 56bb 8614 e0bb
00000130: e84c 123e 42d7 c13d a873 5cbd 4d9d a7bd
00000140: 578b 9dbc 7bf0 c83d e9ad 2c3d c2c6 853d
00000150: e05c 953d 8273 b53c cc4a d23c 551e 02bb
00000160: 30df 79bd 4526 a13d 38b1 8fbd af0a f0bc
00000170: 7a30 2cbd 7c24 28bc 8b59 2dbc 3299 b1ba
00000180: 6144 253d 660d 3d3c cc32 aabd d341 73bd
00000190: cbdd 9a3d 7c89 093d a0be 383d b0da 423d
000001a0: 7704 89bd f7aa a5bd 42da 3bbd 3748 3b3d
000001b0: 4096 49bd 7a24 573d ae9c 62bd f1a9 e4bc
000001c0: 3c83 a2bd 5bd8 baba 757a 91bd b9e3 4c3d
000001d0: 4f82 a03c f749 c83c f851 a7bc 8feb 45bd
000001e0: 7f89 c7bd 10a3 6ebd 683e be3d 9cd5 30bd
000001f0: 2c80 ce3d 2001 27bd f352 6c3d 5897 76bd
00000200: 1848 c63d f28b a6bd f494 3ebd 9e16 193c
00000210: 9edc a5bd b453 39bc 5926 79bd cf30 60bd
00000220: 5548 1a3d 2557 973d 9bef e4ba 57fd 4cbd
00000230: de15 69bd 4b21 093d 1ea8 2abd c2cf 7e3d
00000240: fa52 aa3d deaa b5bc 1b08 bebc 5f8d 88bd
00000250: 3e1b 173d 11ec 313d 3c26 a9ba 22fc fe3c
00000260: 52fe cfbc 67e3 bdbb 254d 3abd fa56 a23d
00000270: ae53 8fbd 9e8d e43d 3d5c 94bd c27f 80bd
00000280: 5b46 9dbd d737 4f3c 2e80 2dbd 56d1 063d
00000290: 65b9 06bd 860c ab3c 076c cb3c b988 2abd
000002a0: 10c0 6d3d ed54 3dbd b60d c73d 56b6 3a3d
000002b0: ab55 c23d f3da 02bd da59 b93a 77c6 e23d
000002c0: 7fc0 61bd e308 343c 2eff a83d b5ac 47bd
000002d0: c7dd c7bc bd18 58bd 8536 2a3d b8ae 2b3e
000002e0: df33 a9bd 329e c13c f5ae b73c b6d3 efbc
000002f0: f7c0 823d ad3c 8f3d ed96 963d 23f1 97bb
00000300: 91ac 813d 1936 c8bc 1809 b03d 08c9 343c
00000310: 36e1 c93b b1e5 123d 1c5d a0bd 671f 413d
00000320: 513c 3c3d 96c9 ebbc d871 26bd c83f 803d
00000330: 423c f9bb f303 083d 4f4c 81bd 80e8 343d
00000340: bc07 60bd ce57 4d3d 0291 eb3c 297e 99bd
00000350: 0cdf bd3c ff0d 80bd c41d 6f3c 71d8 7dbc
00000360: 4bf9 853d bead 143e 4739 12bc 0768 613d
00000370: 5b36 19bd 1962 21bd 3194 5fbd 9218 4cbc
00000380: dded 01bd a666 283d 2b14 343d 293c 9a3d
00000390: 4ee4 963d 4fba fd3c 2e61 133d 55bb 9a3c
000003a0: 2adf 583d abf7 0abd d258 42bd d2bd 7c3d
000003b0: 7f66 75bc 86cd 393d 9c6e ec3c 9d1a 503d
000003c0: 948c 95bd cd59 d53d e9f1 68bd 831d 493d
000003d0: 935a cebd fb94 c0bd 6c8c 323d 66a0 733d
000003e0: 42dd 88bd cd3b 85bb 0930 d43c 23ef 41bd
000003f0: 873a f83b 385a 093c 8207 fd3c bead 233d
0.06411451 0.018178822 -0.02352429 0.0071311123 0.07188608 0.09944922 -0.030216293 0.046433575
-0.04653457 0.03919213 0.058587197 -0.029488947 0.0042888345 -0.101891026 0.003751341 0.03798274
0.015915712 -0.06011199 -0.02992011 0.024464825 0.055096086 0.01697475 0.10782082 0.07810722
-0.025180193 -0.14144501 -0.025879288 0.10391651 0.023191972 0.063113175 -0.108746536 -0.028806375
0.05109487 0.092876844 -0.049293883 0.06318336 0.04144691 -0.0693206 0.10149425 -0.005945747
0.12524933 0.050779458 -0.014830592 -0.050116125 -0.073293686 0.12732977 -0.053219598 0.030551812
-0.05473676 0.3047756 -0.04026728 -0.0699014 -0.052093968 0.03554724 -0.018016962 0.07777512
0.029652806 -0.05661668 -0.012870752 0.02307969 0.058952395 -0.03143883 -0.029398957 -0.047474537
-0.081473544 0.001897111 0.008742828 -0.09115955 -0.091317974 -0.08904021 -0.08217533 -0.05799813
0.039614994 0.050195713 -0.0032732512 -0.006838384 0.1428715 0.09464885 -0.053821236 -0.081842996
-0.019231481 0.09811493 0.04215804 0.06532051 0.07293105 0.022149805 0.025670432 -0.0019854505
-0.061003864 0.078686275 -0.07016224 -0.02930197 -0.04203842 -0.010262605 -0.010580431 -0.0013549684
0.040348414 0.011538839 -0.0831047 -0.059388947 0.07561835 0.03357838 0.04510367 0.047571838
-0.06690305 -0.080892496 -0.045862444 0.045723166 -0.049215555 0.05252502 -0.055325203 -0.027913066
-0.07935187 -0.0014255153 -0.07103435 0.05002186 0.019593386 0.024449332 -0.020424828 -0.04832035
-0.09743022 -0.058260977 0.09289247 -0.043172464 0.100830406 -0.040772557 0.057696294 -0.060202926
0.096817195 -0.08132161 -0.04652877 0.009343771 -0.0809872 -0.01131146 -0.060827587 -0.054734048
0.037666637 0.073896684 -0.0017466428 -0.05004629 -0.05690562 0.033479016 -0.041664235 0.062209852
0.08316608 -0.022176202 -0.023197224 -0.066675894 0.036891215 0.04343802 -0.0012905071 0.031126086
-0.025389824 -0.0057949307 -0.045483727 0.07926746 -0.069983825 0.11159824 -0.072441556 -0.06274368
-0.07679435 0.012647591 -0.04235857 0.032914482 -0.03289165 0.020879995 0.024831785 -0.041634295
0.058044493 -0.04622357 0.09719412 0.045584045 0.09488996 -0.031947087 0.0014141158 0.110730104
-0.05511522 0.010988447 0.08251797 -0.04874869 -0.024397744 -0.052757967 0.0415559 0.16765869
-0.08261847 0.023635004 0.022422293 -0.029275756 0.063844614 0.06993995 0.073530056 -0.0046369
0.063317426 -0.024439858 0.085954845 0.011034258 0.0061608804 0.035863582 -0.07830259 0.04714909
0.04595596 -0.028782647 -0.040635914 0.06262165 -0.0076060602 0.03320689 -0.06313383 0.04416704
-0.054694876 0.050132565 0.028755669 -0.07494766 0.023177646 -0.062526695 0.014594499 -0.015493498
0.065416895 0.14519402 -0.008924789 0.05503085 -0.037405353 -0.039400194 -0.054584686 -0.01245703
-0.031720985 0.04111352 0.043964546 0.07531006 0.073677644 0.030972628 0.03598135 0.018888155
0.0529472 -0.0339276 -0.047447987 0.061704464 -0.01497805 0.045362018 0.028861336 0.05080663
-0.07302204 0.10417519 -0.05687133 0.04910041 -0.100758694 -0.09403416 0.043590948 0.05947914
-0.066828266 -0.0040659667 0.025901811 -0.0473472 0.0075753364 0.008383326 0.030887369 0.039960615

fc.weight f4 [1, 128]
00000000: 250e a6bb 5705 0f3e c993 a6bd 0e2a 393d
00000010: 7f01 bd3d 3e0e 61be 8a56 833d 4f5d a5bd
00000020: cfde 3dba ab85 d13d fc58 143e 419b d2bd
00000030: 4087 02bd d2ce 8abd fc84 0dbe b9b2 21be
00000040: 9cc2 05be b8e4 a63c 7270 03be 5e66 8bba
00000050: e5d1 9cbd e69f c03d fa93 a7bd 4b8f e43d
00000060: 1f35 cc3d 27f1 8b3c 9681 f7bd 9465 2e3e
00000070: ca45 aabd e363 6cbe 1917 2abd b3ba 69be
00000080: ffc5 503c e1e3 0bbe 3fac 66be 1f1f 2d3d
00000090: 56a0 b3bd 151a 963d 80f2 1c3e 0567 df3b
000000a0: 9e46 ddbd 7e1e d3bd d3ee ff3d beeb 18bd
000000b0: 71b7 a9bd eba7 913d 5077 0fbe e18e 183e
000000c0: 0edc 023e cd59 8f3e 966c 46be 0bcd 8dbd
000000d0: 0f00 753e 8ab1 0cbe ab0c f2bd 7742 ab3c
000000e0: 8b1b 223c 9334 b2bd 7717 e53d 6570 e53c
000000f0: 8f06 a7bc d5bc 9d3d 8a50 d0bd 099e f73d
00000100: 8c06 a63d 325b 8ebd 4134 1bbe 7b54 86bd
00000110: 4166 d4bd 1fd8 b8bd c4fd 593d 4d15 6abd
00000120: 187f 053e 09c6 d9bb 62d2 9c3d cf3e 843d
00000130: d86c 36be 95f1 0cbe 773a 603d e8d8 c43d
00000140: 305c 4b3d feec d33d 2f43 2bbd 31d0 2e3d
00000150: a2a8 153e 0c58 08bd fc35 953d 7edf 963d
00000160: 7c48 133e 8866 7a3d 4af5 73bd a7e1 16bc
00000170: 5fce fe3d 03c2 dc3c 4976 1dbd ed40 4abd
00000180: 3292 11bd adad 923b c35b 05be 8359 163e
00000190: 54bb e8bd f3fa 8c3d c89e cbbd 9d62 edbd
000001a0: ac5a 023d ad03 02be 83c1 403d 6121 983d
000001b0: fc8e 78bd 7dc3 143e 9d6e f139 a06e 37bd
000001c0: 408b 9b3d dee3 353d 4521 cd3d 5ef1 0fbd
000001d0: 15f8 83bd 8558 d8bc e2ce ca3d 50dd cf3d
000001e0: 6fb9 0b3d f3ea a83d cfeb 72bd c330 4ebd
000001f0: 46eb 27bd 19b5 19bd 86ee 68be b57f 9f3c
-0.005067604 0.1396688 -0.081336565 0.045206122 0.09228801 -0.21978089 0.064129904 -0.08074438
-0.0007242979 0.10230573 0.1448707 -0.102835186 -0.031867266 -0.06777729 -0.13820261 -0.15790834
-0.13062519 0.020372733 -0.12835863 -0.0010635366 -0.07657222 0.09405498 -0.08182521 0.111601435
0.099710695 0.017082764 -0.120852634 0.17030936 -0.083140925 -0.23084979 -0.041525934 -0.22825126
0.012742518 -0.13661148 -0.22526644 0.042266008 -0.08770816 0.073291935 0.15326881 0.006817701
-0.10804485 -0.1030855 0.12496724 -0.037334196 -0.08286942 0.07112106 -0.14010358 0.14898254
0.12779257 0.279982 -0.1937736 -0.069238745 0.23925804 -0.13739601 -0.118188225 0.020905716
0.009894262 -0.08701434 0.11186116 0.028007695 -0.02038887 0.077020325 -0.101716116 0.1209069
0.081067175 -0.06950988 -0.15156652 -0.06559082 -0.10371066 -0.09025597 0.053220525 -0.05714922
0.13036764 -0.006645922 0.07657315 0.06457292 -0.17814958 -0.13764031 0.054743256 0.09611684
0.049648464 0.10347937 -0.04181212 0.042679016 0.1461511 -0.033287093 0.07285687 0.073668465
0.1438312 0.061132938 -0.059560098 -0.009209073 0.12441706 0.02694798 -0.038442884 -0.049378324
-0.035539813 0.00447627 -0.13023286 0.14682584 -0.11363855 0.06883802 -0.099423945 -0.115910746
0.031824753 -0.12696715 0.047059547 0.074282415 -0.060683236 0.14527698 0.00046049515 -0.044783235
0.07594919 0.044406764 0.10016111 -0.035142295 -0.06443802 -0.026409397 0.09902741 0.10149634
0.03411239 0.08247938 -0.059306916 -0.05033947 -0.04099586 -0.037526224 -0.2274724 0.019470075
