lstm_pytorch/model_LSTM.pt (torch, 333856 bytes, 6 tensors)

weight_ih_l0 f4 [512, 28]
0	0x3db5502c	0.08853182
1	0x3e057e20	0.13036394
2	0x3e201b11	0.15635325
3	0x3d461af6	0.048365556
4	0xbe20b20c	-0.1569292
5	0xbdd123f1	-0.102119334
6	0xbe2a1a15	-0.16611512
7	0xbddaac3e	-0.10677384
8	0x3c839ec0	0.016066909
9	0xbe96cd5c	-0.29453552
10	0xbe311c1a	-0.17295876
11	0x3de0f92d	0.109850265
12	0x3e81bda3	0.25339994
13	0x3e834bd9	0.25643805
14	0x3e274f26	0.16338786
15	0x3d1f2d65	0.03886165
16	0x3c1e4345	0.009659593
17	0x3dd43e83	0.10363486
18	0x3d84cc98	0.06484336
19	0x3d81e570	0.0634259
20	0xbc74a450	-0.014931753
21	0xbc26bfb5	-0.010177542
22	0x3d3a6d2d	0.045514274
23	0x3c7fddc5	0.015616839
24	0x3dbff4cf	0.093728654
25	0xbdbd0bad	-0.092307426
26	0xbaa42996	-0.0012524601
27	0xbe1a6343	-0.15076928
28	0xbea076bc	-0.31340587
29	0x3e040372	0.1289194
30	0x3dbdf805	0.092758216
31	0x3de6467e	0.11243914
32	0x3e067273	0.13129596
33	0x3d3ce825	0.046119828
34	0xbc87368b	-0.0165055
35	0xbe36dfdd	-0.17858835
36	0xbdebf877	-0.11522
37	0xbd9173e9	-0.07102186
38	0xbd26e728	-0.04074779
39	0x3e3c5cf0	0.18394828
40	0x3d45873d	0.048224676
41	0x3c028a1f	0.007967501
42	0xbde3ba46	-0.11119513
43	0xbe94de07	-0.29075643
44	0xbd396dc8	-0.04527071
45	0x3de6f503	0.11277201
46	0x3ebf1141	0.3731785
47	0x3eadab28	0.33919644
48	0x3e7b13ed	0.2451932
49	0x3d5584f9	0.052128766
50	0xbe386476	-0.18007073
51	0xbed198df	-0.40936944
52	0xbedbb201	-0.42909244
53	0xbecff262	-0.4061461
54	0xbe98cb12	-0.2984243
55	0x3e18a0a6	0.14905033
56	0xbe052a08	-0.13004315
57	0x3c31da4f	0.0108552715
58	0x3e1dea57	0.15421425
59	0x3db497f1	0.08818043
60	0x3eeb3a57	0.45942947
61	0x3ed4f0c5	0.41589943
62	0x3e83e05b	0.25757107
63	0x3d3f1b31	0.04665679
64	0x3dd8c144	0.105837375
65	0xbdb28f16	-0.08718698
66	0xbcb12534	-0.021624185
67	0x3e4e3ab7	0.20139585
68	0x3dd578b0	0.1042341
69	0xbe135609	-0.14388289
70	0xbe7a013d	-0.24414535
71	0x3cdcb1ae	0.026940193
72	0x3d97e742	0.07417156
73	0x3e4013c3	0.18757538
74	0x3e04dd5d	0.12975068
75	0x3e7aa8c1	0.24478437
76	0x3e334246	0.1750575
77	0x3e036ae8	0.1283375
78	0x3d84c299	0.06482429
79	0xbd44ccb9	-0.0480468
80	0x3df616c3	0.1201606
81	0x3d3f581a	0.04671488
82	0x3e28dbaa	0.16490045
83	0x3e43dceb	0.19127242
84	0xbe24b898	-0.16086042
85	0xbd08a049	-0.033355985
86	0xbd997c00	-0.07494354
87	0x3d281827	0.04103866
88	0x3e7c34b7	0.24629484
89	0x3e056537	0.13026892
90	0x3e20301e	0.15643355
91	0x3ea0e647	0.31425688
92	0x3dae68c8	0.08516079
93	0xbe049520	-0.12947512
94	0xbe92a184	-0.28638852
95	0xbeb7f276	-0.3592717
96	0xbe28fb49	-0.16502108
97	0xbe08a631	-0.13344647
98	0x3e14e8fa	0.14541999
99	0x3eb73577	0.35782978
100	0x3d2abfe8	0.041686922
101	0xbe03d434	-0.12873918
102	0xbe1dafd4	-0.15399104
103	0xbe21008c	-0.15722865
104	0xbe26ca47	-0.162881
105	0xbe593260	-0.21210623
106	0xbe7508cc	-0.23929137
107	0xbe17cce6	-0.14824256
108	0xbe8f84ba	-0.2803095
109	0xbd261995	-0.04055174
110	0xbc837c7b	-0.016050568
111	0xbd83fc6b	-0.06444629
112	0xbc710a59	-0.01471194
113	0x3e34f931	0.17673184
114	0xbe51b463	-0.20478968
115	0xbd9c1f8c	-0.076232046
116	0x3e81ff33	0.25390014
117	0x3ea0ddac	0.31419122
118	0x3dd1ad48	0.10238129
119	0x3df0543e	0.11734818
120	0x3d779c6d	0.060451914
121	0x3d701830	0.058616817
122	0x3e8302b1	0.2558799
123	0xbda04e70	-0.07827461
124	0x3d4df5bb	0.050283175
125	0x3daa80c4	0.08325341
126	0x3d56c565	0.052434344
127	0x3993035c	0.00028040528
128	0xbe301772	-0.17196444
129	0xbe88dead	-0.26732388
130	0xbf05ec9d	-0.5231417
131	0xbf120c6f	-0.5705022
132	0xbf2acf20	-0.667223
133	0xbf03dca4	-0.51508546
134	0xbec9e861	-0.39435104
135	0xbeea8eaa	-0.4581197
136	0xbf3309d3	-0.69936866
137	0xbf1e2a17	-0.61782974
138	0xbe8a21f3	-0.26979026
139	0x3e0fef61	0.1405616
140	0x3e77b9a4	0.2419191
141	0xbccae402	-0.024766926
142	0xbdc59a7b	-0.096486054
143	0xbd721403	-0.059101116
144	0x3d2af3d4	0.04173644
145	0xbd3c3df4	-0.04595752
146	0xbe05ed1d	-0.13078733
147	0xbe638bc6	-0.22221288
148	0xbe14c59b	-0.14528506
149	0x3cd8ab91	0.026448997
150	0x3da9aff0	0.082855105
151	0x3e9851da	0.29749948
152	0x3ee514bb	0.4474238
153	0x3ede31bf	0.43397328
154	0x3df737b6	0.12071173
155	0x3e727e26	0.23680934
156	0x3e01c4d0	0.12672734
157	0x3da7200d	0.0816041
158	0xbe28b60a	-0.16475692
159	0xbe76ad30	-0.24089503
160	0xbeb873fe	-0.36025995
161	0xbe0d7cdc	-0.13817161
162	0xbd6d1172	-0.057877965
163	0x3dc8b163	0.09799459
164	0xbda0808d	-0.07837019
165	0xbe50c4dd	-0.20387597
166	0xbdf03ed1	-0.11730731
167	0xbdb7332a	-0.08945306
168	0x3e5beaa8	0.21476233
169	0x3d221a5e	0.039575927
170	0x3e97d88e	0.29657406
171	0x3e89f7f6	0.26946992
172	0x3f04bd82	0.51851666
173	0x3e6ce132	0.2313278
174	0x3d3e9a84	0.046534076
175	0x3e20bd25	0.15697153
176	0x3dadf641	0.08494235
177	0xbadcae05	-0.001683653
178	0xbe84a53e	-0.2590732
179	0xbe5fc61b	-0.21852915
180	0xbe3ff600	-0.18746185
181	0x3d8d10d3	0.068879746
182	0x3d2126e9	0.03934375
183	0x3d08a225	0.033357758
184	0xbd7b3172	-0.06132645
185	0xbd044ab1	-0.032297794
186	0x3de608e5	0.11232165
187	0xbb3195f0	-0.0027097426
188	0x3dba1881	0.09086705
189	0x3d7100e4	0.05883874
190	0xbd04c8d7	-0.0324181
191	0x3e6af52f	0.22945093
192	0x3d973378	0.07382864
193	0xbe8cb4c9	-0.27481678
194	0xbe04761f	-0.12935685
195	0x3d869cec	0.06572899
196	0x3dc0114f	0.09378301
197	0x3eaa5e5f	0.33275124
198	0x3d3766fa	0.04477594
199	0xbeeecb63	-0.46639547
200	0xbef6f062	-0.48230273
201	0xbedd1ed5	-0.43187585
202	0xbe8ba163	-0.27271566
203	0x3d139e8f	0.036039885
204	0x3d98a822	0.07453944
205	0x3dee9829	0.11650116
206	0x3e071113	0.13190107
207	0x3e2a22e5	0.16614874
208	0x3beaa418	0.007160675
209	0xbe5d3465	-0.21602018
210	0xbe9373e4	-0.28799355
211	0xbe98bb4a	-0.2983039
212	0xbe987eea	-0.29784328
213	0xbe426178	-0.18982494
214	0xbeb99896	-0.36249226
215	0xbf205bec	-0.6264026
216	0xbe8ad589	-0.2711604
217	0xbe87c7ab	-0.26519522
218	0x3c7a03fb	0.015259738
219	0xbd02b30c	-0.031909034
220	0x3dc626e3	0.09675386
221	0x3d12175a	0.0356668
222	0x3d72d46a	0.059284605
223	0x3e4c93b7	0.19978224
224	0xbd9268f9	-0.07148928
225	0x3e0d3a7f	0.13791846
226	0xbdbf56af	-0.093427055
227	0x3dc77e51	0.0974089
228	0x3e854097	0.2602584
229	0x3ea9f413	0.33194026
230	0x3eeff1c6	0.46864146
231	0x3edbf718	0.42961955
232	0x3eaef0b2	0.3416801
233	0x3e771b36	0.24131474
234	0x3dd22934	0.10261765
235	0x3c2db6dc	0.010602679
236	0xbd5c7ba8	-0.053828865
237	0xbccb3ec9	-0.024810212
238	0x3e6ba969	0.23013844
239	0x3e494667	0.19655763
240	0x3e012ac4	0.1261397
241	0x3e0a7eb4	0.13524896
242	0x3d397366	0.04527607
243	0x3d951868	0.07280046
244	0x3e30227a	0.17200652
245	0x3e6bf840	0.23043919
246	0x3e86458f	0.26224944
247	0x3ebaea07	0.36506674
248	0x3e038a44	0.12845713
249	0xbd1b4084	-0.037903324
250	0xbdfe0188	-0.12402636
251	0x3ddf542b	0.10904726
252	0xbe15f3f1	-0.14643838
253	0xbe4316d1	-0.19051673
254	0xbe8a8ac1	-0.27058986
255	0xbe0ba05c	-0.13635391

weight_hh_l0 f4 [512, 128]
0	0xbd6bbce9	-0.057553206
1	0xbddf2864	-0.10896376
2	0x3d4ba2d7	0.049715843
3	0xbe7948ae	-0.24344131
4	0x3e1d1fd0	0.15344167
5	0xbd56caa1	-0.052439336
6	0xbd224dd6	-0.03962501
7	0x3dd54afb	0.10414692
8	0xbe6626c2	-0.22475722
9	0xbdd36c55	-0.10323397
10	0x3e98da1e	0.2985391
11	0xbe54dabe	-0.20786569
12	0x3e74dbc5	0.2391196
13	0xbdc4729d	-0.09592173
14	0x3e80c9e0	0.25154018
15	0xbc38c0fa	-0.011276478
16	0x3e9c4580	0.30521774
17	0xbda8505a	-0.08218451
18	0x3d2f7a0f	0.042841014
19	0xbddf936f	-0.109167926
20	0xbd529e7d	-0.051420677
21	0xbdb2e75b	-0.08735534
22	0xbe85604a	-0.26050025
23	0x3e33f473	0.17573719
24	0x3dfc055c	0.1230571
25	0x3ef73a30	0.4828658
26	0xbe57058c	-0.2099821
27	0xbdc7c511	-0.09754384
28	0x3e23e22a	0.16004243
29	0xbe13a3c5	-0.14417942
30	0xbda0708b	-0.07833966
31	0xbc320a7d	-0.010866758
32	0x3e760328	0.24024642
33	0x3e3c37b9	0.18380632
34	0xbea8d12f	-0.32972094
35	0x3da9c2cb	0.08289107
36	0xbe756ac6	-0.23966512
37	0x3c458a15	0.012056847
38	0xbe97fa3d	-0.29683104
39	0x3ea5696e	0.32307
40	0xbc630a2f	-0.013857408
41	0xbd815740	-0.0631547
42	0x3df82726	0.12116842
43	0xbe8d09b9	-0.2754648
44	0xbe93b7cf	-0.28851172
45	0xbde08a96	-0.10963933
46	0xbda13dcd	-0.07873116
47	0x3d1e91b0	0.038713157
48	0xbc8e0370	-0.017335624
49	0xbe141069	-0.14459385
50	0xbe168b76	-0.14701638
51	0xbe5356b6	-0.20638546
52	0x3df62841	0.120193966
53	0xbc6f2c81	-0.014598013
54	0xbdc2887c	-0.094986886
55	0x3d9a84b7	0.075448446
56	0xbde6f62c	-0.11277422
57	0x3d12716f	0.03575271
58	0x3df46cfb	0.11934849
59	0xbd0107a3	-0.031501424
60	0xbca849eb	-0.02054306
61	0x3e12e853	0.14346437
62	0xbdcf8808	-0.10133368
63	0xbddcc606	-0.107799575
64	0xbe401489	-0.18757834
65	0x3e9b232b	0.3030027
66	0xbe0394ea	-0.12849775
67	0xbd2d2d96	-0.042279802
68	0x3e8c9aaa	0.2746175
69	0xbcce7900	-0.025204182
70	0x3d0e1201	0.03468514
71	0x3e12f96a	0.14352956
72	0xbbe797f6	-0.0070676757
73	0xbb3dde14	-0.002897148
74	0x3e5b16b0	0.21395373
75	0x3d461a2f	0.048364814
76	0xbe7f513f	-0.24933337
77	0x3e8f2c56	0.27963513
78	0x3e185248	0.14875138
79	0xbe033a78	-0.12815273
80	0xbe048f8b	-0.12945382
81	0xbe03d451	-0.12873961
82	0x3ed9d788	0.4254725
83	0xbee763a0	-0.45193195
84	0x3d832155	0.06402842
85	0xbea62916	-0.3245322
86	0xbdbf3c3c	-0.09337661
87	0xbe8005c8	-0.2500441
88	0xbe121443	-0.14265542
89	0xbdb698f5	-0.08915893
90	0xbd2b5c89	-0.041836295
91	0xbde8b3bb	-0.11362406
92	0x3d606b75	0.05478998
93	0x3e816015	0.25268617
94	0x3dac3d2b	0.08410104
95	0xbc8f301c	-0.017478995
96	0xbc979afa	-0.018506516
97	0xbc6f68d2	-0.014612393
98	0xbe247f3a	-0.16064158
99	0xbdadf371	-0.084936984
100	0xbd74aca5	-0.05973496
101	0x3e621188	0.22077
102	0xbe3a082b	-0.18167178
103	0xbe02f64a	-0.12789264
104	0xbe573eb0	-0.21020007
105	0x3d0db687	0.0345979
106	0xbd24ee77	-0.04026648
107	0x3d8a47bb	0.06751963
108	0x3d355f3f	0.044280287
109	0xbe7c1438	-0.24617088
110	0x3d32f38b	0.043689292
111	0xbe2a29dd	-0.16617532
112	0xbb966f29	-0.004590888
113	0x3e6c6771	0.23086335
114	0xbd144cfc	-0.03620623
115	0xbe57add0	-0.21062398
116	0x3de1df1f	0.11028885
117	0x3d90fd45	0.07079557
118	0xbe076e45	-0.13225658
119	0x3df5ba7b	0.11998459
120	0x3d3975f4	0.045278504
121	0xbe88adee	-0.26695198
122	0xbea207ac	-0.31646478
123	0x3dc3cbdc	0.095603675
124	0xbe23403d	-0.15942474
125	0x3dd2db40	0.10295725
126	0x3d08aa39	0.033365462
127	0x3e60fb0a	0.21970764
128	0x3df26620	0.11835885
129	0xbd98eb6f	-0.074667804
130	0xbd2d0c07	-0.0422478
131	0xbd08f66a	-0.033438124
132	0x3e2a3cc3	0.16624741
133	0x3e46ab6c	0.1940133
134	0x3d456bea	0.048198618
135	0x3e051095	0.12994607
136	0x3bd42098	0.006473612
137	0xbd98b914	-0.07457176
138	0x3e91eff4	0.28503382
139	0x3d82eaf3	0.06392469
140	0xbe1c8176	-0.1528376
141	0xbe275dc3	-0.16344361
142	0xba84f2e0	-0.0010143183
143	0xbe85d544	-0.2613927
144	0xbe0b7b27	-0.13621198
145	0xbe1bb4f0	-0.15205741
146	0x3e7c34a0	0.2462945
147	0x3e3e9c34	0.18614274
148	0x3e338961	0.17532875
149	0x3e2a7a0c	0.1664812
150	0xbe0c7e6b	-0.137201
151	0xbce8d0cb	-0.028419873
152	0x3e5a9a7b	0.21347992
153	0x3d0ba7ca	0.034095563
154	0x3e1c3167	0.1525322
155	0x3dc94c0f	0.0982896
156	0xbd02393d	-0.031792868
157	0xbcd1fd19	-0.025633382
158	0x3e1f5b12	0.15562084
159	0x3d48142b	0.04884736
160	0xbd23111b	-0.039811235
161	0xbde3e4a9	-0.11127598
162	0xbd3d4fd8	-0.046218723
163	0x3d7cefb7	0.061752047
164	0x3d546bef	0.051860746
165	0xbd2f1731	-0.042746726
166	0xbd21372e	-0.039359264
167	0xbdc1a78a	-0.09455784
168	0xbe3ced08	-0.18449795
169	0x3e20e42e	0.15712044
170	0xbd9b33aa	-0.075782135
171	0x3c94147d	0.018076176
172	0xbc05c452	-0.008164482
173	0xbe5d3bfe	-0.21604916
174	0x3c41e810	0.011835113
175	0x3e279f11	0.16369273
176	0xbdd57799	-0.10423202
177	0xbd0abab2	-0.033869453
178	0x3d6be880	0.057594776
179	0x3e316d16	0.17326769
180	0x3deb9fcc	0.11505088
181	0x3be8434b	0.0070881
182	0x3ccd2aee	0.025044885
183	0x3c8cb5e1	0.01717657
184	0xbdafb6cb	-0.08579787
185	0xbe9e2e14	-0.3089453
186	0x3e05ed4d	0.13078804
187	0xbdd2a04a	-0.10284479
188	0xbdfa71e8	-0.12228757
189	0x3d917e91	0.07104219
190	0x3e3f919d	0.18707891
191	0xbe1205f3	-0.14260082
192	0xbd92b4db	-0.07163402
193	0xbb234eaa	-0.0024918714
194	0xbe5b6ba1	-0.21427776
195	0x3d86838a	0.06568058
196	0x3c8b7ae4	0.017026372
197	0x3e8278e4	0.25482857
198	0x3db7b461	0.089699514
199	0xbdb5ee21	-0.0888331
200	0x3e6a8e17	0.22905765
201	0x3d99b310	0.075048566
202	0x3d9001fc	0.070316285
203	0xbd95bc9c	-0.07311365
204	0x3dba7a58	0.091053665
205	0xbd9fc8bb	-0.07801958
206	0x3e16aaf5	0.14713652
207	0x3d9be0ae	0.076112136
208	0xbd838c6f	-0.0642327
209	0x3d66d211	0.05635268
210	0x3cf8ff06	0.030395042
211	0x3e8e3f9b	0.27782902
212	0x3dd6d1c3	0.104892276
213	0x3b9f8116	0.004867683
214	0xbd15c540	-0.036565065
215	0xbe3d5e3a	-0.18492976
216	0x3df65f84	0.12029937
217	0xbe091578	-0.13387096
218	0xbd58c709	-0.05292419
219	0xbe009280	-0.12555885
220	0xbcf40f70	-0.029792517
221	0xbe0bb3f3	-0.13642864
222	0x3c355d6f	0.01106964
223	0xbe248d1d	-0.16069455
224	0x3e034203	0.1281815
225	0xbe4f80fe	-0.2026405
226	0x3e8abf27	0.27098963
227	0xbc944956	-0.018101376
228	0x3d75d841	0.06002069
229	0x3df9c6e2	0.12196137
230	0x3b8c5151	0.0042821546
231	0xbe1656a8	-0.14681494
232	0xbdce993f	-0.10087823
233	0x3d50a1b6	0.05093547
234	0x3d398fe2	0.045303233
235	0xbe263c82	-0.1623402
236	0x3e370a8e	0.1787512
237	0xbe739642	-0.23787788
238	0xbe591ef3	-0.21203212
239	0xbe6ca724	-0.23110634
240	0x3e382ea3	0.1798654
241	0xbd4248f5	-0.04743286
242	0xbd86d8e6	-0.06584339
243	0x3ca94550	0.020662934
244	0xbe58b7a2	-0.211638
245	0xbd7cf899	-0.06176052
246	0x3d694bac	0.056956932
247	0x3e484de9	0.1956097
248	0xbe195f40	-0.14977741
249	0xbdcd3883	-0.100205444
250	0xbdc731de	-0.09726308
251	0xbe02e8d6	-0.12784132
252	0xbb4bc98d	-0.0031095475
253	0xbdfaa3f1	-0.122383006
254	0x3c81a99f	0.015827952
255	0x3e4ab5ca	0.1979591

bias_ih_l0 f4 [512]
0	0x3d45958d	0.048238326
1	0x3c461c2e	0.0120916795
2	0xbdb9b020	-0.09066796
3	0xbdfd5887	-0.12370401
4	0x3e4678fe	0.19382092
5	0xbde11457	-0.10990208
6	0xbd1aec0c	-0.037822768
7	0x3d1226d9	0.03568158
8	0x3cbf1347	0.023324622
9	0xbe36f5fa	-0.1786727
10	0xbe937b57	-0.28805038
11	0xbc79a092	-0.015236037
12	0x3e379322	0.1792722
13	0x3daa1641	0.08305026
14	0xbe770aed	-0.24125262
15	0xbe1bd4e9	-0.15217938
16	0x3d0370a2	0.032089837
17	0xbd9a9a52	-0.075489655
18	0xbcd5c240	-0.026093602
19	0xbd34165b	-0.043966632
20	0x3dab1f0a	0.083555296
21	0xbe74231a	-0.23841515
22	0xbd4243e1	-0.047428016
23	0x3d60afbe	0.0548551
24	0x3c8a18e7	0.016857577
25	0xbcbcd1ab	-0.023049196
26	0x3cbc7076	0.023002844
27	0x3d44f85d	0.04808842
28	0xbb3ecb71	-0.002911296
29	0xbe0e16b2	-0.13875845
30	0x3913cc2c	0.00014095072
31	0xbd75dfbd	-0.060027827
32	0xbd764da5	-0.06013264
33	0x3de23e8f	0.11047088
34	0xbd885ef8	-0.06658739
35	0x3bde8afb	0.00679147
36	0xbd595286	-0.053057216
37	0x3dad979f	0.08476185
38	0xbdec4506	-0.11536603
39	0xbcd31ed1	-0.02577153
40	0x3bbfe37d	0.005855976
41	0xbe282eff	-0.16424178
42	0xbe0e36db	-0.13888113
43	0xbb5c5f39	-0.0033626093
44	0xbe1366cb	-0.14394681
45	0xbe11a207	-0.14221965
46	0x3df6da53	0.12053361
47	0xbe47745b	-0.1947798
48	0x3c089642	0.0083366055
49	0x3d083675	0.03325506
50	0x3cf541fc	0.02993869
51	0xbca38408	-0.019960418
52	0xba0844a7	-0.0005198218
53	0xbdcf1680	-0.101117134
54	0x3dff74fd	0.124734856
55	0x3bfe72f8	0.00776517
56	0x3cce6e03	0.025198942
57	0xbdcea613	-0.1009027
58	0x3d4de6a5	0.050268788
59	0x3dcdcc9c	0.10048792
60	0xbe06b174	-0.1315363
61	0xbad94328	-0.00165758
62	0xbda45b41	-0.08025218
63	0xbe03931f	-0.12849091
64	0xbd0bbc2d	-0.034115005
65	0xbdb8c357	-0.09021633
66	0xbc006f84	-0.007839087
67	0xbe005153	-0.12531023
68	0xbdd334ed	-0.10312829
69	0x3e124eef	0.14287923
70	0xbda067fb	-0.07832333
71	0xbd72dbac	-0.059291527
72	0xbe818b4b	-0.25301585
73	0x3e585222	0.21125081
74	0xbdcaf7f0	-0.099105716
75	0xbd3fe492	-0.04684884
76	0xbda23a89	-0.07921321
77	0xbdffbada	-0.12486811
78	0xbd5981ce	-0.053102307
79	0xbc23bca7	-0.009993709
80	0xbc973c30	-0.018461317
81	0x3d81085e	0.06300424
82	0x3d1f2b84	0.03885986
83	0x3bb279b8	0.005446639
84	0xbd8abc79	-0.067742296
85	0x3e36f61d	0.17867322
86	0xbd0bcc2d	-0.034130264
87	0xbdff3aca	-0.12462385
88	0xbd08abcd	-0.033366967
89	0xbd50fbec	-0.0510215
90	0xbdcc76a4	-0.099835664
91	0xbd2d37b2	-0.042289443
92	0xbdb56500	-0.08857155
93	0x3d0edacf	0.03487664
94	0xbe053920	-0.13010073
95	0x3d9e728c	0.07736692
96	0x3da6126e	0.08108984
97	0xbe4a554a	-0.19759098
98	0xbd3b31fe	-0.045701973
99	0xbdfe63af	-0.12421357
100	0xbd0846a9	-0.03327051
101	0xbd3842eb	-0.044985693
102	0xbd3faf41	-0.046797995
103	0xbde2d6b6	-0.11076109
104	0x3e0be4da	0.13661519
105	0x3d4dcb05	0.050242443
106	0xbd5e9f7e	-0.054351322
107	0xbd1845e6	-0.037176035
108	0xbd46bf5b	-0.048522335
109	0xbdcd094e	-0.1001154
110	0x3e12a700	0.14321518
111	0x3b9d611e	0.004802837
112	0x3c97f5a2	0.018549744
113	0xbe836fd9	-0.2567127
114	0xbd89305c	-0.06698677
115	0x3ca8b1dc	0.020592622
116	0xbc86d928	-0.01646097
117	0xbdb136eb	-0.08653053
118	0xbd613573	-0.054982614
119	0xbdec6de7	-0.115444
120	0x3d090581	0.033452515
121	0xbde39dc5	-0.111140765
122	0xbe15fc58	-0.14647043
123	0x3daca1bd	0.08429287
124	0x3e02c329	0.1276976
125	0x3beaeefb	0.007169602
126	0xbd4dd187	-0.05024865
127	0xbd48c556	-0.04901632
128	0x3c8e6b60	0.017385185
129	0x3e29b20c	0.16571826
130	0xbb6ba4a5	-0.003595629
131	0x3e6f3bbf	0.23362635
132	0x3d7d5f96	0.061858736
133	0x3ddc5cba	0.10759874
134	0x3e1da668	0.1539551
135	0x3dd47378	0.103735864
136	0x3e14a358	0.14515436
137	0x3e2b6bc2	0.16740325
138	0x3d672a8a	0.056437053
139	0x3e4b9a8d	0.19883175
140	0x3dc16538	0.09443134
141	0x3e913788	0.2836268
142	0xbd22734e	-0.039660744
143	0x3de47199	0.111544795
144	0x3e14ff3c	0.14550489
145	0x3e34a3b2	0.1764057
146	0x3e8f05a2	0.27933985
147	0x3e2ccb84	0.1687451
148	0x3cb7b287	0.022423996
149	0xbd14595d	-0.036218036
150	0x3de8d680	0.11369038
151	0x3d99507d	0.07486055
152	0x3e171d29	0.14757217
153	0x3ea61b35	0.32442632
154	0x3d4e7628	0.05040565
155	0x3e9e366d	0.309009
156	0x3dbfada4	0.09359291
157	0x3bfe382e	0.007758162
158	0x3dfe8904	0.124284774
159	0x3cbf5ba8	0.023359135
160	0x3e2d0f23	0.16900305
161	0x3d656dc7	0.056012895
162	0xbba8ef45	-0.0051554763
163	0x3e28e0a0	0.16491938
164	0x3d486807	0.048927333
165	0x3e041bed	0.12901278
166	0x3e4756ae	0.1946666
167	0x3d1a942d	0.037738968
168	0x3bca8719	0.0061806557
169	0xbcab8938	-0.020939454
170	0x3cc2ceab	0.023780188
171	0x3dc83602	0.09775926
172	0x3df0a6b0	0.11750543
173	0xbccc46e0	-0.02493614
174	0x3e0d465f	0.13796376
175	0xbdab079d	-0.083510615
176	0x3e120df4	0.14263135
177	0x3dd228f9	0.10261721
178	0x3e5072c5	0.20356281
179	0x3e4b2b89	0.19840826
180	0x3e2aca09	0.16678633
181	0x3ea78087	0.32715246
182	0x3d964ddb	0.073390685
183	0x3ddfad8c	0.10921773
184	0xbb08061f	-0.0020755602
185	0x3da2f1a8	0.079562485
186	0x3e2259a5	0.15854509
187	0x3e2a325f	0.16620778
188	0x3ea9dafd	0.33174887
189	0x3de7d9c9	0.11320836
190	0xbd1768b4	-0.036965087
191	0x3e468cb4	0.19389611
192	0x3dad8ed6	0.084745094
193	0x3df363ff	0.11884307
194	0x3bcbe764	0.0062226523
195	0x3c7b8f23	0.015353951
196	0x3c6af2ae	0.014340086
197	0x3d94c5f5	0.0726432
198	0x3cbe73c7	0.023248566
199	0x3d79821e	0.060915105
200	0x3cee3cdf	0.02908176
201	0x3d315b70	0.043300092
202	0x3d9b590a	0.07585342
203	0x3e3f6946	0.18692502
204	0x3c3f52b9	0.011677437
205	0x3d8e08df	0.06935286
206	0x3d8a1ddd	0.06743977
207	0x3db11aae	0.08647667
208	0x3dbe9faf	0.09307801
209	0x3d97e89c	0.074174136
210	0x3dde3701	0.10850335
211	0x3e2ecdd6	0.17070708
212	0x3e1098b1	0.14120747
213	0x3e2febaf	0.1717975
214	0x3e0e7296	0.13910899
215	0x3ddcbb00	0.10777855
216	0x3d57c76f	0.05268043
217	0x3e12ab06	0.14323053
218	0x3e5db2c2	0.21650222
219	0x3e1b8246	0.15186414
220	0x3d796fcf	0.060897645
221	0x3d8ab488	0.06772715
222	0x3cdb88bb	0.026798597
223	0x3df64a10	0.12025845
224	0x3e0aeb90	0.13566422
225	0x3c68c01e	0.014205961
226	0x3e216473	0.15760975
227	0x3dcf69bb	0.10127588
228	0x3e2104cd	0.15724488
229	0x3c2f54d7	0.01070138
230	0x3e37cd9b	0.17949526
231	0xbc4dbc60	-0.012557119
232	0x3b7741f4	0.003772852
233	0x3dd35298	0.10318488
234	0x3cbdd1e5	0.023171375
235	0x3dab1edd	0.08355496
236	0x3bdcc97d	0.0067378865
237	0xbd505d92	-0.050870486
238	0x3e53e831	0.20694043
239	0x3c50b798	0.012739085
240	0xbcb4b0b9	-0.022056924
241	0x3e5d04de	0.21583888
242	0x3e1f356f	0.15547727
243	0x3e02256b	0.12709586
244	0x3e5d2396	0.21595606
245	0xbd0d856d	-0.034551073
246	0x3e105185	0.14093597
247	0x3e83ab8e	0.25716823
248	0x3dcc496d	0.09974942
249	0x3e38b635	0.18038256
250	0x3e099a66	0.13437805
251	0x3d9f4583	0.0777693
252	0x3e0f5d28	0.1400038
253	0x3d9f985c	0.07792732
254	0x3d7f1ee9	0.062285338
255	0x3e4b9da1	0.1988435

bias_hh_l0 f4 [512]
0	0x3ccfa8a3	0.025348967
1	0x3c5f942f	0.01364617
2	0xbdb48292	-0.08813967
3	0xbc342444	-0.0109949745
4	0x3e5a5f2c	0.21325368
5	0x3cd2edec	0.025748216
6	0xbcf743e4	-0.03018374
7	0xbd8c19bd	-0.06840847
8	0xbdaa71fe	-0.083225235
9	0xbdc3040e	-0.09522258
10	0xbe57f844	-0.210908
11	0x3c775050	0.015094832
12	0x3e2b198e	0.16708967
13	0x3e056c5c	0.13029617
14	0xbdcbaba7	-0.099448495
15	0xbe140524	-0.14455086
16	0x3db2f319	0.087377734
17	0xbd20f775	-0.039298493
18	0x3d1721f1	0.036897603
19	0xbca0cafa	-0.019628037
20	0x3dcbba04	0.09947589
21	0xbe3977e2	-0.18112138
22	0xbdc0d669	-0.094158955
23	0xbd0686b4	-0.032843307
24	0x3b1ccf00	0.0023927093
25	0xbe041e81	-0.12902261
26	0x3dc6ae60	0.09701228
27	0x3e0aa36c	0.13538903
28	0xbd94ad56	-0.07259624
29	0xbe3ecfda	-0.18633977
30	0x3cca3a5a	0.024686027
31	0xbd825cb0	-0.06365335
32	0xbd865b90	-0.06560433
33	0xbb309ec9	-0.0026950112
34	0xbd23ddd9	-0.040006492
35	0xbc00c3b4	-0.007859159
36	0x3d0eb9a3	0.034845006
37	0x3e0ffb54	0.14060718
38	0xbe091844	-0.13388163
39	0x3d952173	0.072817706
40	0x3be21eb7	0.006900634
41	0xbd5a2670	-0.053259313
42	0xbdbb2a52	-0.09138931
43	0xbcd2b9b0	-0.025723308
44	0xbc91b05a	-0.017784286
45	0xbcee771b	-0.029109528
46	0x3c7b9c16	0.015357038
47	0xbd609216	-0.05482682
48	0x3de77dc1	0.113032825
49	0xbd2655f3	-0.04060931
50	0x3e43e32b	0.19129626
51	0xbd0abf15	-0.033873636
52	0xbc926867	-0.017872049
53	0x3cf543ca	0.02993955
54	0x3da727c5	0.08161882
55	0x3da159bd	0.07878444
56	0xbdb76f2e	-0.08956753
57	0xbe0a7a8d	-0.13523312
58	0xbd3b80db	-0.045777183
59	0x3d7f767d	0.06236886
60	0xbd146e10	-0.036237776
61	0x3d8216ab	0.0635198
62	0x3b6fccb7	0.0036590525
63	0xbdbb9c88	-0.09160715
64	0x3d85225d	0.06500695
65	0xbcbe182a	-0.023204882
66	0xbda507bf	-0.08058118
67	0xbd590155	-0.052979786
68	0xbe2273b9	-0.15864457
69	0x3be4909e	0.0069752475
70	0xbdab1bdd	-0.08354924
71	0xbd3abc7a	-0.0455899
72	0xbe7d76ed	-0.24752398
73	0x3dd49de6	0.10381679
74	0xbc9ccbc9	-0.019140141
75	0xbca31df6	-0.019911747
76	0x3d975e57	0.07391041
77	0xbcb86132	-0.022507284
78	0xbdde3e21	-0.10851694
79	0xbe03d946	-0.12875852
80	0xbd8a1041	-0.067413814
81	0xbd8d7179	-0.06906409
82	0x3d7f77b7	0.06237003
83	0xbd0a79af	-0.033807453
84	0xbdecc4a7	-0.11560946
85	0x3d475c80	0.0486722
86	0xbdc58a54	-0.096455246
87	0xbc0fdcaa	-0.008780638
88	0xbe3202d4	-0.17383891
89	0xbc64a12a	-0.01395444
90	0xbe108438	-0.14112937
91	0xbdac31de	-0.08407949
92	0xbe01793a	-0.126439
93	0xbcc3b675	-0.023890713
94	0xbdfe2255	-0.12408892
95	0xbd215a26	-0.039392613
96	0x3d9f2ece	0.07772599
97	0xbe391e3a	-0.18077937
98	0x3d7ffe72	0.062498517
99	0xbdb24073	-0.08703699
100	0xbc3e3b68	-0.011610843
101	0xbdf38aab	-0.11891683
102	0xbb05300b	-0.0020322825
103	0xbd23570c	-0.039877936
104	0x3cb8c4eb	0.022554835
105	0xbdb40a1b	-0.0879099
106	0xbdadc926	-0.08485632
107	0xbca9ea1a	-0.020741511
108	0xbce7c609	-0.028292673
109	0xbdfa25f3	-0.122142695
110	0x3d23968a	0.039938487
111	0x3da2c759	0.07948179
112	0x3ceb8b1e	0.02875286
113	0xbe70ed52	-0.2352803
114	0xbdabdc3e	-0.08391617
115	0x3df2332e	0.11826168
116	0x3c970188	0.018433347
117	0xbc82bd7a	-0.01595949
118	0xbd8deab4	-0.06929532
119	0xbd016a4b	-0.03159551
120	0x3e025e3e	0.12731263
121	0xbc1007ae	-0.0087908935
122	0x3cc0562c	0.02347859
123	0x3d06d5a3	0.032918584
124	0x3dcdab8e	0.10042487
125	0xbda9d123	-0.08291843
126	0xbd7fcd1c	-0.062451467
127	0x3d0afb92	0.033931322
128	0xbd3f2253	-0.046663594
129	0x3e66c9f0	0.2253797
130	0x3d878ee8	0.06619054
131	0x3e05e609	0.13076033
132	0x3d5d938b	0.054095786
133	0x3e1be603	0.15224461
134	0x3dd2915b	0.102816306
135	0x3cf68631	0.030093284
136	0x3d88b478	0.06675047
137	0x3e35600b	0.17712419
138	0xbcad6d49	-0.021170275
139	0x3e4c8f56	0.19976553
140	0x3da8afd0	0.082366586
141	0x3ebaea09	0.3650668
142	0xbbcbef75	-0.006223614
143	0x3d85509d	0.065095164
144	0x3e19415e	0.14966342
145	0x3e6439ad	0.22287627
146	0x3e2fa858	0.17154062
147	0x3d384987	0.044991996
148	0x3b5cd5f5	0.0033696864
149	0xbcb2069e	-0.021731671
150	0x3e202a30	0.15641093
151	0x3d63aafa	0.055582978
152	0x3dd636c9	0.10459668
153	0x3e5a3e9f	0.2131295
154	0x3da3fce7	0.08007222
155	0x3e29b2a2	0.1657205
156	0x3e759f1e	0.2398648
157	0x3ccf6f4f	0.02532163
158	0x3e551047	0.2080699
159	0x3e27320e	0.16327688
160	0x3e400c0a	0.18754593
161	0x3e25e79c	0.16201633
162	0x3dff088e	0.124528036
163	0x3e029905	0.12753685
164	0x3ddb862a	0.10718949
165	0x3dbcb4b3	0.09214153
166	0x3e5e0c5d	0.21684404
167	0x3cbbfd4b	0.022947928
168	0x3e2ca690	0.16860414
169	0x3d70ea85	0.058817405
170	0xbd1768a8	-0.036965042
171	0x3e41ca59	0.18924846
172	0x3e51cc25	0.20488031
173	0x39a9fe15	0.00032423498
174	0x3e2c7751	0.1684239
175	0xbd9cedb9	-0.076625295
176	0x3d5ac8e2	0.053414233
177	0x3ded98c1	0.11601401
178	0x3dbe3278	0.0928697
179	0x3e1d9731	0.15389706
180	0x3e8510c5	0.25989357
181	0x3e6fc653	0.23415498
182	0x3cb94769	0.022617059
183	0x3d7a3304	0.06108381
184	0x3d220a0b	0.03956036
185	0x3e246805	0.16055305
186	0x3e07001e	0.13183638
187	0x3e52d256	0.2058805
188	0x3e541552	0.20711258
189	0x3dfeb63d	0.12437103
190	0x3cc46ded	0.023978198
191	0x3ceec865	0.02914829
192	0x3db3e293	0.0878345
193	0x3e15e5f3	0.146385
194	0x3dc76606	0.09736256
195	0x3ddaa94a	0.106768206
196	0x3dbb1e88	0.09136683
197	0x3da0e8fb	0.078569375
198	0x3d545e07	0.051847484
199	0x3db216f8	0.08695787
200	0x3d7c29df	0.06156337
201	0x3dbe68ba	0.09297319
202	0x3c887f9b	0.01666241
203	0x3d95f97a	0.073229745
204	0x3e0e1eea	0.1387898
205	0x3d177ad1	0.03698236
206	0x3d9e51dc	0.07730457
207	0x3da2c887	0.07948404
208	0x3e5947bd	0.21218772
209	0x3dc1b84b	0.09458979
210	0x3e445b56	0.19175467
211	0x3d3e0c01	0.046398167
212	0x3dd9ee5b	0.10641166
213	0x3e26c1a7	0.1628481
214	0x3e29da8a	0.16587272
215	0x3e6e9d7b	0.23302262
216	0x3ddbcbad	0.107322074
217	0x3de6d7db	0.1127164
218	0x3e4b310f	0.19842933
219	0x3d5cdc15	0.053920824
220	0x3d34d079	0.044144128
221	0x3a0a2592	0.00052698806
222	0xbc30d9b8	-0.010794096
223	0x3d5d9972	0.054101415
224	0x3e173eeb	0.14770095
225	0x3da604f5	0.08106414
226	0x3d0b9644	0.03407885
227	0x3c852c6e	0.016256537
228	0x3e056332	0.13026121
229	0x3dc53af4	0.09630385
230	0x3e80f67a	0.25188047
231	0x3c3d654f	0.011559798
232	0x3cd53ead	0.026030863
233	0xbb8a4408	-0.0042195357
234	0xbcc215fd	-0.023692125
235	0x3df35402	0.118812576
236	0x3ddb9859	0.107224174
237	0x3bde6c68	0.0067878254
238	0x3e58724a	0.21137348
239	0x3d865518	0.06559199
240	0xbc4c7ea7	-0.012481368
241	0x3e7fcdfb	0.24980919
242	0x3e842def	0.25816295
243	0x3e57c678	0.21071804
244	0x3dbf702c	0.09347567
245	0x3c1a5ee2	0.009422036
246	0x3daf1900	0.0854969
247	0x3e7db5c6	0.24776372
248	0x3d20436e	0.039126806
249	0x3e042bb7	0.12907301
250	0x3e52f3ff	0.2060089
251	0x3e4d77a4	0.2006517
252	0x3e4efcf4	0.20213681
253	0x3d26cbc5	0.040721674
254	0x3e5409d7	0.20706879
255	0x3e647d45	0.22313412

weight f4 [10, 128]
0	0xbf0badc4	-0.5456202
1	0x3e353574	0.17696172
2	0x3d83ddea	0.06438811
3	0xbe8b8d03	-0.2725602
4	0xbe09d5f1	-0.13460518
5	0x3e9c24c4	0.304968
6	0xbe426cec	-0.18986863
7	0xbd28fe37	-0.041258063
8	0xbf2322ca	-0.6372496
9	0xbe549498	-0.20759809
10	0x3d4323d4	0.04764159
11	0xbe9ea60d	-0.30986062
12	0x3e854abf	0.2603359
13	0x3ade07f3	0.0016939625
14	0x3eac61b3	0.3366829
15	0x3e87ae99	0.26500395
16	0x3e1b7ebe	0.15185067
17	0x3e14a404	0.14515692
18	0xbe837747	-0.2567694
19	0x3e2402d1	0.160167
20	0x3ed5b609	0.41740444
21	0xbec4ce82	-0.38438803
22	0xbe632c76	-0.22184929
23	0x3e5334fc	0.2062568
24	0xbf119be3	-0.5687849
25	0x3e34ed80	0.17668724
26	0xba7cd500	-0.00096447766
27	0x3ccb9371	0.024850579
28	0x3dc937b2	0.09825076
29	0xbcee0354	-0.029054321
30	0xbdba0fad	-0.09085021
31	0xbee75c86	-0.45187777
32	0x3de273af	0.11057221
33	0xbef9d10f	-0.48792312
34	0x3d093512	0.033497877
35	0x3da390ca	0.07986601
36	0x3e8b72e3	0.2723609
37	0x3cd3ab17	0.025838418
38	0x3d88b691	0.06675447
39	0xbd63b149	-0.055588994
40	0x3f1bca3f	0.6085548
41	0xbe179125	-0.14801462
42	0x3e4a7025	0.19769342
43	0xbcc3b8e3	-0.023891872
44	0xbc4accbe	-0.012377916
45	0x3eba1eeb	0.36351714
46	0x3ecdf0a8	0.4022267
47	0x3e048f14	0.12945205
48	0x3ec92e38	0.39293075
49	0x3a9d5dd4	0.0012006112
50	0x3ddd2e6b	0.10799869
51	0xbe49b80a	-0.19699112
52	0xbe9c8cc4	-0.30576146
53	0x3ea39e1d	0.31956568
54	0x3eb8aa2a	0.36067325
55	0x3e3624f9	0.17787541
56	0x3e007a83	0.12546735
57	0x3d889ce7	0.06670552
58	0xbd5699d4	-0.052392796
59	0x3effc86e	0.49957603
60	0x3ec8e081	0.39233783
61	0xbde7011b	-0.11279508
62	0xbefb03a5	-0.49026218
63	0xbdc1dcd3	-0.09465947
64	0x3eeb3da5	0.4594547
65	0xbd50c473	-0.0509686
66	0x3d4c4cc9	0.049877916
67	0x3cb3474e	0.021884587
68	0xbee8a188	-0.4543574
69	0xbecb76ca	-0.39739066
70	0xbe290263	-0.16504817
71	0xbdf936e6	-0.12168674
72	0x3d14f8e6	0.03637018
73	0x3f006e03	0.50167865
74	0x3cdcec3a	0.02696811
75	0x3e230175	0.15918525
76	0xbcafb4ae	-0.02144846
77	0x3e645d35	0.2230118
78	0x3e9205e4	0.2852012
79	0xbe33f23e	-0.17572877
80	0xbe1ca141	-0.15295888
81	0xbc7d3097	-0.015453479
82	0xbe0399e4	-0.12851673
83	0x3df35539	0.11881489
84	0xbeaecd5b	-0.3414105
85	0xbbc2c54d	-0.0059439302
86	0xbdde760c	-0.108623594
87	0xbe0acac0	-0.13553905
88	0xbf036e2a	-0.5133997
89	0x3d66824f	0.056276616
90	0x3ea59468	0.32339787
91	0xbf07ea53	-0.53091925
92	0x3e9864ec	0.29764497
93	0x3e75849c	0.23976368
94	0xbe83f439	-0.25772265
95	0xbe64f4ab	-0.22358958
96	0x3ec4d3fc	0.3844298
97	0x3f005d89	0.50142723
98	0x3ea30fee	0.3184809
99	0xbdc7306c	-0.097260326
100	0xbe4da443	-0.20082192
101	0x3e9203ac	0.28518426
102	0xbe2af4d0	-0.16694951
103	0x3e3f15d2	0.18660668
104	0x3edc7064	0.43054497
105	0xbd4f6e6d	-0.05064242
106	0x3eba7ca6	0.36423224
107	0x3dc054a5	0.09391145
108	0x3dcfcc32	0.10146369
109	0xbca0f4b7	-0.01964794
110	0x3e7ec81d	0.24881025
111	0xbd52cb66	-0.051463507
112	0x3f274f10	0.65355015
113	0xbc6fc817	-0.0146351075
114	0x3d921c8d	0.07134352
115	0xbde1ba76	-0.11021893
116	0xbcd25533	-0.025675392
117	0x3e15f38b	0.14643686
118	0xbd3633e1	-0.04448307
119	0x3d823725	0.06358174
120	0x3e8089b2	0.25105053
121	0x3e4faad6	0.20280012
122	0x3ee0533b	0.438135
123	0x3cedf2be	0.029046413
124	0xbd2b2165	-0.041779894
125	0x3ea9a4ae	0.33133453
126	0x3e3c860a	0.18410507
127	0xbed37224	-0.4129802
128	0x3e0382c4	0.12842852
129	0xbe55fc2a	-0.20896974
130	0xbd964bf5	-0.073387064
131	0x3e003d7b	0.12523453
132	0xbe84c764	-0.25933373
133	0x3e488bc4	0.19584566
134	0xbd851907	-0.06498914
135	0x3e8ad545	0.27115837
136	0x3d9c11b2	0.076205626
137	0x3efb5e7c	0.49095523
138	0xbe840902	-0.25788122
139	0xbec36a73	-0.38167152
140	0xbe0abb23	-0.1354795
141	0x3eb8ad66	0.36069793
142	0x3e5f1612	0.21785763
143	0x3e1384c5	0.14406116
144	0xbe9e8e4b	-0.30967936
145	0x3d28d0fa	0.04121492
146	0x3ecf51ae	0.40492004
147	0x3e35403b	0.17700283
148	0xbf04cfd1	-0.518796
149	0x3e8be512	0.27323204
150	0x3ea7fb99	0.3280914
151	0xbe98a802	-0.2981568
152	0x3dace02e	0.084411964
153	0xbf04debc	-0.51902366
154	0xbedb2e0b	-0.42808565
155	0x3e987bea	0.2978204
156	0xbea1e52a	-0.3162015
157	0xbe1347cf	-0.14382862
158	0xbeaeadd0	-0.34116983
159	0xbee09a9b	-0.43867955
160	0xbe5352a7	-0.20636998
161	0x3ef6b7c2	0.4818707
162	0x3e6572ac	0.22407025
163	0xbe81a93c	-0.25324428
164	0xbe9795ee	-0.29606575
165	0x3eb4332d	0.35195294
166	0x3e2efc4c	0.17088431
167	0xbde2d6da	-0.11076136
168	0x3e8ddcf8	0.27707648
169	0x3eb67b06	0.35640734
170	0x3c983a26	0.018582415
171	0x3ec336a6	0.3812763
172	0xbc97d9f5	-0.018536547
173	0x3e139814	0.14413482
174	0x3eada00f	0.33911178
175	0x3e30ef9e	0.17278907
176	0xbdc802dd	-0.09766171
177	0x3e31723a	0.1732873
178	0xbe91e663	-0.28496084
179	0x3e862773	0.26201972
180	0x3ddcd8d7	0.107835464
181	0xbe7dffe0	-0.2480464
182	0x3c71e84f	0.014764859
183	0xbee73eca	-0.45165092
184	0x3cb0f52a	0.021601278
185	0xbe7f4b98	-0.2493118
186	0x3e998683	0.29985437
187	0xbe0724e4	-0.13197666
188	0xbe6fc3ca	-0.23414531
189	0xbe957212	-0.2918859
190	0x3eacae35	0.3372666
191	0x3ee36fc8	0.4442122
192	0xbe8a84bd	-0.27054396
193	0xbdb68a06	-0.08913045
194	0xbd720a25	-0.059091706
195	0xbe5c85c8	-0.21535408
196	0x3e259b43	0.16172509
197	0x3d99f3bc	0.07517192
198	0x3e91486f	0.28375575
199	0x3d435609	0.04768947
200	0x3cd742b9	0.026276933
201	0xbe4610a8	-0.19342291
202	0x3db9ba1c	0.09068701
203	0xbedf604b	-0.43628153
204	0xbdd57e1b	-0.10424443
205	0xbd08c922	-0.03339494
206	0x3eb5e23f	0.35524175
207	0x3e325476	0.17415032
208	0xbdd41f2d	-0.10357509
209	0x3e04a0f4	0.12952024
210	0xbd5f13de	-0.054462306
211	0x3ed72517	0.42020485
212	0x3ed885a6	0.42289466
213	0x3d88d5ef	0.066814296
214	0x3e25f3ed	0.16206332
215	0x3d83e37a	0.06439872
216	0x3ec3775d	0.38177004
217	0x3e080061	0.13281395
218	0x3ee2a2d1	0.44264844
219	0xbe0d7fbd	-0.1381826
220	0x3e2ce7a0	0.16885233
221	0xbe932a57	-0.2874324
222	0xbd34cf1e	-0.044142835
223	0x3e76d982	0.2410641
224	0xbea5c8ed	-0.32379857
225	0xbe53e667	-0.2069336
226	0xbe60585f	-0.21908711
227	0xbd19a873	-0.03751416
228	0xbe86fd9d	-0.26365367
229	0x3dd90e5f	0.10598444
230	0x3e757067	0.2396866
231	0xbcd85c64	-0.026411243
232	0xbe0b34cd	-0.1359436
233	0xbe58beed	-0.21166582
234	0x3e5586f2	0.20852259
235	0xbe554677	-0.20827661
236	0xbdb515f1	-0.088420756
237	0x3e02d0b0	0.1277492
238	0xbec7c9af	-0.3902106
239	0xbebc5601	-0.36784366
240	0xbdb6e040	-0.08929491
241	0xbe9a03df	-0.30081078
242	0x3ea145e6	0.3149864
243	0xbe5c374a	-0.21505466
244	0xbe2f3372	-0.17109469
245	0xbf10c0dd	-0.56544286
246	0xbe0cf962	-0.13767007
247	0xbec95302	-0.39321142
248	0x3d608206	0.0548115
249	0xbeb3d156	-0.35120648
250	0xbe3752c5	-0.17902668
251	0x3dc68a41	0.096943386
252	0x3ee3aef4	0.44469416
253	0xbed38546	-0.41312617
254	0x3ebf1e32	0.37327725
255	0x3ed54700	0.4165573

bias f4 [10]
0	0xbd939922	-0.07206942
1	0x3e408167	0.18799363
2	0x3c9337d8	0.017970964
3	0xbce5fb3b	-0.028073898
4	0xbce5700b	-0.028007528
5	0xbd9578e7	-0.07298451
6	0xbe24aca1	-0.16081478
7	0x3de5dc09	0.11223609
8	0xbdabbc10	-0.083854795
9	0x3d9e40ce	0.07727204
