lstm_pytorch/model_2LSTM.pt (torch, 862984 bytes, 10 tensors)

weight_ih_l0 f4 [512, 28]
000000 a8 71 88 bc 46 c3 89 bd db f9 09 bd 96 12 80 3e
       -0.016655758 -0.067266986 -0.033685546 0.2501418
000010 29 ac 0e 3e 23 30 95 3d 37 14 67 3e be de ca 3d
       0.13932861 0.07284572 0.22566305 0.09905766
000020 8d 2e 97 3d 09 be 84 bc 49 62 2f 3d 19 b1 0a 3e
       0.07381926 -0.016203897 0.04281834 0.1354412
000030 20 8d 15 3e 2f 1d 0c be 81 2f 26 be 47 c2 0d 3e
       0.14604616 -0.13683008 -0.16229059 0.13843642
000040 3c ae 32 3e 40 1e 26 bc 6b 1a d5 bd 46 47 73 bd
       0.17449278 -0.010139048 -0.104054295 -0.059394144
000050 b5 1b 7c be ca ef d9 bd 49 2a 3b 3e 3c 68 06 3e
       -0.24619944 -0.10641439 0.1827785 0.131257
000060 5d f8 57 bd df 2d dc 3d 27 d0 4b bb 18 8f 5a 3e
       -0.052727092 0.10750937 -0.003109941 0.21343648
000070 e3 f3 b2 bd 95 3f 2b 3e 0c fd 8b be f9 78 8a 3d
       -0.08737924 0.16723473 -0.27341497 0.06761355
000080 74 bd a4 bd 53 e9 a2 bd 92 e8 0b be 89 e6 c7 bd
       -0.08043948 -0.07954659 -0.13662937 -0.09760768
000090 a8 81 80 bd df 03 d9 3d 6a d7 40 3e ff 20 cf 3d
       -0.0627473 0.105964415 0.18832174 0.101137154
0000a0 5c 1b 46 3d f4 19 2c 3b ba 2e c0 3d ca 7b 4f 3d
       0.048365936 0.0026260586 0.093839124 0.050655164
0000b0 4a 46 0f be 2f 7b 9c be 4b fa 99 be 32 e2 03 be
       -0.13991657 -0.30562732 -0.3007377 -0.12879255
0000c0 53 35 71 bc 4a db 07 3e 29 c5 53 3a 2d 74 9c bd
       -0.014722186 0.13267246 0.00080783904 -0.07639346
0000d0 52 88 28 3d 9f dd 24 be aa 06 95 bd e3 74 28 be
       0.04114563 -0.16100167 -0.07276662 -0.16450839
0000e0 52 9e 9f 3d 78 c8 1e bd a9 99 47 be df 41 0e 3e
       0.07793869 -0.0387654 -0.1949221 0.13892315
0000f0 9d e7 83 3e 72 47 51 3e 08 de ee 3c 02 35 df bc
       0.25762644 0.2043741 0.029158607 -0.027246956
000100 bc e1 ee 3a 4c 8b 00 bd 5b e0 c8 bc 9a e3 3d 3e
       0.0018225233 -0.031382844 -0.024521044 0.18543854
000110 a6 19 ce 3d 42 74 3a 3d dd 94 b4 bd 13 c8 e3 bd
       0.10063486 0.04552103 -0.08817456 -0.111221455
000120 76 77 c9 be bd cd 90 be cb 73 16 be 9c c0 cd bd
       -0.39348954 -0.28281966 -0.14692609 -0.10046503
000130 d4 38 5c bd 9d a5 97 3c 82 37 ca 3d fb 0b 32 3e
       -0.053765133 0.018511588 0.098738685 0.17387383
000140 52 24 e3 3d 7c 43 9b bd e9 91 88 3e b8 03 99 3e
       0.11090912 -0.07581231 0.2667382 0.2988565
000150 37 31 0f 3d 23 b5 57 be 61 54 0d 3d ce 5e 23 3d
       0.034959044 -0.21065192 0.034504298 0.039885335
000160 e2 5e 87 3d aa a1 f7 3b 9e 81 59 bd 4d f2 4b be
       0.06609894 0.0075571137 -0.05310213 -0.19916649
000170 7c 8e 3f be b7 2e 54 be c2 14 51 be c6 19 1d be
       -0.18706697 -0.20720945 -0.20418075 -0.15341863
000180 0c a3 0f 3c a0 b5 50 3d 93 25 15 be a8 63 65 be
       0.008766901 0.05095446 -0.14565115 -0.22401297
000190 89 fb c7 bd c0 6d fc bc 41 e0 a1 bd 09 48 2f be
       -0.097647734 -0.030814052 -0.07904101 -0.17117323
0001a0 95 ba 19 be 80 9a 25 3d 90 b4 73 3d ae 74 ab 3d
       -0.15012582 0.040430546 0.05949837 0.08371864
0001b0 79 27 0d 3e e2 56 1d 3e 8f 26 32 3e 9f 9c 41 3e
       0.13784589 0.15365174 0.17397521 0.18907402
0001c0 c5 36 59 bd fa 4d 48 3e d5 b5 d7 3d f8 3c 7f 3c
       -0.053030748 0.19560996 0.105327286 0.015578501
0001d0 a3 aa 47 3e b7 ad 00 3e bc 24 83 3e c3 84 3c 3e
       0.19498686 0.12566267 0.25613964 0.1841002
0001e0 15 33 bc 3d 81 38 8f bd b6 28 ae 3d 26 e9 f6 3c
       0.091894306 -0.06993199 0.08503859 0.03014047
0001f0 89 6d 8a bd aa a7 ac bb 1f ea 35 3e 4e 93 b7 3e
       -0.067591734 -0.0052690106 0.17765091 0.35854572
000200 22 8f c2 3e c5 5f 58 3e e9 ce 41 3d a6 fd b2 3d
       0.37999827 0.21130283 0.047316466 0.08739786
000210 56 fe 3f bd b1 9f b7 be 69 9b 48 be 6e 73 e2 bd
       -0.046873413 -0.35864022 -0.19590534 -0.11057173
000220 19 c9 cb bc 92 38 93 3e 5d 97 9a 3e b0 45 08 3e
       -0.024876164 0.28754097 0.30193606 0.13307834
000230 0d 4e 1e 3d 59 c1 e7 be e5 a4 50 ba fa 34 4e 3e
       0.038648654 -0.452647 -0.00079591415 0.20137396
000240 ee 22 39 3d a2 db 52 3c 48 c5 6e 3e f9 17 a7 3e
       0.045199327 0.012869747 0.23317444 0.32635477
000250 a0 ea 40 3e 52 8c 68 3e bd 05 fe 3d ec 6f 31 3e
       0.18839502 0.22709778 0.12403438 0.17327851
000260 e8 b9 e3 3b c8 75 26 bd 87 df b5 bd 64 71 f4 bd
       0.006949652 -0.04063967 -0.08880525 -0.1193569
000270 1e 12 8d bd 6b 63 cb bd 39 26 25 be e5 6d 0f be
       -0.06888221 -0.09931072 -0.16127862 -0.14006765
000280 e8 78 88 be e8 c2 8e bd 19 a6 d3 bd ec f2 31 be
       -0.26654744 -0.06970769 -0.10334415 -0.17377824
000290 ee 4a 2b be e7 40 9b 3e 37 44 86 3e 4d ac 73 3d
       -0.16727802 0.30322954 0.2622392 0.05949049
0002a0 17 78 d1 bc ec a0 66 3e 92 fb 04 3d 9d d1 5e 3e
       -0.025569959 0.22522324 0.03246648 0.21759649
0002b0 ec 72 c1 bd 8a 49 33 3e 88 a7 97 3d 10 9b a0 bd
       -0.09445748 0.17508522 0.07405001 -0.07842076
0002c0 f5 e7 a1 3c 0e 2c 09 3c 9e 84 52 bd 4b 63 4c 3d
       0.019763926 0.00837232 -0.051396005 0.04989938
0002d0 de 6f 46 bd 97 06 b5 3d ed 66 c1 3d 79 bf 14 3e
       -0.04844653 0.088391475 0.0944346 0.14526166
0002e0 e5 fa 10 bd 7a a9 9d be c4 4d 0e bf 3f f9 0d bf
       -0.03539552 -0.30793363 -0.5558741 -0.55458444
0002f0 db f4 bc be f9 d7 a4 bd 9f 36 a5 be 2b c2 ae be
       -0.3690556 -0.08049006 -0.32268235 -0.34132513
000300 0b 7a c3 be 17 77 0f bf 5d a4 d6 be 8f 70 5f be
       -0.3817905 -0.5604109 -0.41922274 -0.21820281
000310 98 4a 07 3e 73 7e 81 3d b9 a0 12 3e c7 41 c1 bd
       0.13212049 0.063229464 0.14319123 -0.09436374
000320 51 89 b2 bd 1a f8 09 be fd 4d 3a bd 85 11 d6 bd
       -0.08717597 -0.1347355 -0.04548453 -0.1045256
000330 26 70 fa 3c e4 cb 6d 3d 65 2b 05 3e d5 e6 2d 3e
       0.030571055 0.058055773 0.13004835 0.16982587
000340 3f bc 85 3e 70 c9 33 3e 06 89 2d 3e 2d 89 f0 bb
       0.26120183 0.17557311 0.16946802 -0.0073405714
000350 ed c9 0d 3e 9a 59 ef bc 5a 97 d3 bd 8c e4 94 bd
       0.1384656 -0.02921753 -0.103316024 -0.07270154
000360 37 e2 f1 3d 11 cb 3b 3e 4e 13 8d 3d 76 7c ba bc
       0.11810725 0.18339182 0.06888448 -0.022764426
000370 43 b1 d5 3c d4 c5 13 be 9b 8e 92 3d d2 56 66 3e
       0.026085502 -0.14430934 0.07156106 0.22494057
000380 60 11 cf 3d 08 93 83 3c d3 30 d5 bd d1 0a 17 3e
       0.10110736 0.01606132 -0.10409703 0.1475022
000390 86 fa 94 3d 80 c4 fb 3d cd 5f 05 3e 2a 74 98 bc
       0.07274346 0.12293339 0.13024826 -0.018610079
0003a0 d5 74 a9 3d 86 12 24 3b e6 58 36 bd 34 b4 ac bd
       0.08274237 0.0025035455 -0.044518374 -0.084328085
0003b0 ca 4d ab bb 0c 3d 79 bc 3b 8a e7 bd 35 a5 d3 bd
       -0.005227779 -0.015212309 -0.11305662 -0.10334245
0003c0 cf 6e 1d be 4c 80 ca bd d8 07 67 bd 04 59 14 be
       -0.15374301 -0.09887752 -0.056403965 -0.14487082
0003d0 80 d8 bf bd d5 fa 12 be 52 9f 05 3d 86 99 45 3c
       -0.09367466 -0.14353497 0.032622643 0.012060529
0003e0 b5 d6 34 3e fe f7 04 bc 96 41 4f 3e 94 9c 81 3d
       0.17660029 -0.008115767 0.20239863 0.06328693
0003f0 d0 59 90 3d ef be f9 bd af 1c f8 bd 4d 77 3e 3e
       0.070483804 -0.12194621 -0.12114846 0.18600197

weight_hh_l0 f4 [512, 128]
000000 22 64 90 be 5d f1 26 bd c6 0c cc 3c 46 19 fd 3d
       -0.28201395 -0.040757526 0.024908435 0.12358336
000010 2f c6 02 bd 6a 2b 88 3d d0 f3 d4 bc b0 6d a3 3d
       -0.031927284 0.066489056 -0.025995165 0.079799056
000020 eb 9d f7 bd 88 e2 bf 3d 9a 0a 78 bd 2c 84 25 3e
       -0.12090667 0.09369379 -0.060556985 0.16163701
000030 32 66 41 be 4b c8 7c 3e af 41 8b bd 77 1b e4 3c
       -0.1888664 0.2468578 -0.067996375 0.027845128
000040 16 f6 46 3d b9 2c 4b 3c db f6 6b 3e 9f fa fc bd
       0.04857453 0.012400799 0.23043387 -0.1235249
000050 d1 ff 17 3e 9b ec 83 bd 3e 8f 13 be 30 ef 75 3c
       0.1484368 -0.06441613 -0.14410111 0.01501064
000060 97 56 41 bd a2 75 7c be e8 46 11 bd 58 0a 38 bd
       -0.04720172 -0.24654248 -0.035468012 -0.04493174
000070 f7 14 b4 3d 17 ff 45 3e 05 92 f0 bc f3 b6 f3 be
       0.08793061 0.1933559 -0.029366503 -0.47600517
000080 bd a7 63 3e de f6 0e be 32 23 79 3b 83 9c d9 bd
       0.22231956 -0.1396136 0.0038015363 -0.10625555
000090 5e 20 ef 3d a0 fd f0 3e d9 e0 5b 3e c6 3b 30 bc
       0.116760954 0.470685 0.21472491 -0.010756439
0000a0 dc 14 b6 3d 84 2a 9a 3d 33 84 ec bc cc c5 9b bd
       0.08890697 0.075276405 -0.028871631 -0.07606086
0000b0 59 3a 33 be ce 66 0c 3d 70 37 da bd 5e 22 9c bd
       -0.17502727 0.03427773 -0.10655105 -0.076237425
0000c0 6f f4 5d bd 48 70 5e 3e da b4 d7 bd d6 3e 45 3b
       -0.05418819 0.2172252 -0.105325416 0.0030097268
0000d0 c7 b4 c7 bd e6 ae a6 3d df c0 16 bc 99 a0 54 be
       -0.097512774 0.08138828 -0.0092012575 -0.20764388
0000e0 4b 0f 08 bd 9d 56 4c bc 3e 3b 64 be 83 c7 87 be
       -0.03321771 -0.012471822 -0.22288224 -0.26519403
0000f0 2f ce 43 3d 9d 9e 8e be e9 b5 15 be 28 ee 52 3d
       0.047804054 -0.27855387 -0.14620174 0.051496655
000100 05 0f 99 3d 67 18 f1 bd 51 f4 ae be b5 8c 96 be
       0.07473568 -0.117722325 -0.34170774 -0.29404226
000110 7a c1 ae 3d 68 e4 aa 3b 51 80 b0 3e 28 18 4d be
       0.085329965 0.0052152164 0.34472898 -0.20028746
000120 e0 cc bd 3d 5b 78 5c be d0 1d 05 bd 87 dd f7 bc
       0.092675924 -0.21530287 -0.032499135 -0.030257
000130 dc 4a cd bd db 37 0a 3e 0c 29 7a 3c 64 05 02 3d
       -0.10024044 0.1349787 0.015268575 0.031743422
000140 73 db 37 be 4d 74 17 3e 16 c7 18 3e f0 b0 da bc
       -0.17954807 0.14790459 0.14919695 -0.026695698
000150 b3 df d8 bd 1e 64 6d be aa 4c a6 bd 5e f6 a8 bd
       -0.10589542 -0.23182723 -0.08120091 -0.08250116
000160 2e c5 99 3d 36 c3 4d 3e 81 77 26 3e d7 b3 4c be
       0.07508312 0.20093998 0.16256525 -0.19990478
000170 7f 5d 1d 3e 29 97 0c be da 8d c6 bd dd 7d 49 bd
       0.15367697 -0.13729538 -0.09695025 -0.0491923
000180 e7 56 50 3e 0b 7a 07 3e 14 b3 9e bc 44 c2 c0 3c
       0.2034565 0.1323015 -0.0193725 0.023530133
000190 d7 14 1c be ec c8 35 bd ee b0 eb bd ae 84 21 be
       -0.15242325 -0.044381067 -0.11508356 -0.1577327
0001a0 98 27 93 be 17 e2 a6 bd 55 b8 08 3e b4 ef 23 bd
       -0.28741145 -0.08148592 0.13351567 -0.04002352
0001b0 d5 e5 b0 3d 04 a1 2c be a6 5d 7f 3d 74 4c 37 3d
       0.08637587 -0.16858298 0.06234517 0.044750646
0001c0 21 97 19 3e 7e 4b 7d 3d 3d a8 42 be aa 65 62 3e
       0.14999057 0.061839573 -0.1900949 0.22109094
0001d0 4b 81 c5 3d f2 b4 80 be 2e 5f 31 3e 9b 43 61 3d
       0.09643801 -0.2513805 0.17321464 0.054996114
0001e0 9d f4 3e be f4 06 21 bb 98 95 98 bd bb b0 04 3e
       -0.18648 -0.0024570795 -0.07450408 0.12958042
0001f0 a8 cc 51 bd 53 d2 8d 3d df 71 05 be b0 f2 50 be
       -0.051220566 0.06924882 -0.1303172 -0.20405078
000200 99 6e d4 3b 22 95 f1 bc c2 66 b5 3d 3c 9c 24 bc
       0.006482911 -0.029490057 0.0885749 -0.010047015
000210 ed bc 94 3d c0 81 2f be 50 40 10 be 5b 73 8b 3e
       0.07262597 -0.1713934 -0.14087033 0.27236447
000220 4e ba 04 3e 31 04 98 3c e0 01 09 bd eb a4 b0 bc
       0.12961695 0.018556686 -0.033449054 -0.021563014
000230 1a 54 b3 3d f8 55 b2 3d 63 83 dc bc 7a 92 19 bd
       0.087562755 0.087078035 -0.026918119 -0.037493207
000240 94 35 f8 3c 3e 82 7b 3e 5e ad 0b 3e ce 65 6a 3e
       0.030298986 0.24561402 0.13640353 0.22890398
000250 a6 5d 17 3e 75 ae ef bd 6f 73 a0 3d 36 65 85 3c
       0.14781818 -0.11703197 0.07834517 0.016283613
000260 20 db b5 bc cd 5a 4b 3d a4 bf 93 3c 82 87 26 be
       -0.022199214 0.04964714 0.018035717 -0.1626263
000270 5c df fa 3d 71 07 4b bd 4b 55 88 3e 08 fe 57 be
       0.12249634 -0.049567644 0.26627573 -0.21092999
000280 09 b6 43 bd 9a a2 31 39 6a d2 51 bd 48 99 9f 3d
       -0.047781024 0.00016940609 -0.051226057 0.07792908
000290 46 b6 27 3e 16 c1 bd 3d 20 dd c3 bc 11 4b 62 3d
       0.16378126 0.09265344 -0.023909152 0.05524737
0002a0 e5 03 61 bd a1 a0 97 bd 27 47 c7 3d 99 d5 43 bd
       -0.054935355 -0.074036844 0.09730368 -0.047811124
0002b0 1f b5 08 3e ec 99 dc bb 53 5f 87 3d cb fe dc 3b
       0.13350342 -0.006732216 0.066099785 0.006744241
0002c0 06 c5 ca bc 63 09 59 3e a2 65 90 3d d2 2e 7e be
       -0.024752151 0.21194987 0.07050635 -0.24822548
0002d0 57 68 f3 bd cd 5a b1 3d c5 1b 8e bd 1e 37 8e 3c
       -0.118851356 0.08659897 -0.0693889 0.017360266
0002e0 d9 2a d5 3c e6 9d f9 3c f0 9a db 3c af f4 b4 3d
       0.026021408 0.0304708 0.026807278 0.08835732
0002f0 9f 63 4d 3e 70 df 12 be 53 68 87 bd a7 62 04 3e
       0.20057534 -0.14343047 -0.06611695 0.12928258
000300 14 6b b2 be b5 9a cc 3d 0d 62 89 bd 37 dc 13 3d
       -0.3484732 0.099904455 -0.06708155 0.036098685
000310 f9 28 40 3d e5 f4 e1 bd 02 95 d6 3c 44 4b 1e bd
       0.046914075 -0.11033038 0.0261941 -0.038645998
000320 ab fe 07 3e 00 8d 94 bd 2a b8 92 bd af 54 ce bc
       0.13280742 -0.07253456 -0.07164033 -0.025186865
000330 f7 b1 80 bd 04 65 59 bc b6 af eb bd c3 d3 0e 3e
       -0.06283944 -0.013268713 -0.115081236 0.13947968
000340 1e 2e f3 3c c0 58 e4 bc da 61 4a be d4 cf e2 3d
       0.029685076 -0.02787435 -0.1976389 0.11074796
000350 56 e9 b3 3d 4d 66 1a bd 4c ef 30 be 87 9a e3 bc
       0.0878474 -0.037695218 -0.17278785 -0.027783645
000360 27 b1 bb bc bf a9 83 bd 3d d8 8f bd f2 51 9d 3d
       -0.022911621 -0.06428861 -0.07023666 0.076816455
000370 f7 75 34 be 9b 5e 30 be b5 0e 88 3c 9e fb 65 3d
       -0.17623125 -0.17223589 0.016608575 0.056148164
000380 9b 79 37 3e c7 07 f3 bd 8a 96 8b 3e 04 3a 04 be
       0.17917483 -0.11866718 0.2726329 -0.12912756
000390 43 19 6a 3c a8 f5 76 be f0 6f e5 3c bd 0c 62 bd
       0.014288249 -0.24117148 0.028007478 -0.05518793
0003a0 b2 1c 99 bb 7a 99 4c 3e 3f 15 33 3e 21 48 2b 3e
       -0.00467261 0.19980422 0.17488573 0.16726734
0003b0 7c bd 01 bb 84 2b 02 be 8a ea 53 3e ff ed 0b bd
       -0.001979678 -0.12711912 0.20694938 -0.034162518
0003c0 49 66 63 3c 46 c3 57 3a f2 1d 5c 3c 5b d2 d0 3d
       0.013879367 0.0008230697 0.013434874 0.10196372
0003d0 8a 24 35 bd ce 52 45 3d e9 e6 00 be 4f 55 2e 3e
       -0.0442243 0.04817467 -0.12588085 0.1702473
0003e0 93 10 07 bd a5 fc 6d 3e c2 12 df 3b 38 8e e6 bc
       -0.03297479 0.23240907 0.006807656 -0.028143987
0003f0 9d b5 02 3e dd ca 18 be 60 63 53 3d 2c e9 37 bd
       0.12764592 -0.14921136 0.051608443 -0.044900104

bias_ih_l0 f4 [512]
000000 1a 42 db bd 83 f3 66 bd 29 23 19 3d 3c ae 5e 3d
       -0.10705967 -0.056384575 0.037387047 0.05436538
000010 4e ff 64 3d 6f 23 04 3e 2a 9e 36 be 71 fe 07 be
       0.05590754 0.12904142 -0.17833772 -0.13280655
000020 e8 61 45 be 6b 76 0a bd 32 08 a8 bd 11 9e 2b be
       -0.1927563 -0.03380434 -0.08204688 -0.16759516
000030 72 0e ec bd 73 98 17 be 69 e5 1b be ca 07 4a 3e
       -0.11526193 -0.14804249 -0.15224232 0.19729534
000040 e8 3b 39 be 4a d3 59 bd 6b da 63 bd 75 b1 a7 3d
       -0.18089259 -0.053180017 -0.05562822 0.08188144
000050 bb 01 36 be 93 47 7b 3d 63 b6 20 3d 5d ab fc bd
       -0.17774098 0.061347555 0.039236438 -0.123373725
000060 4e aa 0c be 56 ff 78 bd 49 58 f7 bd 22 33 08 be
       -0.13736841 -0.060790382 -0.12077386 -0.13300756
000070 20 9c 46 bb 62 a7 cc 3b ee e5 28 be 2a a7 28 3d
       -0.003030546 0.0062455395 -0.16493961 0.041175045
000080 f1 85 c8 bd d8 be 23 bd 71 34 3b 3c a5 a9 95 bd
       -0.09791172 -0.039976925 0.011426077 -0.07307748
000090 43 16 3a bd 43 39 cd 3c 99 4e 50 be 91 e0 36 bc
       -0.045431387 0.025051719 -0.20342483 -0.011161939
0000a0 cd 27 f8 3d af 74 f6 3b 3e fb 3f be f7 eb 73 be
       0.121169664 0.007521234 -0.18748185 -0.23820482
0000b0 31 f6 66 bd 0a 46 27 be 60 2d c4 3b 59 a0 04 be
       -0.05638713 -0.16335312 0.0059868544 -0.12951793
0000c0 fa d0 33 39 e1 b9 19 bd 41 54 d5 3d d0 14 bf 3d
       0.0001714862 -0.037530784 0.10416461 0.093301415
0000d0 d3 d2 12 be a9 ca 51 bd f2 af 0b 3c 06 87 01 be
       -0.14338236 -0.051218662 0.008525835 -0.12649164
0000e0 68 75 73 3d ba e4 0e 3d c7 7a 7c 3d da 3a da bc
       0.05943814 0.0348861 0.061640527 -0.02663939
0000f0 1f da 0a be 07 c9 4b be ab 0c 01 be 81 db 88 bd
       -0.13559769 -0.19900905 -0.12602489 -0.06682492
000100 03 e7 eb bd 12 28 4b 3c ae 91 57 3b cb a0 22 be
       -0.11518671 0.01239969 0.0032893228 -0.1588165
000110 64 2a 5d be cd 96 03 be ea f1 d2 bd 20 4f 69 bc
       -0.21598202 -0.12850495 -0.10300048 -0.014240056
000120 62 2d 33 bd 1a b7 40 3e 8e f0 f0 bc dc 06 20 3c
       -0.043744452 0.18819848 -0.02941158 0.00976726
000130 a0 4b 91 bd 52 40 cb bd 0a fa c2 bd 21 ef ed ba
       -0.070945024 -0.099243775 -0.095203474 -0.0018152931
000140 3f a9 d2 bd 66 d8 3e bd 16 40 78 bd 8f 8e 30 bb
       -0.102861874 -0.046593092 -0.060607992 -0.002694044
000150 38 a1 0c 3e b1 02 d0 bd 59 73 1c be 6f e6 b2 bd
       0.13733375 -0.10156763 -0.15278377 -0.08735358
000160 29 7b e7 bd 11 c3 06 be 66 bf a1 bc e6 bb 74 bd
       -0.11302788 -0.1316035 -0.019744586 -0.059749506
000170 cc 8a c8 bb 36 2e 1c 3d 2e 08 72 bc d5 2f c9 bd
       -0.0061200615 0.038130008 -0.014772458 -0.09823576
000180 79 3f 0e be 07 ee 9a bd a3 7f 13 3c f2 ce ae 3c
       -0.138914 -0.07564931 0.009002599 0.021338914
000190 7d b1 9d 3d 68 8a f3 3d 5b 4b d1 3c 7b 02 78 be
       0.07699869 0.11891633 0.025548628 -0.24219696
0001a0 34 a5 82 3e ce 27 aa 3d 10 1f 28 bd b3 52 31 be
       0.25516665 0.083083734 -0.04104525 -0.17316703
0001b0 b0 0f 3f be 34 f6 5a be 1d 28 ae bb d6 ca bf bd
       -0.18658328 -0.21382982 -0.0053148405 -0.0936486
0001c0 37 67 0a be d8 8c d3 3c 83 52 8e bc 7a a0 9e bd
       -0.13515936 0.025823995 -0.017373329 -0.07745452
0001d0 56 84 cc bd 77 ff 50 be a6 78 f0 3d f8 46 b9 3d
       -0.099861786 -0.20409952 0.11741762 0.09046739
0001e0 c1 a6 a7 bd c4 69 8e bd e0 2e 4d be e8 48 83 3e
       -0.08186103 -0.06953767 -0.20037413 0.2564156
0001f0 b0 90 f2 bd b7 18 4c 3c 72 70 80 be ab 6d b3 bd
       -0.11844003 0.012457064 -0.2508579 -0.08761152
000200 fb 7c 66 3d 22 d0 12 3e 2e fa 69 3d 6d 10 66 bc
       0.056271534 0.14337209 0.057123356 -0.014042002
000210 a3 b3 40 3d cc 60 5c bc ea ed 1e 3e e9 74 b1 3d
       0.047046315 -0.013450813 0.15520445 0.08664877
000220 65 4e 15 3e d7 c3 81 bd 37 4d 90 bb ed 08 dd 3d
       0.14580686 -0.063361816 -0.004403736 0.10792718
000230 2d f3 e2 bd 26 49 f6 3d 48 bd 86 bc ba 89 bc bd
       -0.11081538 0.12025671 -0.016447678 -0.09205957
000240 f8 65 3d 3d b9 eb 46 3d db a1 2b 3d 17 0b a7 3c
       0.046239823 0.048564646 0.041902404 0.02039103
000250 b7 50 00 3e 49 93 eb 3d 33 e1 72 3d f4 cc 55 3d
       0.1253079 0.11502702 0.059296798 0.05219741
000260 4a d1 0c 3d 1b ea 42 3e 54 79 d2 3d 9e 12 86 bd
       0.03437928 0.19034617 0.10277048 -0.0654652
000270 57 da df 3d d0 37 b5 3d 6c 9f 07 be 2b d9 36 bd
       0.10930317 0.08848536 -0.13244408 -0.0446407
000280 33 5c b9 3d f8 ac fe 3d 9e 86 61 3d ce b0 7f bc
       0.09050789 0.12435335 0.05506002 -0.015606118
000290 83 6b 75 bd d0 02 d4 bb de f1 51 bc 27 24 4e bd
       -0.059916984 -0.006470062 -0.012814013 -0.050327446
0002a0 88 61 8e bb 4d 10 16 be 42 3f fd 3b 8a cd 8d bd
       -0.0043451227 -0.14654656 0.007728488 -0.06923969
0002b0 20 7d 27 3c 29 ea c4 bd 8c d9 66 3e cc 15 29 be
       0.010222703 -0.09614975 0.22543925 -0.16512221
0002c0 66 9b 31 bd 3a 0f 85 bd 86 f4 83 3d fb c9 81 3d
       -0.04336109 -0.06497045 0.064431235 0.06337353
0002d0 88 8e 39 bd 18 cb 4a bd 8e 40 8b 3d b0 00 8c 3a
       -0.045301944 -0.04951009 0.06799422 0.0010681357
0002e0 00 85 e2 3d 19 a6 8a 3c 09 a0 95 3e 90 d8 c2 3c
       0.11060524 0.016924905 0.2922366 0.023784906
0002f0 85 97 8a 3d 93 15 0a 3c 66 14 c4 bb 42 b3 6a 3d
       0.06767181 0.008427995 -0.005983877 0.05729986
000300 dd 98 25 3e 0c 59 d6 bd ad 4c bc bd d8 8c 45 3c
       0.16171594 -0.10466203 -0.09194312 0.012057506
000310 c7 b8 dc 3d 7d 6e 4f 3d 2d f5 fc bd c5 5d 32 bd
       0.10777431 0.05064248 -0.12351451 -0.043546457
000320 aa 49 fb 3d 7f 79 55 bd a1 18 88 3c 9c cb 8e 3b
       0.1226991 -0.05211782 0.016613306 0.004357768
000330 cb e6 aa bd cf 35 65 bd 40 1c 1b bd c0 1a e5 bc
       -0.083448015 -0.05595952 -0.03786874 -0.027966857
000340 6e d4 1b bb 65 18 83 3c 3e 1e 1a bc 6f 2b eb 3c
       -0.002377774 0.016002843 -0.009406624 0.028707234
000350 d2 be ac 3d 5c 86 f6 bc 48 0b a2 bd 04 8d db 3d
       0.084348336 -0.030093364 -0.07912308 0.10720256
000360 a4 71 02 3e 91 97 08 3e 93 ef 4d 3d 57 53 25 3d
       0.12738663 0.13339068 0.050277304 0.040362682
000370 49 a0 c1 3e f1 24 85 3d 52 c0 8f 3d 4d 6e 1e 3b
       0.378176 0.06501187 0.07019104 0.002417463
000380 d0 58 23 be 45 80 0d 3e 58 eb c0 bb 27 69 99 bd
       -0.15951848 0.13818462 -0.00588743 -0.07490759
000390 a6 a0 91 3d b7 ba 15 be 60 93 c1 bd d1 36 ba bd
       0.071107194 -0.14622007 -0.09451938 -0.09092487
0003a0 68 29 ea 3d 2e 61 d9 3d 57 ca fa bd ce b9 cb bd
       0.11433679 0.10614239 -0.122456245 -0.09947549
0003b0 74 31 03 bd 49 bf 43 3e 44 64 ce 3d da d3 5f bd
       -0.032029584 0.19115938 0.10077718 -0.054645397
0003c0 18 93 9f 39 18 42 b6 3c a5 1c 21 bd 64 7e fe 3c
       0.00030436437 0.022248313 -0.03933396 0.031066127
0003d0 db f8 d6 3b d4 26 8b 3d bb 0b 40 3e 6c 57 bb 3d
       0.0065604276 0.06794515 0.18754475 0.09147534
0003e0 a4 03 78 bd 5a 06 81 3d 92 0a 39 3d 56 54 72 3e
       -0.060550347 0.063000396 0.045176096 0.23664984
0003f0 3d 01 cb bd 63 ab be bd b7 a5 55 3d 34 14 f2 bd
       -0.099123456 -0.09310033 0.05215999 -0.1182026

bias_hh_l0 f4 [512]
000000 88 3f 5f bd 1b 68 b0 bd 12 27 e1 bd 76 5c 7d bd
       -0.054503947 -0.086136065 -0.1099378 -0.061855756
000010 cf f3 18 3e 6a c4 35 3c 26 25 37 be 9f e7 ef bc
       0.14936756 0.011094192 -0.17885265 -0.02928525
000020 1d da 09 be f8 67 a7 3c 0e 66 59 bc 1b d2 58 be
       -0.1346211 0.020435318 -0.013268961 -0.21173899
000030 4c 15 40 be 3d 81 db bb c2 c8 f0 bc ba 47 02 3e
       -0.18758124 -0.006698756 -0.029392604 0.12722674
000040 4d fa 4e be 86 23 2c bc 1f 54 32 be 9b 80 1a 3e
       -0.2021267 -0.010506516 -0.17414902 0.15088122
000050 06 7b 9e bd 70 b5 e4 3c 23 ea 5d 3d b7 b2 d4 bc
       -0.077383086 0.027918547 0.05417837 -0.025964124
000060 d2 44 12 bd 00 c4 43 bd 6e c6 47 be ca 05 d0 bc
       -0.035710163 -0.047794342 -0.19509289 -0.025393385
000070 b8 33 9b 3d 35 66 c4 bd 8d ed 17 bd ad 2a e8 3d
       0.07578224 -0.09589807 -0.03709178 0.11336265
000080 17 ed 2d be c9 ff 99 bd d2 e3 02 be e6 76 9d bb
       -0.16984974 -0.0751949 -0.12782219 -0.0048054336
000090 c2 85 10 be 4b 81 45 bd 4c 53 bb bd 7a 2b 4f 3d
       -0.14113525 -0.048219007 -0.09146747 0.05057857
0000a0 33 cb c7 3d 99 e7 0f bd 15 b2 81 be 0c 62 62 be
       0.09755554 -0.035132978 -0.25331178 -0.22107714
0000b0 5e 9f d7 bd 05 d9 9a bd 73 83 30 bd 5f 0f 4d be
       -0.10528444 -0.075609244 -0.04309411 -0.20025395
0000c0 5f 14 01 be 32 84 ae bd a9 40 84 3d 2c fa 19 bd
       -0.12605427 -0.08521308 0.064576454 -0.037592098
0000d0 4b ac 0c be 6d 99 22 be 13 4e cc 3c 1f ee 0d be
       -0.137376 -0.1587884 0.024939572 -0.13860367
0000e0 6b a2 a2 3b ea 09 28 3d 3d fc 8d bc 66 78 2f bd
       0.0049632094 0.04102508 -0.01733219 -0.04283943
0000f0 7b a9 ed bc 3b 82 5b be 72 a0 99 bc e0 9c d2 bd
       -0.029011479 -0.21436398 -0.018753264 -0.10283828
000100 90 b7 1d bd f1 ba e2 bd 74 39 0a bd db 5d 1b bb
       -0.038505137 -0.110708125 -0.033746198 -0.0023707065
000110 29 f2 5e bd 68 fc 52 be d7 88 ee bc b3 66 ab bd
       -0.05443016 -0.20604098 -0.029117985 -0.08369198
000120 a4 36 4e bd 0c f7 77 3e 81 88 20 3d 0d bd 5e 3d
       -0.050345078 0.24215335 0.03919268 0.05437951
000130 cf f3 ff 3c 6c 36 a2 bd 1f 38 53 be cd e2 f6 3d
       0.031244187 -0.079205364 -0.20626877 0.120549776
000140 ba 9a 92 bd e9 9f 2e be 81 23 c1 bd 2d 7c d6 bc
       -0.07158418 -0.17053188 -0.094306 -0.026182259
000150 9d 70 2b 3d 8f 4d 7f bd a5 2b 02 be d8 e8 55 be
       0.041855443 -0.062329825 -0.12711962 -0.20889604
000160 e2 7f 29 bc 82 b8 9e bd 5d b2 f0 3d 84 95 b8 3c
       -0.010345431 -0.07750036 0.1175277 0.022532232
000170 a0 38 84 bd f3 88 d4 3a 43 1e 25 bd 01 01 b8 bd
       -0.06456113 0.001621513 -0.040312063 -0.089845665
000180 13 4f 41 bd 08 aa 57 be 9e 76 9d 3d 7d 1c 88 bc
       -0.04719455 -0.21060956 0.0768864 -0.016615147
000190 1f 86 ac 3d 42 b2 1f 3d a2 d7 5a bd f1 59 f4 bd
       0.08424019 0.03898836 -0.0534283 -0.119312175
0001a0 15 fd 46 3e b8 b4 dd 38 f8 07 cd bb 3a fb 04 be
       0.1943248 0.00010571763 -0.0062570535 -0.1298646
0001b0 3f 24 11 be 67 fb e1 bd 35 ae 2f bc 0e 78 80 bd
       -0.14173983 -0.11034279 -0.010722687 -0.062728986
0001c0 13 81 4b be 00 a9 05 bc 10 fd fe bd 5e e2 ba bd
       -0.19873457 -0.0081579685 -0.124506116 -0.09125207
0001d0 d8 c3 3e be d0 c1 27 be c8 a6 4e bc ea b6 bc 3c
       -0.18629396 -0.16382527 -0.012613006 0.023036439
0001e0 af e3 29 be 84 7b ac bd e6 53 e8 bd bd 15 e6 3d
       -0.1659076 -0.08421996 -0.11344127 0.11234615
0001f0 29 74 a9 bd af e2 eb bd 60 eb 1a be 5d e2 2c be
       -0.08274109 -0.11517846 -0.15128851 -0.16883226
000200 a5 1c 66 bd 29 09 ed bc 35 b8 7a 3d 1f 5c ce bd
       -0.05617966 -0.028935032 0.06121083 -0.100761645
000210 3c 04 dd bc 51 d1 b3 3b 0a eb ac 3d 7f 94 02 3e
       -0.026979558 0.005487599 0.08443268 0.1275196
000220 34 7e cf 3d eb 2f 92 3d a8 d6 f1 3c f8 a2 33 3e
       0.10131493 0.07138046 0.029521301 0.17542636
000230 bf 28 f7 bd 28 e6 b7 3d 25 bf c5 bc be 8a 0c bc
       -0.120683186 0.08979446 -0.024138996 -0.008578001
000240 86 a3 37 3d 12 d3 94 bd 1c 4d 4a 3c b9 1f b0 3d
       0.044833682 -0.07266821 0.012347486 0.085998006
000250 1d 5b 9f 3d 54 56 99 3d ab 17 8d 3c 32 f9 e8 3d
       0.0778105 0.07487169 0.0172232 0.11375655
000260 1a 34 8b bd 3c dd 40 3e 4e 28 88 3d 63 b7 b8 3d
       -0.06797047 0.18834394 0.066483125 0.09019353
000270 65 58 be bc db e1 5a 3d 84 f7 a6 bd 8e 27 4c bd
       -0.02323551 0.05343805 -0.081526786 -0.04984241
000280 e2 81 7c 3d c3 d2 9b 3c d2 ae 4e 3e ec ae 8b bd
       0.061647303 0.019021397 0.20183876 -0.06820473
000290 6d 3a 87 3d 7d a4 02 bd 4b d5 cc bd 42 c0 c8 bd
       0.06602941 -0.03189515 -0.1000162 -0.09802295
0002a0 b6 91 25 3d 54 6e a3 bd 28 1e 0d 3e 96 d3 4c bd
       0.040422164 -0.07980028 0.13781035 -0.05000647
0002b0 e3 6c e0 bc 31 01 30 bd df 63 88 3e dd 4c 51 be
       -0.027395671 -0.042969886 0.26638696 -0.20439477
0002c0 2b 84 89 bc 2c 58 96 3b 46 da 99 3c fd cc d3 3d
       -0.016786655 0.0045881476 0.018780839 0.10341833
0002d0 b2 f0 ce bd f2 95 37 bd 4e 90 c0 3a 84 7b 35 bd
       -0.10104503 -0.044820733 0.0014691444 -0.044307247
0002e0 39 37 14 3e 41 a7 11 3d 27 5b a9 3e 88 aa 76 bc
       0.14474191 0.035559896 0.33077356 -0.015055306
0002f0 5d 3a 26 3d e1 8f 5e bd 3f 61 a6 bd ae b8 8d bd
       0.040583003 -0.054336432 -0.08124017 -0.069199905
000300 e1 5b 0d 3e af 14 12 bc eb 4e b9 bd 5e 54 e9 3d
       0.1380458 -0.008916064 -0.090482555 0.11393045
000310 bc 84 f9 3d e7 34 b0 3d 6f 93 ee bd d8 52 9c 3d
       0.1218352 0.0860384 -0.116492145 0.07632989
000320 99 5a 94 3d 7e ab 89 bd 9b f2 a3 bd 30 43 05 bd
       0.07243843 -0.06722163 -0.08005258 -0.032534778
000330 88 0a ec 3c 63 be a6 3d 2c 60 dc bd e4 9f b1 3d
       0.028813615 0.08141782 -0.10760531 0.08673075
000340 96 af bb 3d 50 74 9f bd b3 42 e8 3c 98 f6 2a 3d
       0.0916435 -0.07785857 0.028352117 0.041739076
000350 ec ee 21 3e 0f f4 ce bd a0 0e 4b 3d cb c1 cf 3c
       0.15813798 -0.10105144 0.049574494 0.025360962
000360 90 e5 12 3c 9a 0e b1 3d 49 c1 85 3d 94 9f 93 bc
       0.008965865 0.08645363 0.06531007 -0.018020429
000370 12 e1 64 3e cb 80 29 3d bb 2f 19 3e 8f 2b 8a 3c
       0.22351483 0.041382592 0.14959614 0.016866473
000380 1d c8 ac bd 46 37 40 3d d3 29 3a 3d ae 95 7c bd
       -0.08436606 0.046927713 0.045450043 -0.061666183
000390 b6 32 5b 3d a3 29 26 be c4 9a 1d be d4 a9 7f bc
       0.05351516 -0.1622682 -0.1539107 -0.015604455
0003a0 bd 37 a7 3c 86 ff 78 3d 6a 7c 04 be a3 7c e1 bd
       0.02041232 0.06079056 -0.12938085 -0.11010101
0003b0 f7 ee b7 bb 87 42 10 3e 6f c0 f8 3d f5 55 af 3c
       -0.0056132036 0.14087878 0.12146079 0.021403292
0003c0 45 3e 4b 3d 3f 68 d6 3c 11 f1 d4 3c eb 59 c3 bd
       0.04961993 0.026172755 0.025993856 -0.09538635
0003d0 74 c1 65 bc c8 de 3b bd 04 d2 47 3e 40 54 78 3d
       -0.014023174 -0.045866758 0.19513708 0.060627222
0003e0 11 1a 9f 3c fb 84 0c 3e ea 65 ce 3d 54 11 2b 3e
       0.01942161 0.13722603 0.10078032 0.16705829
0003f0 cc ec 63 bd 5e ec 4d bd b4 65 19 3e a2 d3 f6 bd
       -0.05564575 -0.050274245 0.14980203 -0.120520845

weight_ih_l1 f4 [512, 128]
000000 db 39 bb 3d 20 a5 5a 3a 5f 6e a3 bd f1 47 7c 3e
       0.091418944 0.00083406456 -0.07980036 0.24636818
000010 5c 1d a6 bd a1 70 05 3e de e3 22 be 4b 3b 4d 3e
       -0.081110686 0.13031246 -0.15907237 0.2004215
000020 12 11 4a be 24 13 88 be 54 0d 4d bd 9b 01 20 bd
       -0.19733074 -0.26577103 -0.05006154 -0.03906403
000030 5b 0d fc 3c ed 96 02 3e da 91 a9 3e 53 cf 2f bd
       0.030768087 0.12752886 0.33119088 -0.04292233
000040 bc ad 53 3e bc 1d f0 3d fb 8c b6 3e 45 dc 01 3e
       0.20671743 0.117244214 0.35654435 0.12681682
000050 42 e1 14 be c5 a9 39 be 76 57 dd 3d 53 be 7a 3d
       -0.14539054 -0.18131168 0.108076975 0.061216664
000060 78 6d d6 bd 02 33 2b bd 60 32 56 3d 2a aa a4 3d
       -0.10470098 -0.04179669 0.052294135 0.08040269
000070 92 e6 15 3e 0b 37 b5 bd 92 4a 9e bc 01 5a 01 bd
       0.14638737 -0.08848389 -0.019322667 -0.031579975
000080 f5 b9 98 bd 05 9f 46 bd d9 5f 42 3e fe 8b c2 bd
       -0.074573435 -0.048491497 0.18981875 -0.09499358
000090 a9 aa 18 3e f1 55 b0 3e 87 a5 67 3e fa 2f ce 3e
       0.14908852 0.34440568 0.22621737 0.40270978
0000a0 37 67 0c 3e 09 5e 93 3c 3a 13 2f 3d 2f 5a 85 3e
       0.13711248 0.017989175 0.042742945 0.26045367
0000b0 ed 21 b9 3d 2c ab 4d 3e 6e b1 b4 bc 0f d4 cd bd
       0.09039674 0.20084828 -0.022057261 -0.100502126
0000c0 9a 75 ad be 16 51 04 3e 3c 8b b3 be c8 a9 db 3c
       -0.33878785 0.12921557 -0.35067165 0.026814356
0000d0 3c f9 7a 3e 47 8b ef 3d 27 93 b0 bc 56 f8 db bc
       0.24509138 0.11696487 -0.021554543 -0.026851814
0000e0 84 55 c2 3d 2a f5 7d 3d f3 39 54 be 72 cd d0 bd
       0.09488967 0.062001385 -0.20725231 -0.101954356
0000f0 64 f2 73 bd 67 7c ee bd ed 54 ae be 4b b1 4d 3c
       -0.059557334 -0.116448216 -0.34049168 0.012554477
000100 3a b6 71 3d ca 7e d2 bc ba 69 59 be d5 e1 b3 be
       0.059011675 -0.025695223 -0.21231738 -0.35133234
000110 04 f3 9e be 63 fa 4b 3e af cb 6b 3e 0c a4 03 bc
       -0.3104478 0.19919734 0.23026918 -0.008034717
000120 4a 39 65 bc 72 4b c9 be fe 37 9f 3e 1d fe 8b be
       -0.01399071 -0.39315373 0.31097406 -0.2734231
000130 86 5c e4 be 2e 9d 01 be c6 b8 c7 3d 16 27 78 3c
       -0.4460184 -0.12657616 0.097520396 0.015146038
000140 cc 02 cd 3d 68 2b 40 3e 35 e2 18 3e 36 8d ad 3e
       0.10010299 0.18766558 0.14930041 0.33896798
000150 cc aa 22 3e 29 6b 86 3d 6c fd 04 bd 07 23 ca 3d
       0.15885466 0.06563408 -0.032468244 0.09869962
000160 a1 50 d1 bd cf f0 87 3d 2f 0c 98 bd d3 84 fa bd
       -0.10220457 0.066377275 -0.07424199 -0.122323655
000170 db 27 8a 3c 45 be c4 3d f7 26 12 bd b3 89 bb 3d
       0.016864708 0.096066035 -0.03568169 0.091571234
000180 81 7b 54 3e b6 eb d4 3c 95 25 b1 bd 82 24 0c 3e
       0.20750238 0.025991302 -0.08649746 0.13685802
000190 00 de b7 be 9e ab 84 be 61 43 2f 3d db 6d 97 bd
       -0.3591156 -0.25912184 0.042788867 -0.07394
0001a0 07 d9 36 be 10 30 3b 3d 0f 28 07 3d 53 b9 26 3c
       -0.17856227 0.045700133 0.032997187 0.010176021
0001b0 4c 68 49 bc fc e0 18 bd 78 52 b3 3c 5b 54 bc 3e
       -0.012292933 -0.037323937 0.02188991 0.36783108
0001c0 6d c8 e9 3b 53 28 4f be d9 e2 d1 be 8e 10 a0 3d
       0.0071344883 -0.20230226 -0.40993384 0.078156576
0001d0 d0 e8 db 3d f0 14 a5 bd cf 2e 17 bc f1 2c 78 3e
       0.10737765 -0.08060634 -0.009227469 0.24235894
0001e0 40 60 36 3c af bf 9b be b6 1e 6a be 5c 7d 23 3d
       0.011131346 -0.3041968 -0.22863278 0.039914474
0001f0 f2 57 b6 3a d1 1a be 3d b2 21 06 3d 42 9a a4 3d
       0.0013911708 0.092824586 0.032746978 0.08037235
000200 1b 2f 08 be 71 45 52 3e 78 d8 c3 bc fe 17 bb 3d
       -0.1329922 0.20534302 -0.023906931 0.091354355
000210 66 12 9c 3d af c1 42 3c 31 b6 1b be 45 aa 72 3e
       0.07620697 0.011886998 -0.1520622 0.23697765
000220 a6 27 f8 bc e6 e7 06 3d be ae 0e 3c 63 aa 19 3e
       -0.030292343 0.032936 0.008708654 0.15006404
000230 4f 47 f6 bd 6c 7b f7 3d be 5d 13 3d 87 98 95 3e
       -0.1202532 0.12084088 0.03597807 0.29217932
000240 4f dc 95 3c 64 a7 34 3e 9b f1 39 3e ef 32 a1 bd
       0.018293528 0.1764198 0.18158571 -0.07871043
000250 64 52 86 bd cc 94 19 3e ae 2e 16 3e 9f 2a 38 3b
       -0.065586835 0.14998168 0.14666244 0.0028101576
000260 93 63 81 bd 34 71 50 be a7 ef ae 3c b2 ee d1 3d
       -0.063178204 -0.20355684 0.02135451 0.10250606
000270 0a 93 38 be 53 be 0e 3d 53 65 9f 3d 7d 1b 18 be
       -0.18024841 0.034849476 0.07782998 -0.14854236
000280 e8 97 fd bd 7a 57 a2 3e cf d6 90 3d 90 50 cc bd
       -0.123824894 0.31707364 0.070722215 -0.099763036
000290 90 29 43 3e 4e 00 c9 3d 1b 81 83 3e 88 42 c7 3d
       0.19058824 0.09814511 0.25684437 0.09729487
0002a0 db 0e 61 3d 5e 85 17 3e 2a dd 1a be 2f 28 5c 3e
       0.054945808 0.1479697 -0.1512343 0.21499704
0002b0 4e 36 93 3d 78 61 11 3e 52 ac 02 3e 5b ee 93 bb
       0.07188092 0.14197338 0.12761047 -0.004514498
0002c0 e9 ea aa bd 54 39 5b 3e f9 e4 1b 3e 9f f6 1c 3e
       -0.08345587 0.21408588 0.15224065 0.15328453
0002d0 dc 26 ee 3c c8 65 18 be 2b d0 d9 bd 6d 7f 11 be
       0.029071264 -0.14882576 -0.10635408 -0.14208765
0002e0 1b 74 0b 3e 8a 53 98 bd ff a4 8f bd 46 d0 e2 bd
       0.1361851 -0.07437809 -0.070138924 -0.11074881
0002f0 02 36 8b 3d 98 27 29 be 45 56 18 be bb e0 bd bd
       0.067974105 -0.1651901 -0.14876659 -0.092713796
000300 29 57 11 3e 3a ab 49 be 18 19 86 bd 5a cb e0 bc
       0.14193405 -0.19694224 -0.06547755 -0.027440716
000310 4b 37 3d be 5a fe b6 3d a4 7d d6 3d 9b ea 4c be
       -0.18478124 0.089352325 0.10473183 -0.2001137
000320 5c a9 07 3c ec 5d d2 bd 20 7d 2d 3e 31 ce 1d 3c
       0.0082801245 -0.102718204 0.16942263 0.009631679
000330 da e2 d9 bd bf 6a cf bc df 30 42 3d 60 97 53 be
       -0.106389716 -0.025319455 0.04740989 -0.20663214
000340 0e 02 da 3c f9 64 02 bc 91 06 87 3e 5e ba 06 3e
       0.026612308 -0.007958644 0.26372197 0.13157031
000350 3f a1 14 3d cc 9f 78 3e 49 88 17 3e 79 5b 57 bd
       0.03628659 0.24279708 0.14798082 -0.05257747
000360 b1 b7 73 3e 63 fb 51 3e 0e 2f 58 bd e3 d2 86 bd
       0.23800541 0.20506053 -0.05277925 -0.06583192
000370 a4 d5 21 bd 7a 91 23 bc 1f 68 80 3d 56 ea bb 3c
       -0.039510384 -0.009983415 0.062698595 0.022938889
000380 fc 41 a6 3e cd ac 11 3e 0c ed 02 3e 85 91 9b bd
       0.32472217 0.14226075 0.12785739 -0.07596115
000390 8e d8 c8 3d fa 97 45 be 3c 0b ac bc 11 f3 cc bd
       0.098069295 -0.19296256 -0.02100145 -0.10007299
0003a0 b3 03 42 3d 64 ad 43 be 8f cd 2b 3d ba 90 8e bd
       0.04736681 -0.19109112 0.041944083 -0.06961198
0003b0 07 35 11 be 52 af b3 3d bc 01 35 be ad cf 7e 3e
       -0.14180385 0.08773674 -0.17676443 0.2488391
0003c0 cd f0 92 3d bb 54 f0 3d 5b 5a b6 bd c5 a1 13 3d
       0.07174835 0.11734911 -0.08903953 0.036042947
0003d0 7d 13 6a 3c 56 b8 97 be e1 52 ce bc 09 d1 d8 bd
       0.014286873 -0.29632825 -0.025186004 -0.10586745
0003e0 43 12 ac bd f9 72 ab bd 32 b4 4d bd 83 53 c5 3c
       -0.08401921 -0.08371539 -0.050220676 0.024087673
0003f0 49 59 47 3e ac a6 e4 3d 26 8a 56 bc 81 f8 2b 3c
       0.19467653 0.11164603 -0.013094461 0.01049626

weight_hh_l1 f4 [512, 128]
000000 9d 88 45 3d ec 27 e6 3c f1 89 c1 3d 26 2d a1 bd
       0.048225988 0.028095208 0.09450138 -0.078699395
000010 2d e3 80 be 98 b5 9a 3d ee a1 1b be 0a ba 07 3e
       -0.2517332 0.075541675 -0.1519849 0.13254562
000020 7c 09 0e 3d f8 7f c5 bd 6f db 49 bd c7 c9 52 3d
       0.034677014 -0.09643549 -0.049281534 0.05146196
000030 3d b4 ba bc d6 48 31 3d 77 43 f0 3d c6 b7 ee 38
       -0.022791022 0.043282352 0.11731618 0.00011382955
000040 73 06 4b bc 51 a8 c8 3d 2f c4 83 be d5 05 9f 3e
       -0.012391674 0.09797729 -0.25735614 0.31059137
000050 58 d3 b8 bd 06 61 11 bc 41 68 a7 3d f5 00 08 bd
       -0.090246856 -0.00887323 0.08174182 -0.033204038
000060 8b 1c e9 ba e8 d3 10 bd 42 29 c4 3d fb 4a ad 3c
       -0.0017784996 -0.03535834 0.09578182 0.021153918
000070 12 06 26 bd 30 87 26 be 88 c9 ef bd 56 f3 fa 3d
       -0.040533133 -0.16262507 -0.11708361 0.12253444
000080 18 55 20 ba 81 1a 70 3d 9c 6a cc bd 5f ee c1 3d
       -0.00061161956 0.058619026 -0.099812716 0.09469294
000090 49 d6 24 bd 2e 24 bf bd e4 63 fe 3d 24 6f 26 3e
       -0.04024342 -0.093330726 0.124213964 0.16253334
0000a0 0e d2 2c 3d a4 62 52 3d 12 ef 81 bd 40 7b da bd
       0.04219251 0.051363602 -0.06344427 -0.10668039
0000b0 56 30 15 be c5 8e df bd 5a 3d d0 bd 4f 16 c5 3d
       -0.1456922 -0.10915903 -0.10167952 0.09623396
0000c0 92 0b 6a 3b 28 3b 2b be 4a 92 7c be a5 eb aa 3d
       0.0035712463 -0.16721785 -0.2466518 0.08345727
0000d0 22 20 2b bd c6 84 28 bc ea 0c 32 3e 56 ca d3 3d
       -0.04177869 -0.010285562 0.17387739 0.10341327
0000e0 56 f6 1e 3d e2 2a 1c 3d a4 5e ea 3c 98 74 62 bd
       0.038809143 0.038126834 0.028609581 -0.055286974
0000f0 be e3 27 39 a8 3a 35 3e 6e ef e4 3c f2 98 23 bd
       0.00016011202 0.17698157 0.0279462 -0.039940782
000100 1a 88 10 3d f4 6b 2d 3e 4b ec 12 be a4 72 ac 3d
       0.035286047 0.16935712 -0.14347951 0.084203035
000110 7e 25 bd bd c3 58 e1 3c d8 d1 77 3d 4c be c5 bb
       -0.09235667 0.027508145 0.060502857 -0.006034648
000120 a6 77 7a 3d 9b 26 8b bc 4f 90 6e bc a7 5b 08 be
       0.061149262 -0.016986182 -0.014560773 -0.13316213
000130 98 da 13 3d 39 4e e2 bd 68 c2 cc 3b d0 03 c6 3c
       0.03609714 -0.11050076 0.006248761 0.02417174
000140 be d1 2d 3e 63 9b 19 be 95 dc 3d 3e a2 7e a5 bd
       0.16974542 -0.15000682 0.18541177 -0.08080794
000150 2e 6b 4a 3e 3a 92 71 3d d0 0e bc bd eb 5d 88 3d
       0.19767448 0.058977343 -0.09182513 0.066585384
000160 9d ef 9f 3c 50 2d 22 bd d0 ca 88 be 0d 29 f2 3d
       0.019523436 -0.039593995 -0.26717234 0.11824236
000170 a2 6f 02 3e 25 f4 51 be 96 6f 05 be 4d 26 2b 3c
       0.12737897 -0.2050329 -0.13030848 0.010446143
000180 4e ab 27 bd 6a c9 a8 3d 35 75 40 bd 60 18 c6 bd
       -0.040934853 0.08241542 -0.046986777 -0.09672618
000190 25 13 1d 3e 2a 10 16 bc 1e 4f a2 3d f2 7d c7 bd
       0.15339334 -0.009159127 0.07925247 -0.09740819
0001a0 1f e7 a8 3d ba 19 fd 3b 53 40 ad 3c de ee 97 3d
       0.08247208 0.007724014 0.021148836 0.07418607
0001b0 fa 58 61 be 6f 48 2c 3c a3 42 32 bd 33 aa b0 3d
       -0.22006598 0.010515316 -0.04352058 0.08626213
0001c0 10 fa 31 bd 45 5b c7 bd 5b 89 74 bd 0f d6 9f 3c
       -0.04345137 -0.09734205 -0.059701305 0.01951125
0001d0 92 7d 8b 3d 1e c4 4f be 13 30 e3 3c d9 b9 64 bb
       0.0681106 -0.20289657 0.027732885 -0.0034900813
0001e0 be b0 c6 bd 3c 1f 20 bd 67 a6 3d 3d 59 65 16 3e
       -0.0970168 -0.039092287 0.04630127 0.14687099
0001f0 58 16 e7 3d a1 f2 1a bd 03 ee 0d bd 38 12 4c 3e
       0.112835586 -0.037829045 -0.034650814 0.19928825
000200 6f 01 0d bc 2f 94 21 be 47 a9 90 3d ca 14 aa bd
       -0.008606299 -0.15779184 0.07063537 -0.083047464
000210 eb da dd 3d 09 49 2d 3d 1f b0 c0 bc 97 51 c6 3c
       0.10832771 0.04230598 -0.023521481 0.024208827
000220 19 63 8b 3d 13 dd bb bd 30 32 c7 3d a1 e5 8d 3d
       0.06806011 -0.09173026 0.097263694 0.06928564
000230 41 f4 a8 3d 79 31 a1 3d 84 83 83 3d 45 e1 e1 3d
       0.08249713 0.07870764 0.06421569 0.11029295
000240 16 6f 86 bd 8b 46 02 3e 43 de 79 bd 6a db b1 3d
       -0.06564157 0.12722223 -0.06100298 0.08684428
000250 9c db b6 bd 05 db db 3d 8f 5e 88 3e c4 12 b7 bd
       -0.08928606 0.10735134 0.26634642 -0.08939126
000260 0e fc 3a 3e dc f0 10 3e 35 c6 de 3c 1a ad ee bd
       0.18260214 0.1415438 0.027194122 -0.1165411
000270 cd ad 17 3d d5 fb 7f bd b0 fa 2b 3e 6c a0 84 bd
       0.037030984 -0.062496025 0.16794848 -0.064759105
000280 5b 41 ab bd e3 f1 bf 3d 92 8e 87 3c 92 24 f3 3c
       -0.08362075 0.09372308 0.016547475 0.029680524
000290 46 96 31 3e 03 3a 3f 3d 87 ed cf bc ff 18 c7 bd
       0.17342481 0.046686184 -0.025381817 -0.097215645
0002a0 76 89 c1 3c f5 98 2b 3e 40 b1 09 3e 5b c4 6c 3e
       0.023625117 0.16757567 0.13446522 0.23121779
0002b0 03 0c 30 be 28 f5 40 be a0 b9 19 3e d6 f2 06 3e
       -0.17192082 -0.1884352 0.15012217 0.13178572
0002c0 bc 38 80 3d 48 24 1d 3e c3 a9 6e be 2b 4a cc bd
       0.06260821 0.15345871 -0.23306946 -0.09975084
0002d0 97 e8 ed 3d d8 2e 02 3e ce 6d e7 3d d6 38 23 3e
       0.116166286 0.12713182 0.113002405 0.1593965
0002e0 01 5d af 3c bf 3a 03 bd a1 f8 f5 3b a7 a8 7f 3d
       0.021406652 -0.032038447 0.0075064455 0.0624167
0002f0 a4 71 ef 3d 99 09 75 3e 99 5a 29 be ca a5 5c be
       0.11691597 0.23929442 -0.16538467 -0.21547619
000300 01 27 75 3c 2a 73 02 3d b3 35 03 3e c6 b8 b3 bd
       0.014962913 0.03184811 0.12813453 -0.08775477
000310 14 e6 57 be a7 6f df 3c f5 8b ea bd e0 5c f0 bc
       -0.21083862 0.02727492 -0.11452476 -0.029341161
000320 7a e0 f6 3c 68 93 4e 3e 83 7c f0 3d fe 61 96 3d
       0.030136336 0.20173419 0.11742499 0.07342909
000330 ac fc 4e 3d 3b 97 88 3b 0c 4f 51 be 90 7f ef bd
       0.050533935 0.0041684187 -0.2044031 -0.116942525
000340 a1 1a e6 bd 8d e7 8f bc d4 98 d9 3d 59 70 ed 3c
       -0.11235548 -0.017566467 0.10624853 0.028984236
000350 9b 44 f7 3d 1a ae 77 3d b4 4b da bd 82 b2 aa 3d
       0.12073632 0.06046877 -0.106589705 0.08334829
000360 64 1d 47 bd e3 13 66 3d 0d c7 13 be 62 a3 aa bb
       -0.048612013 0.05617131 -0.144314 -0.005207465
000370 52 59 46 3d 5d 1e aa 3d 93 7b 7c 3d 5d 89 a4 3c
       0.048425026 0.083065726 0.061641287 0.020085031
000380 6a bd 46 be f2 0f bc 3d 28 d8 b6 bd 67 3c 59 be
       -0.19408193 0.09182729 -0.08927947 -0.21214448
000390 b7 15 7f 3e 35 d0 51 be df fb db bc 56 05 8e 3d
       0.24910627 -0.20489581 -0.0268535 0.069346115
0003a0 4d 5b 5e 3d e8 48 da 3d 5d ba c8 bd af fc 74 3e
       0.05428629 0.10658437 -0.09801171 0.23924516
0003b0 9d db 44 bd bf de 7a 3d 53 42 d3 bd 48 0b 30 bb
       -0.048061002 0.061247583 -0.10315385 -0.0026862193
0003c0 66 26 c1 3b 11 d2 59 be 0f 3a 41 be 56 d7 e8 bd
       0.00589447 -0.2127154 -0.18869804 -0.11369197
0003d0 7f 9e 72 3e 1b af 70 3d 13 df af 3d 54 14 28 3d
       0.23693274 0.058760744 0.0858747 0.04103501
0003e0 8c ff ae 3d 5b f5 6b 3d f2 06 a2 3d 2b 99 72 3e
       0.085448354 0.057607036 0.07911481 0.23691241
0003f0 3a 6d 0f bd 2a 9f 29 be 0a aa 9e be 42 f9 29 3e
       -0.035016276 -0.16564623 -0.30989105 0.1659899

bias_ih_l1 f4 [512]
000000 b8 6a a4 bd 1f 07 d0 bd 77 c8 53 bd b6 ca 21 be
       -0.080281675 -0.10157608 -0.05170485 -0.15799984
000010 cb 5d e1 3c 6b 60 11 bc 25 fd d0 bc 5c 18 7f 3d
       0.027510544 -0.0088730855 -0.025511334 0.06227909
000020 fe 51 74 bd 45 69 80 bd d5 53 66 3c dd b5 87 3d
       -0.059648506 -0.062700786 0.014058073 0.066264845
000030 a7 68 72 bd b4 7b 5a 3e 06 2e ec 3b 2a 76 5a bd
       -0.059181836 0.21336251 0.007207635 -0.053335346
000040 f3 34 54 bd 70 b0 75 3e 31 8f 04 bd 07 d4 7d 3b
       -0.05180831 0.23993087 -0.03236312 0.0038731114
000050 98 d8 1e 3e c8 c8 55 3d 01 e2 9c 3d 39 75 7f 3d
       0.15512311 0.052193433 0.07660294 0.06236765
000060 65 c6 e9 3d 7a 07 ec 3c 65 06 81 bd 02 c7 92 3d
       0.11414794 0.028812159 -0.06300048 0.07166864
000070 1e 55 80 3c 8c 50 e3 bd 47 ae 00 be 23 21 cf 3d
       0.015665587 -0.110993475 -0.12566482 0.10113742
000080 75 51 13 3d ee 9f 12 3e 7b 23 01 3d c7 41 8c bd
       0.035966355 0.14318821 0.031527977 -0.068484835
000090 93 26 fc bc 81 a0 cd 3d be 93 42 3c f8 27 f7 3d
       -0.030780112 0.10040379 0.011876045 0.1206817
0000a0 41 27 af 3d 9c dc 46 3d b5 27 e1 bd 8e a8 05 be
       0.08552409 0.048550233 -0.10993902 -0.1305258
0000b0 75 fa 35 3e c1 48 ba 3c 1b a8 1f bd ae 38 31 be
       0.17771323 0.02273977 -0.038978677 -0.17306778
0000c0 eb ca 88 bd 7f c4 f2 3d 9a 3d f8 bc 20 d0 aa bb
       -0.066793285 0.11853885 -0.030302811 -0.0052127987
0000d0 35 29 de bd 64 94 63 3c 0b 31 5b be f9 af cc 3d
       -0.10847703 0.01389036 -0.21405427 0.099945016
0000e0 44 9f f1 bd ff 2f 63 3d 41 4f 24 be 38 d1 f6 bd
       -0.11797956 0.055465695 -0.16045858 -0.12051624
0000f0 e1 3c 43 3c b9 ab 2b be e8 19 36 3c 30 6d c4 bd
       0.01191637 -0.16764726 0.011114575 -0.09591138
000100 00 c2 07 bd 80 fc 8d 3c 0d a3 06 bc 2f 50 ed bc
       -0.033143997 0.017332315 -0.008217585 -0.028968899
000110 c9 12 72 bd 8f b5 90 bc fd 5a d0 3b 7c c4 a2 bd
       -0.059099946 -0.017664699 0.006358503 -0.07947633
000120 bf 0b 92 bd 3a 4d f6 bd ec 73 88 bd 4d 16 c1 3c
       -0.07131147 -0.120264485 -0.06662735 0.023570204
000130 90 39 1f bd 95 43 30 bd ee 0e cb bc 5a e8 ce bb
       -0.038873255 -0.0430332 -0.024787392 -0.0063143196
000140 4c d8 b1 bc 29 23 43 bc 0b 6e b1 3d af 89 8f 3d
       -0.021709584 -0.011910238 0.08663567 0.07008683
000150 36 4b df bc 16 29 96 3d 24 0e 0a be 85 f2 2a 3d
       -0.027257543 0.07332055 -0.13481957 0.04173519
000160 56 f6 1e be 40 9a 67 be 4a 29 56 3d 78 8a ea bd
       -0.15523657 -0.22617435 0.05228547 -0.11452192
000170 22 44 f0 bb ca d2 d2 bd 76 ee 09 be c5 a9 75 bc
       -0.007332341 -0.10294111 -0.13469872 -0.0149940895
000180 02 bb af 3c e3 24 9d bd df 65 a0 3c 89 fa 47 bd
       0.021451477 -0.07673051 0.019579826 -0.048822913
000190 3f 4f 20 be 5b df 40 bd cb 7c 74 3d b9 34 b0 bc
       -0.1565523 -0.04708801 0.059689324 -0.021509515
0001a0 c9 a5 09 bd e9 0d e3 bd 8e 8c 91 bd da 05 08 3c
       -0.03360537 -0.110866375 -0.07106887 0.008302176
0001b0 a8 0b bd bb 53 f9 50 3e 9b 7b 89 bd d9 0a 0f be
       -0.005769212 0.2040761 -0.06713029 -0.13968982
0001c0 1f 9c 45 3d d7 00 c7 3c 2c e3 b6 3d ef 6f e1 bd
       0.04824459 0.024292393 0.08930048 -0.11007678
0001d0 6e 2d f9 3d eb 17 64 be bb 98 cd bd dd 34 16 be
       0.12166868 -0.22274749 -0.10038897 -0.14668603
0001e0 a4 a8 a2 be ef 41 7e bd 51 6b 26 ba 52 17 75 be
       -0.31769288 -0.062074598 -0.0006348389 -0.23934677
0001f0 30 38 c4 bd e8 b3 84 3d 17 c3 b7 3c bc 5c 1b 3c
       -0.095810294 0.06479627 0.022431893 0.009482559
000200 f9 55 1c 3e 3b 20 6a bc 7a 9d a5 3e cd fb 7e 3d
       0.15267171 -0.014289911 0.32346708 0.062251855
000210 35 5a 33 3d f2 86 d9 3d 73 2d 59 3e 22 ea 12 3e
       0.0437872 0.10621442 0.21208744 0.14347127
000220 eb e0 1e 3d c4 1c 42 3e 18 50 56 3e e8 1a d8 3d
       0.038788717 0.18956286 0.20928991 0.10552007
000230 cb 33 2e 3e 70 cd f8 3d fa 76 e6 3d 91 08 6f 3e
       0.17011945 0.12148559 0.11253162 0.23343112
000240 b3 12 95 3e 25 d0 6c 3e 37 bf fc 3d 81 9d 2a 3e
       0.2911583 0.23126276 0.12341159 0.16661645
000250 83 fc 89 3d ca cf 77 3e 42 d0 c2 3d c6 45 5d 3e
       0.06737616 0.24200359 0.09512378 0.21608648
000260 39 ef 8b 3e 9d e4 7a 3e 00 e2 6e bd 92 79 27 3e
       0.2733095 0.24501272 -0.058321 0.16354969
000270 9c b5 a6 3d 11 8c 69 3e 5a 4a a6 3e c9 2a 0f bd
       0.08140108 0.22807337 0.324786 -0.034952912
000280 18 54 f6 3d fd 93 86 3e 63 be 66 3d 3e 01 13 3e
       0.12027758 0.2628478 0.05633391 0.14355943
000290 33 63 90 3d 32 fb 85 3d 58 7c 3a 3e 0f ee 80 3e
       0.07050171 0.06542052 0.18211496 0.25181624
0002a0 62 7a 4f 3e d9 12 0f 3d ee cd 65 3e 4c 1b 41 3e
       0.20261529 0.034930084 0.22441837 0.18858069
0002b0 00 56 14 3e 30 02 13 3e ad 2f 04 3e 0a 0c 1b 3e
       0.14485931 0.14356303 0.12908812 0.15141311
0002c0 b6 bd fc 3d b4 e4 02 3e a6 40 5a 3d 4b f5 34 3d
       0.12340872 0.12782556 0.05328431 0.044179242
0002d0 7e f3 04 3d c8 d3 21 3e 5c ee 90 3d fd b6 c3 3d
       0.032458775 0.15803444 0.070767134 0.095563866
0002e0 9e d0 1b 3e 14 c7 89 3d 2a 2c 65 bc e4 fc 56 3e
       0.152163 0.06727424 -0.01398758 0.20994908
0002f0 d8 c8 1f 3e 31 43 25 3e 38 05 d4 3d 57 08 30 3d
       0.1560396 0.16138913 0.10352558 0.042976703
000300 9c 50 c8 3d e6 32 fc 3d 17 17 6b 3c 09 2a 60 3e
       0.09781 0.123143956 0.014348767 0.21891035
000310 7e 9f 6c 3e a9 14 f4 3d 91 9c 24 3e cc 19 18 3e
       0.23107716 0.11918003 0.1607535 0.1485359
000320 63 67 f0 3d a8 f8 95 3b 89 06 94 3e 34 2c c3 3d
       0.117384695 0.0045767613 0.28911236 0.095299155
000330 e3 ab 72 3e 62 a8 25 3d ab 87 02 3d 27 67 12 3e
       0.23698382 0.040443785 0.031867664 0.14297162
000340 bd 14 6b 3e 7c 7e 83 3d c0 b8 26 3e 89 98 66 3d
       0.2295713 0.06420609 0.16281414 0.056297813
000350 b6 8a 2f 3e b8 39 79 3e fb d4 7c 3d 90 87 6e bd
       0.17142758 0.24338424 0.06172655 -0.05823475
000360 f0 e5 3f bd 8e 45 03 3e 87 01 df 3c 26 04 41 bd
       -0.046850145 0.12819502 0.027222408 -0.047123097
000370 1e 96 41 3e e4 21 e2 3d 58 45 69 3d 53 cb 15 3e
       0.18904921 0.110416204 0.056950897 0.14628343
000380 36 39 3c 3e 56 01 1e 3d 12 f7 2e 3e 07 a0 cc 3b
       0.18381199 0.038575493 0.17086437 0.0062446627
000390 3e 04 f9 bc e3 33 91 ba 96 6a 24 3d c1 14 ab 3d
       -0.03039753 -0.0011078086 0.04014071 0.08353568
0003a0 4d ce 91 3d 2d 74 e5 3d 73 55 ae 3d de 5c aa 3c
       0.07119427 0.112037994 0.08512392 0.020796236
0003b0 6e fd 8d 3e 71 a4 44 3e bc 33 39 3e 37 92 8a 3c
       0.27732414 0.19203354 0.18086141 0.016915424
0003c0 cc a2 57 3e d4 ec 66 3d 86 a6 5f bc e4 d0 d8 3c
       0.21058196 0.0563782 -0.013650542 0.026466794
0003d0 09 93 1a 3e f3 72 e9 bb 77 73 2d 3d 73 71 a4 bd
       0.15095152 -0.0071242987 0.042346444 -0.08029451
0003e0 27 4d 70 3d 61 ff 73 3d 1d 38 ff 3d 62 9b 1c 3e
       0.05866733 0.05956972 0.12461875 0.15293649
0003f0 11 6a 3d 3d fc 13 ad 3d 1c 8c 2f 3e 76 09 57 3e
       0.04624373 0.08451077 0.17143291 0.20999703
