lstm_pytorch/weight.pth (torch, 331006 bytes, 6 tensors)

lstm.weight_ih_l0 f4 [512, 28]
000000 ca 71 9d bc 8b a6 e5 bd e3 16 2f be e7 af 47 bd
       -0.019219298 -0.11213406 -0.17098574 -0.048751738
000010 dc c2 5d bd 4a 7f 2a 3e 63 db 55 3e 6a ee da 3e
       -0.05414091 0.1665012 0.2088447 0.4276002
000020 90 50 88 3e 22 28 0f be bf 1a 58 bd 4d b6 4e bd
       0.26623964 -0.13980153 -0.052759882 -0.050466824
000030 57 a1 88 3c a8 c4 c8 3d 1c f6 0a 3e 76 c2 34 3e
       0.016678495 0.09803134 0.13570446 0.17652306
000040 a6 0d f1 3c b3 38 98 3d fe 13 bb bd 81 54 24 be
       0.029425453 0.074326895 -0.091346726 -0.1604786
000050 28 08 a4 bd 63 b5 e7 bc de b9 49 bd 3f d9 01 3e
       -0.08009368 -0.028284734 -0.049249522 0.12680529
000060 df ef 30 3e c0 72 62 3e a1 42 1c 3e 29 f6 43 3e
       0.17279004 0.22114086 0.15259792 0.19136871
000070 12 5b 99 3e bf ad 7b 3d 10 6e 7e 3d 41 b3 bf 3d
       0.29952294 0.061444994 0.062116683 0.09360362
000080 61 f6 0e 3d b1 64 3c bd 9f 6d e4 bd e0 20 a2 bd
       0.034902934 -0.045994464 -0.11153721 -0.07916427
000090 bd a0 09 be 99 6b c5 3d 32 4f be 3c 66 64 0d bd
       -0.13440223 0.09639663 0.023231123 -0.034519576
0000a0 be b7 f3 3d 56 32 df 3d db ee d3 bd b6 8a e1 be
       0.119002804 0.10898273 -0.103482924 -0.4405114
0000b0 a3 37 ad be 42 bc 8f bc 0a aa c7 39 46 05 8e 3d
       -0.3383151 -0.017545823 0.00038082927 0.069345996
0000c0 2e 24 3c bd 7f b4 ce bd 04 d0 d3 bd f4 79 a2 3a
       -0.04593294 -0.10093021 -0.1034241 0.0012395964
0000d0 3b be 08 be c1 3c 22 3d a6 30 47 3e ca fb 70 3e
       -0.13353817 0.03960872 0.19452152 0.2353355
0000e0 2b 0e 1a 3e 2b a7 f7 3e 21 a4 0c 3f 4e eb 3a 3e
       0.15044467 0.48369727 0.5493794 0.18253824
0000f0 2b 48 a4 3d f7 ad 3c 3d 3a 6f 4e be 87 62 1a be
       0.080215774 0.046064343 -0.20159617 -0.15076648
000100 a9 f4 7f be a2 e4 00 be 82 b7 f7 3d e5 06 92 3e
       -0.24995674 -0.12587216 0.12095548 0.28520885
000110 8f e4 6e 3e e2 14 08 3e d8 7d 4e be b0 6a dd bd
       0.23329376 0.13289216 -0.20165193 -0.10811365
000120 c2 c3 08 be 03 96 80 bd 22 5f 44 bc df 81 51 3e
       -0.13355926 -0.062786125 -0.011985572 0.20459698
000130 31 82 5c 3e de cf 34 3e 4a 31 c8 3d 98 0a 25 3e
       0.21534039 0.1765742 0.09775026 0.16117322
000140 e3 32 c0 3e 8a 14 c4 3e 5f 6a 91 3e 14 85 c6 3c
       0.37538823 0.3829692 0.28401467 0.024233378
000150 b3 aa bc bd 21 7a 44 3e f3 7f 84 3e 7a 36 25 3d
       -0.09212246 0.19187213 0.25878868 0.040335156
000160 e2 63 29 3f f7 a2 12 3e f3 1c b8 bd 56 41 0e 3e
       0.66168034 0.14319979 -0.089898966 0.13892111
000170 08 23 40 3e 5d 24 76 3e 23 bd 97 3d 6b c0 ab bc
       0.18763363 0.24037309 0.07409122 -0.020965775
000180 dd 33 00 3e bc d3 15 3e d2 01 0b 3e 57 69 1b 3e
       0.12519784 0.14631552 0.13574913 0.15176903
000190 72 31 ee 3b 74 a4 00 be 81 67 c3 bb 6b 12 80 bd
       0.007269078 -0.12562734 -0.0059632664 -0.06253513
0001a0 ac ae 56 3d 03 57 7f bd 01 d9 e6 3c 51 2c 63 be
       0.052412674 -0.06233884 0.028179647 -0.22184874
0001b0 ad ed d0 be 51 2e 9b be 23 c3 fd bd 95 7d 95 3d
       -0.40806332 -0.30308774 -0.12390735 0.072993435
0001c0 b8 21 d1 bd 87 1a a5 3d 40 11 53 3e 63 4f 9d be
       -0.102115095 0.080617 0.20612049 -0.3072463
0001d0 e6 36 a8 be da 31 15 bd a3 3b 21 3d a8 43 a4 3e
       -0.32854384 -0.036424495 0.039363515 0.32082868
0001e0 01 e1 fd 3e a6 ca 01 3f 12 87 cd 3d e8 b7 f0 3c
       0.49585727 0.5069984 0.10035528 0.029384568
0001f0 08 30 c5 3d ed 97 fd bb a5 91 09 be 46 96 02 be
       0.09628302 -0.007739058 -0.13434465 -0.12752637
000200 59 15 55 be 42 fe a6 bd 51 f7 30 be c7 cb d0 3c
       -0.20808925 -0.081539646 -0.17281844 0.025487794
000210 e0 44 4e bc ff 01 fb bd 82 f6 13 be 24 49 29 3e
       -0.012589663 -0.1225624 -0.14449504 0.16531807
000220 e2 f8 40 3e a9 2a af 3e 9b 5a 79 3e c2 04 28 3d
       0.18844941 0.34212235 0.2435097 0.041020162
000230 89 30 e6 3d 2b 2e 3e 3d 27 1d 73 be 5f 77 83 3e
       0.11239726 0.046430748 -0.2374159 0.2567701
000240 93 df 64 ba 25 f6 c6 bd 4e c4 91 bc 95 ed 2a be
       -0.0008730825 -0.09714917 -0.0177938 -0.16692193
000250 47 39 01 3d 3d db ca 3d 93 4b 44 bd a6 48 22 be
       0.031548765 0.09905098 -0.047923636 -0.15848026
000260 dd 7b 83 3c 50 03 d2 3b 3b 62 8d 3d 63 29 22 be
       0.016050274 0.0064090863 0.069035016 -0.158361
000270 cd 92 53 be fd d3 ce be e7 a8 ea be 52 30 d0 be
       -0.20661469 -0.4039611 -0.45831987 -0.40661865
000280 f0 db 11 bf 2e 47 1c bf 0f be 28 bf ab b4 22 bf
       -0.56976223 -0.6104611 -0.65915006 -0.6355693
000290 36 ec df be bf c4 8f be d1 b3 80 bd 4e c3 09 be
       -0.43734902 -0.28079793 -0.06284297 -0.13453409
0002a0 84 61 93 3e 74 0e 48 be 04 41 b7 3e 5c 15 79 3e
       0.28785336 -0.19536763 0.3579179 0.24324554
0002b0 37 26 bc 3d 5f a4 e3 3d fe 85 15 3c 22 7f 74 be
       0.091869764 0.11115336 0.0091261845 -0.23876622
0002c0 8b 4e 8c be df 51 52 be 07 2e 17 be c8 b3 be be
       -0.27403674 -0.20539044 -0.14763652 -0.37246537
0002d0 cf a9 f5 be a7 1a ff be 0d 68 2f be ce dd b6 bc
       -0.47981116 -0.49825022 -0.17129536 -0.022322562
0002e0 09 74 35 3e d6 e3 7d 3e ce ad b3 3d f3 04 cc bd
       0.17720045 0.24793944 0.08773385 -0.099618815
0002f0 6b 79 98 bd c9 88 32 bd 0f 1a 71 3c 24 3f 08 bd
       -0.07445034 -0.04358748 0.0147156855 -0.03326334
000300 d5 28 cb bd c7 8c e6 bc 86 90 23 3e 2b f4 cb 3b
       -0.099198975 -0.0281433 0.159731 0.0062241754
000310 75 b1 76 be 21 6a 09 3e f9 3a aa 3e 1d c6 36 3d
       -0.24091132 0.13419391 0.33248118 0.04462253
000320 18 96 90 3d a3 7f 4b bc b5 ab 50 3d 65 86 ba 3c
       0.07059878 -0.012420568 0.050945003 0.022769162
000330 07 13 2b 3e e9 03 89 3e a4 03 0c 3e 31 8a 63 3e
       0.16706477 0.26760796 0.13673264 0.22220685
000340 26 22 f0 3c 53 38 87 bc 4a 47 99 3d 65 22 9e bd
       0.029313158 -0.01650635 0.074843004 -0.07721404
000350 af 3e 83 3c d3 af c0 bc f7 48 e6 bd 59 39 d8 3c
       0.0160211 -0.02352134 -0.11244386 0.026394533
000360 e9 a9 1b 3e 32 47 6c be 17 08 b4 3d 70 62 b9 bd
       0.15201534 -0.23074034 0.087906055 -0.090519786
000370 85 0b ba bd 81 f5 3b 3d 10 cf 55 3e 3a f0 da 3d
       -0.090842284 0.045888428 0.2087977 0.10690351
000380 b1 e1 41 3d e8 cd e4 3e ab 2d e3 3c b0 1f df be
       0.047334377 0.44688344 0.027731737 -0.43578863
000390 fa d6 c9 be 82 f9 ad bd 6f da 23 3b 6c d2 3c 3d
       -0.39421827 -0.084948555 0.0025002023 0.04609911
0003a0 75 fc 84 bd a9 12 93 3c 89 c3 90 bc f4 cc 1b 3e
       -0.06493465 0.017953234 -0.017671363 0.15214902
0003b0 ed 01 83 3e 12 f2 49 3e 9e 2e 7e bc 58 9b 83 bc
       0.25587407 0.19721249 -0.015514044 -0.016065285
0003c0 85 52 d3 bd 56 ca 9f bc 40 29 a9 bc 95 e2 bb bd
       -0.10318474 -0.019505661 -0.020649552 -0.091740765
0003d0 8a fa b0 bc c3 e4 85 bd 38 64 78 3d 57 33 2f 3e
       -0.021603841 -0.065377735 0.06064245 0.17109428
0003e0 02 28 4a 3d f2 4f 3e 3e 91 95 9c 3b 8f 4c 89 be
       0.04935456 0.18585184 0.004778572 -0.26816222
0003f0 f5 95 3a 3e 74 dc c4 3d 5e f2 ef 3c 18 27 8a be
       0.18221267 0.096123606 0.029290374 -0.2698295

lstm.weight_hh_l0 f4 [512, 128]
000000 41 0b 0b be 82 05 0b 3d 64 a5 ac bd fd 71 7a bd
       -0.13578512 0.0339408 -0.08429983 -0.061143864
000010 2c c6 8d bd 5f 1d 8b 3e 54 5f d5 bd 3c 18 97 bc
       -0.06922564 0.27170846 -0.10418573 -0.018444173
000020 96 e2 94 bd c2 66 b6 bd 8c 7a 51 bd be 72 ab bc
       -0.0726978 -0.08906318 -0.05114226 -0.020928737
000030 fb 4d 94 bd 97 4c 2a 3c 42 3e cc 3d 45 18 2c be
       -0.07241436 0.010394237 0.09972812 -0.16806133
000040 1e 3a b7 3b 7f c8 ee bc 53 25 46 bd e1 2b 1a be
       0.005591645 -0.029148338 -0.04837544 -0.15055801
000050 54 b9 f7 bc 54 5f 53 3d 0e 6f 46 3d aa 62 e1 3c
       -0.030239739 0.051604584 0.048445754 0.027512867
000060 18 4c 10 3e a5 8a 07 3e 93 a8 5e be a9 2d c6 bd
       0.14091527 0.13236482 -0.21743993 -0.09676678
000070 5a 0b 86 bd ea 28 34 be 8d 34 5a 3c 5b d1 b0 3d
       -0.06545134 -0.17593732 0.013318193 0.086336814
000080 6e 8f 4e be 1d 64 4d bd df 3b 2a 3e 6c c0 4a 3b
       -0.20171902 -0.050144304 0.16624402 0.0030937446
000090 64 ed 3e bd 04 2e 35 3e 85 e0 93 3c 36 6b 25 bd
       -0.046613112 0.17693335 0.018051395 -0.040385447
0000a0 67 5d b8 3c b0 db b9 bc c9 fc 89 bc 6c f0 17 3e
       0.022505475 -0.022687763 -0.01684417 0.14837807
0000b0 07 c9 69 be fe 09 a7 3c 2c fd f9 bd 5a 33 f6 bc
       -0.22830592 0.020390507 -0.12206492 -0.030053783
0000c0 35 d3 0f bd a9 27 4d 3e a0 48 12 bd 98 e2 1e be
       -0.035113532 0.2003466 -0.03571379 -0.15516126
0000d0 09 f9 b1 bd 76 9d a9 bd 84 53 f2 3d 97 c6 98 be
       -0.08690078 -0.082819864 0.118323356 -0.29839012
0000e0 d9 b6 86 3c ba 11 9b bd ee ba 2e 3d 60 97 35 bd
       0.01644461 -0.075717404 0.04265874 -0.044333816
0000f0 58 89 c0 bc 78 00 b5 3d da 51 54 3d d5 6d 05 3b
       -0.02350299 0.0883798 0.051835872 0.0020359654
000100 5d 86 da bb 86 67 80 be 61 a1 94 3e 02 1e 67 be
       -0.0066688494 -0.25078982 0.29029372 -0.22570041
000110 82 63 59 3d 2c ec 3f bd 17 24 f9 3c ed ab 98 bd
       0.053073414 -0.04685609 0.030412717 -0.07454667
000120 ea d9 e2 3d 7e b3 9a bd 50 ad 32 3c 02 87 48 bd
       0.1107672 -0.07553767 0.010905579 -0.04895688
000130 c7 77 1e 3e 81 f2 f4 bc fa cd 1f 3d 47 ff 98 3e
       0.15475379 -0.029900791 0.039014794 0.2988226
000140 cd b8 9d 3b fe 6b 2c bd e9 c0 87 be d4 c9 78 3d
       0.0048132897 -0.042095177 -0.26514366 0.060739353
000150 0c eb c0 3d 83 80 e2 bd c6 e7 72 be 1d a7 5f be
       0.09419832 -0.11059668 -0.23721227 -0.21841092
000160 e8 9c 15 3e 15 3f 06 be 7b 80 8e bd 95 71 c4 bd
       0.14610636 -0.13110001 -0.069580995 -0.095919766
000170 33 72 17 bd 18 83 3c bd 14 74 14 be 08 c3 a1 3d
       -0.036974143 -0.04602346 -0.14497405 0.078985274
000180 23 c3 93 bd 30 20 85 be 96 a9 50 3e 62 bb b4 bc
       -0.07214954 -0.2600112 0.20377192 -0.022062007
000190 2a 26 f7 bd 07 69 0c be b9 3a c6 bd a8 ce 0b bd
       -0.12067826 -0.1371194 -0.09679169 -0.03413263
0001a0 6a e2 a3 bc be 53 d5 39 8d 8b f8 bd 82 67 5d bc
       -0.020005424 0.0004068892 -0.12135992 -0.013513448
0001b0 01 0a 84 3d 58 a6 40 be 32 e2 24 3e 00 59 f7 3c
       0.064472206 -0.18813455 0.16101912 0.030193806
0001c0 6e 4a 44 bd ac b1 69 3c 6d f7 da bc 32 19 a4 bc
       -0.047922544 0.014263552 -0.02672931 -0.020031545
0001d0 49 8d fb 3d 93 b1 ef bd d5 c3 82 3d 05 a3 e2 bd
       0.122828074 -0.117037915 0.06385008 -0.1106625
0001e0 8a 35 16 3e c4 b2 2b be 80 36 0a 3e c9 c5 14 be
       0.14668861 -0.16767412 0.13497353 -0.14528574
0001f0 73 34 ae bd 56 a3 c9 bd f3 b2 da bc 2d ee 6f bd
       -0.08506098 -0.09845607 -0.026696658 -0.05857675
000200 5b ba 22 3e a5 5c 77 bd bf 8b d1 3d 15 89 86 3e
       0.15891401 -0.060391087 0.102317326 0.2627646
000210 04 87 e7 bd 66 fd d1 be ab b5 d5 bd 2a d2 db bc
       -0.11305049 -0.4101364 -0.10435041 -0.026833612
000220 92 97 19 be dc b4 49 3e a4 25 42 bc 26 81 04 be
       -0.14999226 0.19697899 -0.011849795 -0.12939891
000230 37 a2 53 3d e0 3f 4d 3e 2c fc 47 be 61 a5 64 bd
       0.051668372 0.20043898 -0.1952979 -0.05582178
000240 e0 65 01 be f0 3c 99 bd 36 66 2c 3d e5 7c dd bd
       -0.12636518 -0.07482326 0.042089663 -0.10814837
000250 c7 6b 3b be be 13 06 be 1b 2e 12 bd 0f f7 e1 3c
       -0.18302833 -0.13093469 -0.0356885 0.027583627
000260 31 33 8d be 5a cc f0 3d 34 63 59 3d 24 d1 8a bd
       -0.27578118 0.11757727 0.053073123 -0.06778172
000270 64 38 1a be 6d fc 70 3d 02 c4 cc 3c 0b 94 82 bd
       -0.15060574 0.058834482 0.024995808 -0.06375893
000280 9a 6d 0c 3d 78 47 25 3d 8a 86 da bc 48 81 ea bd
       0.03428421 0.04035136 -0.026675481 -0.1145044
000290 93 30 71 3e 9a 5c 93 3e cc 9c 78 be 66 b7 58 be
       0.23553686 0.28781587 -0.24278563 -0.21163711
0002a0 0b 2a e9 bd 8c 02 f0 3d 72 a9 3f bd 90 b5 8b 3d
       -0.11384972 0.11719236 -0.046792455 0.0682174
0002b0 f3 b4 b4 bc 5b 77 ab bc 2e c9 22 3e 63 9c 1b be
       -0.02205894 -0.020930937 0.15897056 -0.15196376
0002c0 fe 5c 08 be e4 38 ea bd 23 7e 33 3d c5 38 28 3e
       -0.13316724 -0.11436632 0.043821465 0.16427906
0002d0 ee e2 c6 3d 82 06 b4 3c 24 5a 16 be 90 1c c5 3e
       0.09711252 0.02197576 -0.14682823 0.38498354
0002e0 94 d5 dd 3d a0 a5 07 be 90 53 6f 3d 18 3c c1 bd
       0.108317524 -0.13246775 0.0584293 -0.0943529
0002f0 21 a4 22 3e ee 3c 63 be 17 9b 94 3e 52 29 57 be
       0.15882923 -0.22191212 0.29024574 -0.21011856
000300 fd ec ef bd ba 3f 67 3e c2 0d 13 be 03 ec 28 3e
       -0.11715124 0.22582904 -0.14360717 0.16496281
000310 26 02 06 be 2f 16 0e be ca b8 bf 3d 15 6f 90 be
       -0.13086757 -0.1387565 0.093614176 -0.2820975
000320 c8 a4 db bd 59 92 35 3e bd 59 a0 3d f8 6d 8b 3e
       -0.10724789 0.17731608 0.07829616 0.27232337
000330 d7 6f 9e 3d bb 6b 38 be 88 38 61 3d f7 db be 3d
       0.077361755 -0.18009846 0.054985553 0.09319299
000340 7a ff 2a be 21 85 db 3e dc d1 71 3e 33 48 5c 3b
       -0.16699019 0.42875007 0.23615211 0.003361237
000350 98 98 39 bd 29 90 f9 3c 71 32 b6 bc dc f1 a6 bd
       -0.04531154 0.030464249 -0.02224085 -0.081516
000360 77 2b 18 be 56 ac c7 bd 42 52 22 bd 46 6d cd 3c
       -0.1486033 -0.09749667 -0.03962923 0.02507652
000370 2e f6 24 3d d7 33 9e 3e 63 b1 6f bd 56 7a 61 be
       0.040273838 0.30898926 -0.05851878 -0.22019324
000380 6c c7 c1 bd 5a 5f 8d 3c d4 b5 80 be 5d 36 77 bc
       -0.09461865 0.017257381 -0.25138724 -0.015088645
000390 72 3d 30 be 80 c9 36 bd 89 0f 29 3e 19 66 0e bd
       -0.1721094 -0.04462576 0.16509832 -0.034765337
0003a0 74 d5 5a bd 08 7f 8a bd cf 46 c9 3d 7f 1a b7 3d
       -0.05342622 -0.067625105 0.09827959 0.089406006
0003b0 c7 dd bf bb 37 1a e4 3d 8f 02 e6 bc 1d 15 42 be
       -0.0058552953 0.111378126 -0.028077392 -0.18953367
0003c0 3d 75 86 3c a6 bd 85 3d 36 48 72 3d 0a 76 a8 bd
       0.016413325 0.06530313 0.059150897 -0.08225639
0003d0 27 a4 00 be 89 5d 8a bc 79 8f 8f 3d 9f 22 44 be
       -0.12562619 -0.016890304 0.07009787 -0.19153832
0003e0 0d 02 07 be 59 46 e3 3d f4 3d bd bd b5 0e 8c 3e
       -0.13184376 0.11097402 -0.09240332 0.2735497
0003f0 f1 27 26 bd f4 eb ae 3c c4 b9 95 be e7 17 c3 3c
       -0.040565435 0.021352746 -0.2924329 0.023815108

lstm.bias_ih_l0 f4 [512]
000000 de ab 7f bc 5b 1a 85 3d 78 4f 66 bd c7 d6 01 bd
       -0.015604941 0.064991675 -0.05622813 -0.03169897
000010 e3 a7 b1 bd e6 15 89 3d 03 0c 01 be 89 06 54 bb
       -0.086746 0.0669363 -0.12602238 -0.0032352528
000020 e8 05 c5 bd 08 ab f5 bc f0 a5 57 bd f3 6c 28 bd
       -0.09620267 -0.02998878 -0.052648485 -0.041119527
000030 79 c1 dd bd 23 ed 0c be 80 0b 1a be 45 bd aa bc
       -0.108279176 -0.13762335 -0.1504345 -0.020842204
000040 8c 39 d1 bd 72 09 74 3e 8d a9 f6 bd 59 31 33 be
       -0.10216054 0.23831728 -0.12044058 -0.17499293
000050 49 1f 09 be d0 50 69 3b 82 21 1a bd 3d 24 93 bd
       -0.1339084 0.0035601147 -0.03762961 -0.07184646
000060 47 5e 6a 3d 6c 19 9e bc 5a b6 a0 3d 78 c9 96 bd
       0.057218816 -0.019299231 0.07847281 -0.07362646
000070 c7 b1 81 bd a1 5c 9a bd c6 61 ca 3c ea 17 6b bd
       -0.063327365 -0.07537199 0.024704825 -0.057395853
000080 a5 4f 96 bd 1e 77 ea 3d c3 09 e4 3d b0 4f 18 3e
       -0.0733941 0.11448501 0.111346744 0.14874148
000090 e0 2b 24 bd e7 c0 95 bd 1d a2 3d 3d 34 19 00 3e
       -0.040080905 -0.07312184 0.04629718 0.12509614
0000a0 18 26 50 bd ea 5a 83 bd f6 70 b9 3d 13 e2 ac bd
       -0.05081758 -0.06413825 0.09054749 -0.08441558
0000b0 c5 09 26 be 57 b9 e2 3b de 90 99 3d 94 6a 17 bc
       -0.16214664 0.006919067 0.07498334 -0.009241719
0000c0 77 47 a3 3c 4b d9 fb bc 1d 3a a9 ba 70 fb c2 bd
       0.019931538 -0.030743262 -0.0012910996 -0.09520614
0000d0 c6 dc 37 3c 17 55 e2 bc fd ce 20 bd cc 6f 12 be
       0.01122207 -0.027628465 -0.0392599 -0.1430046
0000e0 48 68 91 bd a2 ad 3e bd 25 d4 23 be d9 74 c0 3d
       -0.07099968 -0.046552308 -0.15998895 0.09397287
0000f0 02 92 80 3d e6 ab 5e 3b de 0d ba 3d 81 d2 dc 3d
       0.06277849 0.0033976971 0.09084676 0.10782338
000100 72 af 00 be 5a 3b e8 bd 8f 6d a7 3d 9c fa 2b bd
       -0.12566927 -0.113394454 0.081751935 -0.041987047
000110 d2 de 16 bc 5b 33 1f be ac 4f 57 bd f0 07 b7 bc
       -0.009208398 -0.15546934 -0.052566215 -0.022342652
000120 b4 cf ed 3d aa d5 14 be 88 33 a5 bd ab 95 a3 bd
       0.11611882 -0.14534631 -0.080664694 -0.07987531
000130 23 cd 6e 3c 93 5d ba 3d b8 76 ab bd 6e 81 51 bd
       0.014575276 0.09099879 -0.08372253 -0.051148824
000140 41 18 c7 bb de d9 f0 3d 10 7c 53 3e 36 1c 12 be
       -0.0060758893 0.11760305 0.20652795 -0.14268574
000150 e9 9f a2 3c 30 46 16 bd f6 85 fe 3d 72 e0 b3 3c
       0.019851642 -0.03668803 0.12427895 0.02195761
000160 0c 5f 76 bc ca d6 90 bc d0 df 4a 3c e5 54 e9 bd
       -0.015037309 -0.017680544 0.012382463 -0.113931455
000170 5c d0 f4 3d f4 d7 a4 3d a4 ca 37 be 97 cb 8b 3d
       0.11953804 0.08049002 -0.17948395 0.06825941
000180 8c 50 12 bd 14 96 92 bd 8b d2 6a bd 6f 79 4d bd
       -0.035721347 -0.071575314 -0.057329696 -0.050164636
000190 39 81 76 bc f8 04 01 3e c9 7c db bc a7 3d ad 3c
       -0.0150454575 0.12599552 -0.0267929 0.021147562
0001a0 ce 26 28 be cc af be 3c a8 99 09 bc d7 85 a2 3c
       -0.16421053 0.023277186 -0.008398451 0.01983921
0001b0 9d f1 8e 3a d2 c7 1d bd 25 ee a8 bc 18 4f 7a bd
       0.0010905747 -0.03852064 -0.020621369 -0.061110586
0001c0 a8 f4 2b 3e 39 fa 4d bd ec ef e7 3d 8e f1 4d bc
       0.16792548 -0.05028746 0.11325058 -0.012569798
0001d0 00 98 50 3e 9c e5 e8 bc c8 9d 21 bd 91 45 25 be
       0.20370483 -0.028429799 -0.039457113 -0.16139819
0001e0 55 44 33 bd 7b 94 aa bd 5e 56 8e 3c d6 0d 12 3e
       -0.04376634 -0.08329102 0.017375167 0.1426309
0001f0 67 a7 7d bd 6c c1 e8 3d 67 60 1f 3e f4 b0 86 3d
       -0.061927225 0.11365017 0.15564118 0.0657672
000200 07 8e a1 3d d8 c4 e6 3d 35 d9 45 3e f2 9f b5 3b
       0.07888418 0.11268014 0.19321139 0.0055427486
000210 79 c1 0a 3e 4c 65 4f 3e d8 d8 2a 3e 88 0a 8f 3d
       0.13550366 0.20253485 0.16684282 0.069844306
000220 2d 4a eb 3d 49 11 b3 3c 85 82 42 3d 11 aa 09 3e
       0.11488757 0.021858828 0.047487754 0.13443781
000230 7a 4b 3e 3e 7d 36 51 3d 68 cd 1f 3e a2 aa 8f 3e
       0.1858348 0.051077355 0.156057 0.2805987
000240 1c c9 47 3e 8a 86 a4 3d c9 7d 1a 3e 09 a2 84 3e
       0.19510311 0.08033474 0.15087046 0.25904873
000250 41 09 17 3d 5e 0b 4e 3e 71 a4 16 3e a9 c9 98 bc
       0.03687406 0.20121524 0.14711167 -0.018650847
000260 e3 ed 34 3e 47 b3 4f bb 5e 74 c6 3d 28 b5 34 3e
       0.17668872 -0.003169255 0.09690164 0.1764723
000270 4f d1 7e 3e 9d 6e 4f 3e 03 f6 ac 3d 96 cb 9d 3e
       0.24884532 0.2025704 0.084453605 0.30819386
000280 68 8b 06 3e c8 af 1d 3e df d3 47 3e 52 eb 0d 3e
       0.13139117 0.15399086 0.19514416 0.13859299
000290 4c a9 91 bd 4b fa 9b bc fd 0a db 3d 7e 3c 72 3d
       -0.07112369 -0.019040247 0.10695455 0.05913972
0002a0 7f 72 db 3d 44 e1 d9 3d da c6 af 3d 3d 2c af 3d
       0.10715198 0.10638669 0.0858285 0.0855336
0002b0 01 70 a1 3d 04 46 56 3e 7e 5d d6 3d 11 c9 6a 3e
       0.07882691 0.20925146 0.10467051 0.22928263
0002c0 c8 2a aa 3e ec 26 4f 3c b3 c1 da 3d 87 8d c8 3d
       0.33235765 0.012643557 0.106814764 0.09792619
0002d0 ed ec bb 3d 52 b6 af 3c a1 de 1c 3d cf 22 b0 3c
       0.091760494 0.021449242 0.038298253 0.021500973
0002e0 34 0e ed 3c 34 cd 72 b8 e7 13 4b 3e 2d 62 00 be
       0.028937437 -5.7888406e-05 0.19831811 -0.12537451
0002f0 0f da 58 3e ed aa 04 3e ea 56 21 3e f1 e4 a0 3d
       0.21176933 0.12955828 0.15755811 0.07856167
000300 1c 50 39 bc ee e1 28 3e b3 22 f8 3d ad 8c 02 3e
       -0.0113106035 0.16492435 0.12115993 0.12748976
000310 f9 27 84 bd aa 29 1a 3e 40 39 15 3e 95 02 e7 3d
       -0.06452937 0.15054956 0.1457262 0.11279789
000320 3f 25 de 3d be c7 4e 3e 72 61 39 3d d5 fa fb 3d
       0.10846948 0.20193383 0.045258947 0.12303702
000330 dc cd 1f 3d 9f 89 24 3e 34 0b 3d bc e3 d5 88 3d
       0.039014682 0.16068123 -0.011538316 0.06681421
000340 79 42 10 3e fc c1 03 3d 3e a8 41 3d 9a 33 11 3e
       0.14087857 0.03216742 0.04727959 0.1417984
000350 df ec af 3d 87 97 9c 3d ab 45 12 bc 27 52 4d 3d
       0.085901015 0.07646089 -0.008927743 0.050127175
000360 c4 c4 43 3e 03 6f 40 3e 23 0c 31 3d b3 30 f9 3d
       0.19118029 0.18792348 0.043224465 0.12167492
000370 75 c4 cd 3d bf a5 1c 3d 2c cd 98 3e 70 22 48 3e
       0.10047237 0.038244005 0.29844034 0.19544387
000380 d8 5b 94 3d c8 a1 20 3c 7e 0f 6b 3e 44 2f 09 3e
       0.0724408 0.009804197 0.22955129 0.13396937
000390 e0 9b 2e 3e b4 a1 5f 3d 27 96 dc 3d 3c 57 7a 3d
       0.17051649 0.05459757 0.10770827 0.06111835
0003a0 a3 fb e1 3d 48 81 6c 3e bf 08 03 3e bd 59 b7 bd
       0.11034324 0.23096192 0.12796305 -0.08952663
0003b0 38 eb 42 3b 39 27 f8 3d 60 04 d0 3d b1 5c 13 3e
       0.0029742252 0.12116856 0.101570845 0.14390828
0003c0 f2 d0 1b 3e f7 8c 9d bd cf 8d 00 3e db 7a bd 3d
       0.15216425 -0.076929025 0.12554096 0.092519484
0003d0 ae c0 43 3e fa 3b 1d bb be f9 fd 3d fa 18 1e 3e
       0.1911647 -0.0023992048 0.1240115 0.15439215
0003e0 81 b2 05 3e 42 ed bf 3d b5 ea 41 3d 9d e2 42 3d
       0.13056375 0.09371425 0.047342975 0.047579397
0003f0 e7 de 3e 3e a9 4c 2b 3d 51 b3 f1 3d b4 a5 51 3e
       0.18639718 0.041821156 0.1180178 0.20473367

lstm.bias_hh_l0 f4 [512]
000000 8c 55 57 3d dd f0 30 3d 41 6c 3c 3d 6d 52 fc bc
       0.05257182 0.043198455 0.046001676 -0.030801022
000010 e1 6e a3 bd b0 b9 83 3c f5 be 10 bd 42 f8 2c 3d
       -0.07980133 0.016079754 -0.03533836 0.042228945
000020 e6 bc f5 bd b7 3f 04 be d2 af 7d bd bf ff e9 ba
       -0.1199892 -0.1291493 -0.061935253 -0.0017852708
000030 94 a3 11 be 85 d2 98 bb 73 36 f6 bd 31 d5 22 bc
       -0.14222556 -0.0046637678 -0.12022104 -0.009938524
000040 0f 46 11 be ea 2f 2e 3e 25 04 1c be d9 d5 42 bd
       -0.14186881 0.17010465 -0.15235956 -0.047567222
000050 39 cb 3c bd 40 25 35 3b d8 58 97 bd 3d 0b 23 be
       -0.046092246 0.002764061 -0.073899925 -0.15922256
000060 99 93 9b 3d bc 7a e1 3c ac 7a fe 3c b0 6b 6a bd
       0.075965114 0.027524345 0.031064354 -0.057231605
000070 da b5 20 3c d9 a0 e7 bd 0b 3a f1 3c ab 0a 96 3b
       0.009808982 -0.11309976 0.029446622 0.0045789084
000080 2f a8 a7 bd c0 dd ab bb af 91 6c 3e bf fe 88 3e
       -0.08186375 -0.0052449405 0.23102449 0.26756856
000090 5e 96 d6 3c 8f be 0f be 90 64 9b bd 95 35 8c 3b
       0.026194748 -0.14037536 -0.0758754 0.0042788484
0000a0 e5 70 91 3d ad 7f c3 bc 14 a7 be 3d 0f c2 39 bd
       0.07101611 -0.023864591 0.093092114 -0.045351084
0000b0 00 7c ea bd cf df 19 be 9e 0d 1c 3d 19 a8 f2 3d
       -0.114494324 -0.15026782 0.038098924 0.11848468
0000c0 76 ad b0 3b 9b 55 25 bc 77 d4 ca bc ce ac b9 bd
       0.005391772 -0.010091211 -0.024759514 -0.09066163
0000d0 8a 34 73 3c 9d 21 97 bc d3 3f 4e bd 0b a1 eb bc
       0.014844069 -0.018448645 -0.050353836 -0.028763315
0000e0 f4 5f ae bd 0c ba 02 3d 0c c0 95 bd 39 24 c3 3d
       -0.08514395 0.03191571 -0.07312021 0.09528393
0000f0 b6 a9 f6 3d 81 64 f5 bc c3 c2 17 3d 9c 21 3a 3e
       0.120440885 -0.02995515 0.037050974 0.18176883
000100 bf 20 44 be ce c5 e6 bd aa a7 89 3d a4 4a 42 bc
       -0.19153117 -0.11268197 0.067214325 -0.011858616
000110 1d 28 a1 bd 60 87 ca bd 25 73 ee 3c 70 ca e5 bd
       -0.07868979 -0.09889102 0.02910764 -0.112202525
000120 29 3e 2f 3d 25 69 8d bc 40 d0 0c bd 51 6a d8 bd
       0.04278389 -0.01726205 -0.03437829 -0.10567153
000130 f5 7e 8f bd 27 bf de 3d f3 1f f4 3b 96 12 a2 bd
       -0.07006637 0.10876303 0.0074500977 -0.07913701
000140 a0 f2 26 3e 06 5f f6 3d ce 42 58 3e e8 02 ff bb
       0.16303492 0.12029843 0.21119234 -0.007782329
000150 5d 56 21 3d c9 17 8e 3b ec e8 0c 3e 8e b4 e4 3d
       0.039389003 0.0043363315 0.13760728 0.111672506
000160 90 be bd bd bf 84 7f bc b9 4d c2 3c 30 19 75 bd
       -0.092648625 -0.015595614 0.023718702 -0.059838474
000170 f3 06 33 3e ab df c1 bb 1b f0 e1 bd f1 e6 6c 3d
       0.1748312 -0.005916556 -0.110321246 0.05783743
000180 11 2c 8e 3d bc 9e a1 bd 10 33 9e bd 8a 8d 12 be
       0.06941999 -0.07891604 -0.07724583 -0.14311805
000190 4f 7e f9 bd 9d 4a ab 3c 76 16 96 bd 26 19 90 bd
       -0.121822946 0.020909602 -0.07328503 -0.07036047
0001a0 de d5 55 be 59 6a d2 bc f5 fb af 3d 8a d1 44 3d
       -0.20882365 -0.025685476 0.08592979 0.048051395
0001b0 9a ef 71 ba f2 05 44 3d 54 c7 7c bd 10 4e ad 3d
       -0.0009229124 0.047857232 -0.06171353 0.08462155
0001c0 d0 af 2b 3e 78 8f 73 bc 8c 71 25 3e e6 66 f0 3b
       0.16766286 -0.014865749 0.16156596 0.007336485
0001d0 0c b4 ba 3d 9c 7a 9e 3d 54 d1 a1 bd 4a 38 70 bd
       0.091163725 0.0773823 -0.07901254 -0.05864743
0001e0 93 37 31 3d fe c8 94 bd 1e 42 bc 3d 75 05 9b 3c
       0.04326589 -0.07264899 0.09192298 0.0189235
0001f0 3e 3e f1 bc 18 19 b0 3d b2 04 27 ba a3 39 ee 3c
       -0.029448625 0.08598536 -0.0006371244 0.029080218
000200 d3 e6 05 bd 49 76 26 3e 7a bd fc 3d 6f d0 73 3d
       -0.032690834 0.1625606 0.12340827 0.05952495
000210 83 67 42 3e 50 a1 e7 3d 3a 42 4d 3e 53 d3 69 3e
       0.18984799 0.11310065 0.20044795 0.2283452
000220 a4 cb 54 3e c8 82 9f bd aa db a2 3d 2f 40 ca 3d
       0.20780808 -0.077886164 0.07952054 0.09875523
000230 f9 b0 0a 3e 54 51 a8 3d c3 83 d5 3d ec cf 4e 3e
       0.13544072 0.08218637 0.10425522 0.20196503
000240 c5 2e 6e 3d 6a 6f 21 3d 50 7c c3 3d 93 27 5b 3e
       0.05815007 0.039412893 0.09545195 0.21401815
000250 88 d9 37 3e 5c fd 49 3e 0f 5e 58 3e 1e 6c 41 bd
       0.17954075 0.19725555 0.2112963 -0.04722225
000260 cd a4 3f 3e 5e 59 f5 bb a1 39 eb 3d 79 d2 10 3e
       0.1871521 -0.00748746 0.11485601 0.14142789
000270 c7 51 51 3e d5 8c 05 3e 22 58 4e 3d 8e 27 8f 3e
       0.20441352 0.13042004 0.05037702 0.27959865
000280 e0 b4 f6 3d 54 43 57 3e 99 d1 1a 3e b3 ea 26 3e
       0.12046218 0.21021777 0.15119018 0.16300468
000290 15 74 53 3d 13 05 53 3d 95 fc 43 3d 11 91 6b 3c
       0.051624376 0.05151851 0.047848303 0.014377848
0002a0 99 21 05 3e 95 cf 3b 3e 00 1b 9a 3d 8d 1d 5b 3e
       0.13001098 0.18340905 0.07524681 0.21397991
0002b0 a9 9d 7b 3d 58 2b b7 3d 55 ae 48 3e f3 77 5e 3e
       0.061429653 0.08943814 0.19597752 0.21725444
0002c0 1c af 8e 3e 9d e3 b1 3d 31 93 5b 3d 9f 94 84 3d
       0.27867973 0.08685992 0.05360717 0.0647366
0002d0 f4 22 35 3e 72 3f f2 3d b7 b3 ff 3d dc f4 96 3d
       0.17689115 0.118285075 0.1248545 0.07370922
0002e0 da 7c 41 3b 62 7b 09 bd cf 02 39 3e 57 3c 01 be
       0.002952388 -0.033564933 0.18067478 -0.12620674
0002f0 e7 2b 1c 3e 6d 1f 99 3b b4 d7 c7 3d 44 77 38 3e
       0.15251122 0.0046729357 0.09757939 0.18014246
000300 48 f6 65 bb ca 51 f1 3d bb 50 59 bc 21 27 a7 bc
       -0.0035089422 0.11783178 -0.013263877 -0.0204044
000310 2d 5a 02 bc 81 ee e9 3d 24 cd 2e 3e ec 2c 05 3e
       -0.00795607 0.11422444 0.17070442 0.13005418
000320 51 ef 9a 3d 6e 50 6d 3e fd e3 fd bc c4 19 c3 3d
       0.07565177 0.23175213 -0.030992502 0.09526399
000330 63 96 af bb c4 32 91 3d 8d 40 d4 3d d1 c4 a0 3d
       -0.0053585037 0.07089761 0.103638746 0.0785004
000340 40 11 30 3e 1e ef 85 3d 5c 1f 95 3b d7 9f 63 3e
       0.1719408 0.065397486 0.0045508575 0.22228943
000350 c4 b4 08 3d 91 05 9b 3c 1a d6 e0 3a 87 a0 32 3d
       0.033375517 0.018923553 0.0017153651 0.043610122
000360 3a 8c 7d 3e 5d 3d d9 3d 06 39 07 3e e0 68 6d 3e
       0.24760523 0.10607407 0.13205346 0.23184538
000370 9f 91 30 3e ca db 92 3d 1e ec 2c 3e 2e a3 3d 3e
       0.1724305 0.07170828 0.16886947 0.1851928
000380 bc b9 14 3e fc 0e a4 3d 1e 5e 89 3d ca dc ef 3d
       0.14523977 0.080106705 0.067074046 0.11712034
000390 5e 99 3c 3e 30 96 62 3d 64 17 85 3d e0 1c 1c 3d
       0.1841788 0.05531901 0.06498602 0.038113475
0003a0 dc 84 96 bb 9f 1a 10 3e 74 77 ef 3d 55 4b 94 bd
       -0.004593475 0.14072655 0.11692706 -0.07240931
0003b0 9d 8e 81 bd d0 7b 0d 3e aa a4 b7 3d d7 a4 a4 3c
       -0.063260294 0.13816762 0.08966954 0.020098133
0003c0 e8 ce f3 3d 0c 7b 21 3b 1c 6b 17 3e 53 c0 d6 3d
       0.119046986 0.0024639992 0.14786953 0.10485902
0003d0 24 c6 79 3e e4 6a 22 3d fb df 1e 3e 7b 58 de 3d
       0.24391991 0.03965272 0.1551513 0.1085672
0003e0 26 01 71 3e 89 d8 8f 3c 7f 09 50 bd 21 d7 80 3d
       0.23535594 0.017559307 -0.050790306 0.062910326
0003f0 41 7f 5c 3e e0 ee 89 bd 45 7b 51 3e e6 60 89 3e
       0.21532919 -0.06735015 0.2045718 0.2683174

classifier.weight f4 [10, 128]
000000 7f 6d 8b be 99 9c b1 3d ed 55 d6 bc 52 1b 82 bc
       -0.27231976 0.08672447 -0.02616402 -0.015882168
000010 c5 67 94 3e b5 52 a3 3d c2 45 b4 3d 41 0b e9 bc
       0.2898542 0.079747595 0.08802368 -0.02844775
000020 67 82 e3 bd 8d ee 96 bc c3 c2 e2 3e ef 01 8f bd
       -0.11108857 -0.018424297 0.44289216 -0.06982791
000030 e9 27 0b 3b fc 92 f9 bd f3 be 09 3f 73 26 fb bd
       0.0021233505 -0.12186238 0.5380699 -0.12263193
000040 5c 13 00 be 97 e6 e3 3e c9 6b 91 bd 69 86 72 3e
       -0.12507385 0.44511864 -0.071006365 0.23684086
000050 6e 72 57 3e 83 db 86 3e 0f 97 b6 be ea b4 b8 3d
       0.21039745 0.2633935 -0.35662124 0.090188816
000060 13 1f ee 3e c3 e0 1d be 0f 8f b2 be 3d b2 d5 bc
       0.46508083 -0.15417771 -0.3487477 -0.026085967
000070 48 df 2c 3e a1 f5 09 bf a3 a1 16 be 2c 41 bb 3d
       0.1688205 -0.53890425 -0.14710097 0.0914329
000080 e5 d5 89 be f4 93 03 be 6d 6e 85 3d bf 2a 7a 3d
       -0.26921 -0.12849408 0.06515203 0.061075922
000090 21 97 b5 be 28 c3 82 be 64 c7 91 be 80 01 b4 3e
       -0.35466865 -0.25539517 -0.28472435 0.35157394
0000a0 12 40 d0 bd 72 0b 44 3e 6e 7b 89 3d b3 b3 51 be
       -0.101684704 0.19144991 0.067129955 -0.20478706
0000b0 c7 a0 01 3f fe 0d 89 3c a6 82 cf 3d 2b f2 b9 3e
       0.5063595 0.016730305 0.10132341 0.36317572
0000c0 65 f7 8f 3d ad b4 97 3e 14 4e 02 be 90 15 92 bd
       0.07029609 0.29630032 -0.12725097 -0.07133019
0000d0 89 47 d8 3a 11 aa af be 63 a7 21 3e e5 21 5b be
       0.0016500811 -0.34309438 0.15786509 -0.21399648
0000e0 79 33 4d 3d f4 d2 15 be a5 9d db 3d 1d 8e d0 be
       0.050097916 -0.14631253 0.10723428 -0.40733424
0000f0 6d a1 72 be 23 7a 9f 3d bd e0 2e bd 08 0b 0c 3f
       -0.23694392 0.077869676 -0.042694796 0.5470433
000100 af 9c 19 3d 80 b0 9d bd 42 f8 ea 3e c6 c6 d5 be
       0.03750294 -0.0769968 0.4589253 -0.41753215
000110 97 47 b3 3e 79 de 1b 3f a1 67 3b be 36 f2 4b 3e
       0.35015556 0.6088634 -0.1830125 0.19916615
000120 6e 81 b4 3e 04 8e f5 3b 80 b2 da be 38 91 8e bd
       0.35254997 0.007493736 -0.4271431 -0.06961292
000130 63 60 9e 3c cb ae 16 3e 12 d6 d8 3e f9 68 b4 be
       0.01933307 0.14715116 0.42350823 -0.35236338
000140 72 6d 2a be 6d 20 8f bb 95 55 c1 be b2 48 8a 3e
       -0.16643313 -0.004367879 -0.37760606 0.27008587
000150 32 2d 08 be 4a 13 4f be 25 9d 5a be ab 76 96 be
       -0.1329849 -0.20222202 -0.21349008 -0.2938741
000160 97 89 3f 3e eb 8d de bd 13 e1 c6 3b ac 69 c0 be
       0.1870483 -0.108669125 0.0060693114 -0.3758062
000170 19 4f 05 be 5b 47 ca 3d b8 6f bd 3e 7a e3 8a 3d
       -0.13018455 0.09876891 0.36999297 0.06781669
000180 5e 4a 22 3e 7f 3d e7 be 7e 8e bc 3e a8 f8 48 be
       0.15848681 -0.45164105 0.36827463 -0.19626105
000190 fe 88 b0 bd 6a 94 d4 be 4f 8f 27 3e b7 09 6b be
       -0.08619879 -0.4151948 0.16363262 -0.22952925
0001a0 c4 3b 82 3d cf cd 81 3e 14 cb 47 3e 4e 22 ad 3e
       0.06359056 0.25352332 0.19511062 0.33815235
0001b0 24 c9 0b 3e 40 af a2 be 98 fc 42 bd 7f c0 31 3f
       0.13650948 -0.3177433 -0.047604173 0.6943435
0001c0 f5 0a 25 be da d8 e5 3e 1a aa 72 3d 11 02 e8 3d
       -0.16117461 0.44892007 0.059244253 0.11328519
0001d0 7d 5f 3e 3e c2 7b 67 3e f0 6d b7 3e 42 24 b7 3e
       0.18591113 0.22605804 0.35826063 0.3576985
0001e0 eb f8 c5 3e 5d 42 ad be ec a0 2c 3c 16 db c6 bd
       0.38666472 -0.33839694 0.010536414 -0.09709756
0001f0 5d 71 c2 be 23 81 1d 3c 6b eb 01 3e e3 43 85 be
       -0.37977114 0.009613308 0.12687461 -0.26028356
000200 21 76 34 3e c7 42 00 3c ac 90 15 3e 93 d2 d1 3e
       0.17623188 0.007828421 0.14605969 0.40980968
000210 2f aa a3 be 04 a3 17 3d f8 94 32 bd 88 a0 a2 3e
       -0.31965777 0.0370207 -0.0435991 0.317631
000220 98 57 36 be 26 ab d0 3d 10 09 4c be 00 05 16 3e
       -0.17806852 0.10188894 -0.19925332 0.14650345
000230 3a 2d 2d 3e fb 29 83 be 46 fe ec bb 66 29 85 3e
       0.16911784 -0.25617966 -0.00723246 0.26008147
000240 9d 84 63 be 0c 8e 7b bd 98 f2 20 3f 7e 4d 31 3f
       -0.22218557 -0.061414763 0.6287017 0.6925887
000250 43 a8 44 3e 28 21 54 3e 4e f9 0c 3f 22 a4 81 bd
       0.19204812 0.20715773 0.5506791 -0.06330134
000260 d2 57 c2 3d 00 1a 4c 3e 2e 8a 6b 3d 18 0b 53 be
       0.09489407 0.19931793 0.057504825 -0.206097
000270 a4 6a e3 bc f7 4a 18 3e 5a 8f ec bc 86 b0 0b bf
       -0.027760811 0.14872347 -0.02887695 -0.5456623
000280 59 85 02 be db fb 02 3e 11 4e 42 3d 39 34 34 be
       -0.1274618 0.12791388 0.04743773 -0.17598046
000290 9b 87 1e 3e 43 0c 3a 3e 6c 47 bb bd 1d 65 22 3e
       0.15481417 0.1816874 -0.09144482 0.15858884
0002a0 8a 6e 53 be cd dc c2 be 4a 02 4c 3e 07 16 91 3d
       -0.20647636 -0.38059083 0.19922748 0.070842795
0002b0 47 e5 72 3d 03 e6 ea be 4d 61 5c 3d f7 60 00 3e
       0.059300687 -0.4587861 0.05380373 0.12536989
0002c0 27 32 b3 3e 9b 24 30 be 3c 89 0d be 5b 04 f5 3d
       0.349992 -0.17201464 -0.13821882 0.11963721
0002d0 51 63 af be d3 a3 a5 3e b1 6d 49 be 4a 10 1c 3e
       -0.3425546 0.3235155 -0.1967075 0.15240589
0002e0 09 92 b5 3e 87 a5 64 be 34 12 43 3e 36 c7 ba bd
       0.35462978 -0.22328769 0.19049913 -0.09120028
0002f0 7b 2c f7 3d 97 f6 a1 bd f4 1b ca 3e c4 24 43 be
       0.12069031 -0.079083614 0.39474452 -0.19056994
000300 74 cd 10 bf 8e bc 27 3f 5b c5 5d be 41 fb 91 be
       -0.56563497 0.65522087 -0.21657316 -0.28512004
000310 b5 d5 ea bc 14 f7 86 3e 4f ec 90 3e 8d 59 4d be
       -0.028666357 0.2636038 0.2830529 -0.20053692
000320 e4 db 7c be b8 2a 26 be cf 3f c4 bc 02 f0 fe 3e
       -0.24693257 -0.16227233 -0.023956208 0.49792486
000330 0e c6 83 3e 5d 50 e7 3b 5e 09 61 bd 3d 73 63 be
       0.2573704 0.0070591406 -0.054940574 -0.22211929
000340 42 75 7c be 29 b4 a9 3e 63 62 80 be e1 31 b8 3d
       -0.24654105 0.33145264 -0.25075063 0.08993889
000350 c5 08 ae be 15 70 a0 3e b2 7a 53 3e bc 7a 25 be
       -0.33991066 0.31335512 0.20652273 -0.161601
000360 0e de 6e bd bf 39 83 3e 45 ab 04 be 9b aa 55 3e
       -0.058317237 0.25629994 -0.12955959 0.20865862
000370 56 70 98 3c dc e0 76 be 38 6a 0c be 53 ab 82 3e
       0.018608253 -0.24109215 -0.13712394 0.25521335
000380 28 c4 8a be db 64 53 3e 13 ff ac 3e ac 85 57 be
       -0.2710278 0.20643942 0.33788356 -0.21047086
000390 db 66 86 be 00 30 35 3d 8d 57 f0 3e 4f 9e 9c be
       -0.26250347 0.04423523 0.46941796 -0.3058953
0003a0 ea a7 bc be 5e 8d 03 bf ad 5c 74 3e e3 0b fc 3d
       -0.36846858 -0.51387584 0.23863478 0.12306955
0003b0 8d 01 12 bc 8a 1b f1 be 69 02 6b 3e f6 50 44 be
       -0.008911503 -0.47091323 0.22950138 -0.19171509
0003c0 21 e8 8a 3d ef 50 78 be f2 e8 db 3e 55 c0 e7 3e
       0.06782556 -0.24249624 0.4295116 0.45263925
0003d0 c9 e6 81 be 6c d8 21 3e 20 43 a4 bd 30 b7 92 be
       -0.25371388 0.15805215 -0.080206156 -0.28655386
0003e0 b6 4d 37 be b1 89 96 3d bd 79 14 3e fd 79 2b be
       -0.17900738 0.07350481 0.14499564 -0.16745754
0003f0 90 c3 e4 3e 8b 92 01 bd a3 c0 82 3e 6a 34 7e 3e
       0.44680452 -0.031633895 0.25537595 0.24824682

classifier.bias f4 [10]
000000 f7 d5 45 3c ae fb 03 3e 36 28 ba bd 1e 9a 40 3d
       0.012074939 0.12888977 -0.09089701 0.047021978
000010 7f 1c 1d bd 87 53 87 bd a5 36 7f bd ff 86 29 3e
       -0.038357254 -0.066077285 -0.062307972 0.16555403
000020 db 5b 17 bd dc cb cd 3c
       -0.036952835 0.025121622
