lstm_pytorch/weight2.pth (torch, 331006 bytes, 6 tensors)

lstm.weight_ih_l0 f4 [512, 28]
0	0x41300000	11.0
1	0x41800000	16.0
2	0x41980000	19.0
3	0x40c00000	6.0
4	0xc1980000	-19.0
5	0xc1400000	-12.0
6	0xc1a80000	-21.0
7	0xc1500000	-13.0
8	0x40000000	2.0
9	0xc2140000	-37.0
10	0xc1a80000	-21.0
11	0x41500000	13.0
12	0x42000000	32.0
13	0x42000000	32.0
14	0x41a00000	20.0
15	0x40800000	4.0
16	0x3f800000	1.0
17	0x41500000	13.0
18	0x41000000	8.0
19	0x41000000	8.0
20	0xbf800000	-1.0
21	0xbf800000	-1.0
22	0x40a00000	5.0
23	0x3f800000	1.0
24	0x41300000	11.0
25	0xc1300000	-11.0
26	0x00000000	0.0
27	0xc1980000	-19.0
28	0xc21c0000	-39.0
29	0x41800000	16.0
30	0x41300000	11.0
31	0x41600000	14.0
32	0x41800000	16.0
33	0x40a00000	5.0
34	0xc0000000	-2.0
35	0xc1b00000	-22.0
36	0xc1600000	-14.0
37	0xc1100000	-9.0
38	0xc0a00000	-5.0
39	0x41b80000	23.0
40	0x40c00000	6.0
41	0x3f800000	1.0
42	0xc1600000	-14.0
43	0xc2100000	-36.0
44	0xc0a00000	-5.0
45	0x41600000	14.0
46	0x423c0000	47.0
47	0x422c0000	43.0
48	0x41f80000	31.0
49	0x40c00000	6.0
50	0xc1b00000	-22.0
51	0xc24c0000	-51.0
52	0xc2580000	-54.0
53	0xc24c0000	-51.0
54	0xc2140000	-37.0
55	0x41900000	18.0
56	0xc1800000	-16.0
57	0x3f800000	1.0
58	0x41980000	19.0
59	0x41300000	11.0
60	0x42680000	58.0
61	0x42500000	52.0
62	0x42000000	32.0
63	0x40a00000	5.0
64	0x41500000	13.0
65	0xc1300000	-11.0
66	0xc0000000	-2.0
67	0x41c80000	25.0
68	0x41500000	13.0
69	0xc1900000	-18.0
70	0xc1f80000	-31.0
71	0x40400000	3.0
72	0x41100000	9.0
73	0x41b80000	23.0
74	0x41800000	16.0
75	0x41f80000	31.0
76	0x41b00000	22.0
77	0x41800000	16.0
78	0x41000000	8.0
79	0xc0c00000	-6.0
80	0x41700000	15.0
81	0x40a00000	5.0
82	0x41a00000	20.0
83	0x41c00000	24.0
84	0xc1a00000	-20.0
85	0xc0800000	-4.0
86	0xc1100000	-9.0
87	0x40a00000	5.0
88	0x41f80000	31.0
89	0x41800000	16.0
90	0x41980000	19.0
91	0x421c0000	39.0
92	0x41200000	10.0
93	0xc1800000	-16.0
94	0xc2100000	-36.0
95	0xc2340000	-45.0
96	0xc1a00000	-20.0
97	0xc1800000	-16.0
98	0x41900000	18.0
99	0x42340000	45.0
100	0x40a00000	5.0
101	0xc1800000	-16.0
102	0xc1980000	-19.0
103	0xc1980000	-19.0
104	0xc1a00000	-20.0
105	0xc1d00000	-26.0
106	0xc1f00000	-30.0
107	0xc1900000	-18.0
108	0xc20c0000	-35.0
109	0xc0a00000	-5.0
110	0xc0000000	-2.0
111	0xc1000000	-8.0
112	0xbf800000	-1.0
113	0x41b00000	22.0
114	0xc1d00000	-26.0
115	0xc1100000	-9.0
116	0x42000000	32.0
117	0x421c0000	39.0
118	0x41500000	13.0
119	0x41600000	14.0
120	0x40e00000	7.0
121	0x40e00000	7.0
122	0x42000000	32.0
123	0xc1100000	-9.0
124	0x40c00000	6.0
125	0x41200000	10.0
126	0x40c00000	6.0
127	0x00000000	0.0
128	0xc1a80000	-21.0
129	0xc2040000	-33.0
130	0xc2840000	-66.0
131	0xc2900000	-72.0
132	0xc2a80000	-84.0
133	0xc2820000	-65.0
134	0xc2480000	-50.0
135	0xc2680000	-58.0
136	0xc2b00000	-88.0
137	0xc29c0000	-78.0
138	0xc2080000	-34.0
139	0x41880000	17.0
140	0x41f00000	30.0
141	0xc0400000	-3.0
142	0xc1400000	-12.0
143	0xc0e00000	-7.0
144	0x40a00000	5.0
145	0xc0a00000	-5.0
146	0xc1800000	-16.0
147	0xc1e00000	-28.0
148	0xc1900000	-18.0
149	0x40400000	3.0
150	0x41200000	10.0
151	0x42140000	37.0
152	0x42600000	56.0
153	0x425c0000	55.0
154	0x41700000	15.0
155	0x41f00000	30.0
156	0x41800000	16.0
157	0x41200000	10.0
158	0xc1a00000	-20.0
159	0xc1f00000	-30.0
160	0xc2340000	-45.0
161	0xc1880000	-17.0
162	0xc0e00000	-7.0
163	0x41400000	12.0
164	0xc1100000	-9.0
165	0xc1c80000	-25.0
166	0xc1600000	-14.0
167	0xc1300000	-11.0
168	0x41d80000	27.0
169	0x40a00000	5.0
170	0x42140000	37.0
171	0x42080000	34.0
172	0x42820000	65.0
173	0x41e80000	29.0
174	0x40a00000	5.0
175	0x41980000	19.0
176	0x41200000	10.0
177	0x00000000	0.0
178	0xc2000000	-32.0
179	0xc1d80000	-27.0
180	0xc1b80000	-23.0
181	0x41000000	8.0
182	0x40800000	4.0
183	0x40800000	4.0
184	0xc0e00000	-7.0
185	0xc0800000	-4.0
186	0x41600000	14.0
187	0x00000000	0.0
188	0x41300000	11.0
189	0x40e00000	7.0
190	0xc0800000	-4.0
191	0x41e80000	29.0
192	0x41100000	9.0
193	0xc2080000	-34.0
194	0xc1800000	-16.0
195	0x41000000	8.0
196	0x41300000	11.0
197	0x42280000	42.0
198	0x40a00000	5.0
199	0xc26c0000	-59.0
200	0xc2740000	-61.0
201	0xc2580000	-54.0
202	0xc2080000	-34.0
203	0x40800000	4.0
204	0x41100000	9.0
205	0x41600000	14.0
206	0x41800000	16.0
207	0x41a80000	21.0
208	0x00000000	0.0
209	0xc1d80000	-27.0
210	0xc2100000	-36.0
211	0xc2140000	-37.0
212	0xc2140000	-37.0
213	0xc1c00000	-24.0
214	0xc2380000	-46.0
215	0xc29e0000	-79.0
216	0xc2080000	-34.0
217	0xc2040000	-33.0
218	0x3f800000	1.0
219	0xc0800000	-4.0
220	0x41400000	12.0
221	0x40800000	4.0
222	0x40e00000	7.0
223	0x41c80000	25.0
224	0xc1100000	-9.0
225	0x41880000	17.0
226	0xc1300000	-11.0
227	0x41400000	12.0
228	0x42040000	33.0
229	0x42280000	42.0
230	0x426c0000	59.0
231	0x42580000	54.0
232	0x422c0000	43.0
233	0x41f00000	30.0
234	0x41500000	13.0
235	0x3f800000	1.0
236	0xc0c00000	-6.0
237	0xc0400000	-3.0
238	0x41e80000	29.0
239	0x41c00000	24.0
240	0x41800000	16.0
241	0x41880000	17.0
242	0x40a00000	5.0
243	0x41100000	9.0
244	0x41a80000	21.0
245	0x41e80000	29.0
246	0x42040000	33.0
247	0x42380000	46.0
248	0x41800000	16.0
249	0xc0800000	-4.0
250	0xc1700000	-15.0
251	0x41500000	13.0
252	0xc1900000	-18.0
253	0xc1c00000	-24.0
254	0xc2080000	-34.0
255	0xc1880000	-17.0

lstm.weight_hh_l0 f4 [512, 128]
0	0xc0e00000	-7.0
1	0xc1500000	-13.0
2	0x40c00000	6.0
3	0xc1f00000	-30.0
4	0x41980000	19.0
5	0xc0c00000	-6.0
6	0xc0a00000	-5.0
7	0x41500000	13.0
8	0xc1e00000	-28.0
9	0xc1500000	-13.0
10	0x42140000	37.0
11	0xc1d00000	-26.0
12	0x41f00000	30.0
13	0xc1400000	-12.0
14	0x41f80000	31.0
15	0xbf800000	-1.0
16	0x42180000	38.0
17	0xc1200000	-10.0
18	0x40a00000	5.0
19	0xc1500000	-13.0
20	0xc0c00000	-6.0
21	0xc1300000	-11.0
22	0xc2040000	-33.0
23	0x41b00000	22.0
24	0x41700000	15.0
25	0x42740000	61.0
26	0xc1d00000	-26.0
27	0xc1400000	-12.0
28	0x41a00000	20.0
29	0xc1900000	-18.0
30	0xc1100000	-9.0
31	0xbf800000	-1.0
32	0x41f00000	30.0
33	0x41b80000	23.0
34	0xc2240000	-41.0
35	0x41200000	10.0
36	0xc1f00000	-30.0
37	0x3f800000	1.0
38	0xc2140000	-37.0
39	0x42240000	41.0
40	0xbf800000	-1.0
41	0xc1000000	-8.0
42	0x41700000	15.0
43	0xc2080000	-34.0
44	0xc2100000	-36.0
45	0xc1500000	-13.0
46	0xc1100000	-9.0
47	0x40800000	4.0
48	0xc0000000	-2.0
49	0xc1900000	-18.0
50	0xc1900000	-18.0
51	0xc1d00000	-26.0
52	0x41700000	15.0
53	0xbf800000	-1.0
54	0xc1400000	-12.0
55	0x41100000	9.0
56	0xc1600000	-14.0
57	0x40800000	4.0
58	0x41700000	15.0
59	0xc0800000	-4.0
60	0xc0000000	-2.0
61	0x41900000	18.0
62	0xc1400000	-12.0
63	0xc1500000	-13.0
64	0xc1b80000	-23.0
65	0x42180000	38.0
66	0xc1800000	-16.0
67	0xc0a00000	-5.0
68	0x42080000	34.0
69	0xc0400000	-3.0
70	0x40800000	4.0
71	0x41900000	18.0
72	0x00000000	0.0
73	0x00000000	0.0
74	0x41d80000	27.0
75	0x40c00000	6.0
76	0xc1f80000	-31.0
77	0x420c0000	35.0
78	0x41900000	18.0
79	0xc1800000	-16.0
80	0xc1800000	-16.0
81	0xc1800000	-16.0
82	0x42580000	54.0
83	0xc2640000	-57.0
84	0x41000000	8.0
85	0xc2240000	-41.0
86	0xc1300000	-11.0
87	0xc1f80000	-31.0
88	0xc1900000	-18.0
89	0xc1300000	-11.0
90	0xc0a00000	-5.0
91	0xc1600000	-14.0
92	0x40c00000	6.0
93	0x42000000	32.0
94	0x41200000	10.0
95	0xc0000000	-2.0
96	0xc0000000	-2.0
97	0xbf800000	-1.0
98	0xc1a00000	-20.0
99	0xc1200000	-10.0
100	0xc0e00000	-7.0
101	0x41e00000	28.0
102	0xc1b80000	-23.0
103	0xc1800000	-16.0
104	0xc1d00000	-26.0
105	0x40800000	4.0
106	0xc0a00000	-5.0
107	0x41000000	8.0
108	0x40a00000	5.0
109	0xc1f80000	-31.0
110	0x40a00000	5.0
111	0xc1a80000	-21.0
112	0x00000000	0.0
113	0x41e80000	29.0
114	0xc0800000	-4.0
115	0xc1d00000	-26.0
116	0x41600000	14.0
117	0x41000000	8.0
118	0xc1800000	-16.0
119	0x41700000	15.0
120	0x40a00000	5.0
121	0xc2040000	-33.0
122	0xc2200000	-40.0
123	0x41400000	12.0
124	0xc1a00000	-20.0
125	0x41500000	13.0
126	0x40800000	4.0
127	0x41d80000	27.0
128	0x41700000	15.0
129	0xc1100000	-9.0
130	0xc0a00000	-5.0
131	0xc0800000	-4.0
132	0x41a80000	21.0
133	0x41c00000	24.0
134	0x40c00000	6.0
135	0x41800000	16.0
136	0x00000000	0.0
137	0xc1100000	-9.0
138	0x42100000	36.0
139	0x41000000	8.0
140	0xc1980000	-19.0
141	0xc1a00000	-20.0
142	0x00000000	0.0
143	0xc2040000	-33.0
144	0xc1880000	-17.0
145	0xc1980000	-19.0
146	0x41f80000	31.0
147	0x41b80000	23.0
148	0x41b00000	22.0
149	0x41a80000	21.0
150	0xc1880000	-17.0
151	0xc0400000	-3.0
152	0x41d80000	27.0
153	0x40800000	4.0
154	0x41980000	19.0
155	0x41400000	12.0
156	0xc0800000	-4.0
157	0xc0400000	-3.0
158	0x41980000	19.0
159	0x40c00000	6.0
160	0xc0a00000	-5.0
161	0xc1600000	-14.0
162	0xc0a00000	-5.0
163	0x40e00000	7.0
164	0x40c00000	6.0
165	0xc0a00000	-5.0
166	0xc0800000	-4.0
167	0xc1400000	-12.0
168	0xc1b80000	-23.0
169	0x41980000	19.0
170	0xc1100000	-9.0
171	0x40000000	2.0
172	0xbf800000	-1.0
173	0xc1d80000	-27.0
174	0x3f800000	1.0
175	0x41a00000	20.0
176	0xc1500000	-13.0
177	0xc0800000	-4.0
178	0x40e00000	7.0
179	0x41b00000	22.0
180	0x41600000	14.0
181	0x00000000	0.0
182	0x40400000	3.0
183	0x40000000	2.0
184	0xc1200000	-10.0
185	0xc21c0000	-39.0
186	0x41800000	16.0
187	0xc1500000	-13.0
188	0xc1700000	-15.0
189	0x41100000	9.0
190	0x41b80000	23.0
191	0xc1900000	-18.0
192	0xc1100000	-9.0
193	0x00000000	0.0
194	0xc1d80000	-27.0
195	0x41000000	8.0
196	0x40000000	2.0
197	0x42000000	32.0
198	0x41300000	11.0
199	0xc1300000	-11.0
200	0x41e80000	29.0
201	0x41100000	9.0
202	0x41000000	8.0
203	0xc1100000	-9.0
204	0x41300000	11.0
205	0xc1100000	-9.0
206	0x41900000	18.0
207	0x41100000	9.0
208	0xc1000000	-8.0
209	0x40e00000	7.0
210	0x40400000	3.0
211	0x420c0000	35.0
212	0x41500000	13.0
213	0x00000000	0.0
214	0xc0800000	-4.0
215	0xc1b80000	-23.0
216	0x41700000	15.0
217	0xc1880000	-17.0
218	0xc0c00000	-6.0
219	0xc1700000	-15.0
220	0xc0400000	-3.0
221	0xc1880000	-17.0
222	0x3f800000	1.0
223	0xc1a00000	-20.0
224	0x41800000	16.0
225	0xc1c80000	-25.0
226	0x42080000	34.0
227	0xc0000000	-2.0
228	0x40e00000	7.0
229	0x41700000	15.0
230	0x00000000	0.0
231	0xc1900000	-18.0
232	0xc1400000	-12.0
233	0x40c00000	6.0
234	0x40a00000	5.0
235	0xc1a00000	-20.0
236	0x41b00000	22.0
237	0xc1f00000	-30.0
238	0xc1d00000	-26.0
239	0xc1e80000	-29.0
240	0x41b00000	22.0
241	0xc0c00000	-6.0
242	0xc1000000	-8.0
243	0x40000000	2.0
244	0xc1d00000	-26.0
245	0xc0e00000	-7.0
246	0x40e00000	7.0
247	0x41c00000	24.0
248	0xc1980000	-19.0
249	0xc1400000	-12.0
250	0xc1400000	-12.0
251	0xc1800000	-16.0
252	0x00000000	0.0
253	0xc1700000	-15.0
254	0x40000000	2.0
255	0x41c80000	25.0

lstm.bias_ih_l0 f4 [512]
0	0x3d45958d	0.048238326
1	0x3c461c2e	0.0120916795
2	0xbdb9b020	-0.09066796
3	0xbdfd5887	-0.12370401
4	0x3e4678fe	0.19382092
5	0xbde11457	-0.10990208
6	0xbd1aec0c	-0.037822768
7	0x3d1226d9	0.03568158
8	0x3cbf1347	0.023324622
9	0xbe36f5fa	-0.1786727
10	0xbe937b57	-0.28805038
11	0xbc79a092	-0.015236037
12	0x3e379322	0.1792722
13	0x3daa1641	0.08305026
14	0xbe770aed	-0.24125262
15	0xbe1bd4e9	-0.15217938
16	0x3d0370a2	0.032089837
17	0xbd9a9a52	-0.075489655
18	0xbcd5c240	-0.026093602
19	0xbd34165b	-0.043966632
20	0x3dab1f0a	0.083555296
21	0xbe74231a	-0.23841515
22	0xbd4243e1	-0.047428016
23	0x3d60afbe	0.0548551
24	0x3c8a18e7	0.016857577
25	0xbcbcd1ab	-0.023049196
26	0x3cbc7076	0.023002844
27	0x3d44f85d	0.04808842
28	0xbb3ecb71	-0.002911296
29	0xbe0e16b2	-0.13875845
30	0x3913cc2c	0.00014095072
31	0xbd75dfbd	-0.060027827
32	0xbd764da5	-0.06013264
33	0x3de23e8f	0.11047088
34	0xbd885ef8	-0.06658739
35	0x3bde8afb	0.00679147
36	0xbd595286	-0.053057216
37	0x3dad979f	0.08476185
38	0xbdec4506	-0.11536603
39	0xbcd31ed1	-0.02577153
40	0x3bbfe37d	0.005855976
41	0xbe282eff	-0.16424178
42	0xbe0e36db	-0.13888113
43	0xbb5c5f39	-0.0033626093
44	0xbe1366cb	-0.14394681
45	0xbe11a207	-0.14221965
46	0x3df6da53	0.12053361
47	0xbe47745b	-0.1947798
48	0x3c089642	0.0083366055
49	0x3d083675	0.03325506
50	0x3cf541fc	0.02993869
51	0xbca38408	-0.019960418
52	0xba0844a7	-0.0005198218
53	0xbdcf1680	-0.101117134
54	0x3dff74fd	0.124734856
55	0x3bfe72f8	0.00776517
56	0x3cce6e03	0.025198942
57	0xbdcea613	-0.1009027
58	0x3d4de6a5	0.050268788
59	0x3dcdcc9c	0.10048792
60	0xbe06b174	-0.1315363
61	0xbad94328	-0.00165758
62	0xbda45b41	-0.08025218
63	0xbe03931f	-0.12849091
64	0xbd0bbc2d	-0.034115005
65	0xbdb8c357	-0.09021633
66	0xbc006f84	-0.007839087
67	0xbe005153	-0.12531023
68	0xbdd334ed	-0.10312829
69	0x3e124eef	0.14287923
70	0xbda067fb	-0.07832333
71	0xbd72dbac	-0.059291527
72	0xbe818b4b	-0.25301585
73	0x3e585222	0.21125081
74	0xbdcaf7f0	-0.099105716
75	0xbd3fe492	-0.04684884
76	0xbda23a89	-0.07921321
77	0xbdffbada	-0.12486811
78	0xbd5981ce	-0.053102307
79	0xbc23bca7	-0.009993709
80	0xbc973c30	-0.018461317
81	0x3d81085e	0.06300424
82	0x3d1f2b84	0.03885986
83	0x3bb279b8	0.005446639
84	0xbd8abc79	-0.067742296
85	0x3e36f61d	0.17867322
86	0xbd0bcc2d	-0.034130264
87	0xbdff3aca	-0.12462385
88	0xbd08abcd	-0.033366967
89	0xbd50fbec	-0.0510215
90	0xbdcc76a4	-0.099835664
91	0xbd2d37b2	-0.042289443
92	0xbdb56500	-0.08857155
93	0x3d0edacf	0.03487664
94	0xbe053920	-0.13010073
95	0x3d9e728c	0.07736692
96	0x3da6126e	0.08108984
97	0xbe4a554a	-0.19759098
98	0xbd3b31fe	-0.045701973
99	0xbdfe63af	-0.12421357
100	0xbd0846a9	-0.03327051
101	0xbd3842eb	-0.044985693
102	0xbd3faf41	-0.046797995
103	0xbde2d6b6	-0.11076109
104	0x3e0be4da	0.13661519
105	0x3d4dcb05	0.050242443
106	0xbd5e9f7e	-0.054351322
107	0xbd1845e6	-0.037176035
108	0xbd46bf5b	-0.048522335
109	0xbdcd094e	-0.1001154
110	0x3e12a700	0.14321518
111	0x3b9d611e	0.004802837
112	0x3c97f5a2	0.018549744
113	0xbe836fd9	-0.2567127
114	0xbd89305c	-0.06698677
115	0x3ca8b1dc	0.020592622
116	0xbc86d928	-0.01646097
117	0xbdb136eb	-0.08653053
118	0xbd613573	-0.054982614
119	0xbdec6de7	-0.115444
120	0x3d090581	0.033452515
121	0xbde39dc5	-0.111140765
122	0xbe15fc58	-0.14647043
123	0x3daca1bd	0.08429287
124	0x3e02c329	0.1276976
125	0x3beaeefb	0.007169602
126	0xbd4dd187	-0.05024865
127	0xbd48c556	-0.04901632
128	0x3c8e6b60	0.017385185
129	0x3e29b20c	0.16571826
130	0xbb6ba4a5	-0.003595629
131	0x3e6f3bbf	0.23362635
132	0x3d7d5f96	0.061858736
133	0x3ddc5cba	0.10759874
134	0x3e1da668	0.1539551
135	0x3dd47378	0.103735864
136	0x3e14a358	0.14515436
137	0x3e2b6bc2	0.16740325
138	0x3d672a8a	0.056437053
139	0x3e4b9a8d	0.19883175
140	0x3dc16538	0.09443134
141	0x3e913788	0.2836268
142	0xbd22734e	-0.039660744
143	0x3de47199	0.111544795
144	0x3e14ff3c	0.14550489
145	0x3e34a3b2	0.1764057
146	0x3e8f05a2	0.27933985
147	0x3e2ccb84	0.1687451
148	0x3cb7b287	0.022423996
149	0xbd14595d	-0.036218036
150	0x3de8d680	0.11369038
151	0x3d99507d	0.07486055
152	0x3e171d29	0.14757217
153	0x3ea61b35	0.32442632
154	0x3d4e7628	0.05040565
155	0x3e9e366d	0.309009
156	0x3dbfada4	0.09359291
157	0x3bfe382e	0.007758162
158	0x3dfe8904	0.124284774
159	0x3cbf5ba8	0.023359135
160	0x3e2d0f23	0.16900305
161	0x3d656dc7	0.056012895
162	0xbba8ef45	-0.0051554763
163	0x3e28e0a0	0.16491938
164	0x3d486807	0.048927333
165	0x3e041bed	0.12901278
166	0x3e4756ae	0.1946666
167	0x3d1a942d	0.037738968
168	0x3bca8719	0.0061806557
169	0xbcab8938	-0.020939454
170	0x3cc2ceab	0.023780188
171	0x3dc83602	0.09775926
172	0x3df0a6b0	0.11750543
173	0xbccc46e0	-0.02493614
174	0x3e0d465f	0.13796376
175	0xbdab079d	-0.083510615
176	0x3e120df4	0.14263135
177	0x3dd228f9	0.10261721
178	0x3e5072c5	0.20356281
179	0x3e4b2b89	0.19840826
180	0x3e2aca09	0.16678633
181	0x3ea78087	0.32715246
182	0x3d964ddb	0.073390685
183	0x3ddfad8c	0.10921773
184	0xbb08061f	-0.0020755602
185	0x3da2f1a8	0.079562485
186	0x3e2259a5	0.15854509
187	0x3e2a325f	0.16620778
188	0x3ea9dafd	0.33174887
189	0x3de7d9c9	0.11320836
190	0xbd1768b4	-0.036965087
191	0x3e468cb4	0.19389611
192	0x3dad8ed6	0.084745094
193	0x3df363ff	0.11884307
194	0x3bcbe764	0.0062226523
195	0x3c7b8f23	0.015353951
196	0x3c6af2ae	0.014340086
197	0x3d94c5f5	0.0726432
198	0x3cbe73c7	0.023248566
199	0x3d79821e	0.060915105
200	0x3cee3cdf	0.02908176
201	0x3d315b70	0.043300092
202	0x3d9b590a	0.07585342
203	0x3e3f6946	0.18692502
204	0x3c3f52b9	0.011677437
205	0x3d8e08df	0.06935286
206	0x3d8a1ddd	0.06743977
207	0x3db11aae	0.08647667
208	0x3dbe9faf	0.09307801
209	0x3d97e89c	0.074174136
210	0x3dde3701	0.10850335
211	0x3e2ecdd6	0.17070708
212	0x3e1098b1	0.14120747
213	0x3e2febaf	0.1717975
214	0x3e0e7296	0.13910899
215	0x3ddcbb00	0.10777855
216	0x3d57c76f	0.05268043
217	0x3e12ab06	0.14323053
218	0x3e5db2c2	0.21650222
219	0x3e1b8246	0.15186414
220	0x3d796fcf	0.060897645
221	0x3d8ab488	0.06772715
222	0x3cdb88bb	0.026798597
223	0x3df64a10	0.12025845
224	0x3e0aeb90	0.13566422
225	0x3c68c01e	0.014205961
226	0x3e216473	0.15760975
227	0x3dcf69bb	0.10127588
228	0x3e2104cd	0.15724488
229	0x3c2f54d7	0.01070138
230	0x3e37cd9b	0.17949526
231	0xbc4dbc60	-0.012557119
232	0x3b7741f4	0.003772852
233	0x3dd35298	0.10318488
234	0x3cbdd1e5	0.023171375
235	0x3dab1edd	0.08355496
236	0x3bdcc97d	0.0067378865
237	0xbd505d92	-0.050870486
238	0x3e53e831	0.20694043
239	0x3c50b798	0.012739085
240	0xbcb4b0b9	-0.022056924
241	0x3e5d04de	0.21583888
242	0x3e1f356f	0.15547727
243	0x3e02256b	0.12709586
244	0x3e5d2396	0.21595606
245	0xbd0d856d	-0.034551073
246	0x3e105185	0.14093597
247	0x3e83ab8e	0.25716823
248	0x3dcc496d	0.09974942
249	0x3e38b635	0.18038256
250	0x3e099a66	0.13437805
251	0x3d9f4583	0.0777693
252	0x3e0f5d28	0.1400038
253	0x3d9f985c	0.07792732
254	0x3d7f1ee9	0.062285338
255	0x3e4b9da1	0.1988435

lstm.bias_hh_l0 f4 [512]
0	0x40400000	3.0
1	0x3f800000	1.0
2	0xc1300000	-11.0
3	0xbf800000	-1.0
4	0x41d80000	27.0
5	0x40400000	3.0
6	0xc0400000	-3.0
7	0xc1000000	-8.0
8	0xc1200000	-10.0
9	0xc1400000	-12.0
10	0xc1d00000	-26.0
11	0x3f800000	1.0
12	0x41a80000	21.0
13	0x41800000	16.0
14	0xc1400000	-12.0
15	0xc1900000	-18.0
16	0x41300000	11.0
17	0xc0800000	-4.0
18	0x40800000	4.0
19	0xc0000000	-2.0
20	0x41400000	12.0
21	0xc1b80000	-23.0
22	0xc1300000	-11.0
23	0xc0800000	-4.0
24	0x00000000	0.0
25	0xc1800000	-16.0
26	0x41400000	12.0
27	0x41880000	17.0
28	0xc1100000	-9.0
29	0xc1b80000	-23.0
30	0x40400000	3.0
31	0xc1000000	-8.0
32	0xc1000000	-8.0
33	0x00000000	0.0
34	0xc0a00000	-5.0
35	0x00000000	0.0
36	0x40800000	4.0
37	0x41880000	17.0
38	0xc1880000	-17.0
39	0x41100000	9.0
40	0x00000000	0.0
41	0xc0c00000	-6.0
42	0xc1300000	-11.0
43	0xc0400000	-3.0
44	0xc0000000	-2.0
45	0xc0400000	-3.0
46	0x3f800000	1.0
47	0xc0c00000	-6.0
48	0x41600000	14.0
49	0xc0a00000	-5.0
50	0x41c00000	24.0
51	0xc0800000	-4.0
52	0xc0000000	-2.0
53	0x40400000	3.0
54	0x41200000	10.0
55	0x41200000	10.0
56	0xc1300000	-11.0
57	0xc1880000	-17.0
58	0xc0a00000	-5.0
59	0x40e00000	7.0
60	0xc0800000	-4.0
61	0x41000000	8.0
62	0x00000000	0.0
63	0xc1300000	-11.0
64	0x41000000	8.0
65	0xc0000000	-2.0
66	0xc1200000	-10.0
67	0xc0c00000	-6.0
68	0xc1a00000	-20.0
69	0x00000000	0.0
70	0xc1200000	-10.0
71	0xc0a00000	-5.0
72	0xc1f80000	-31.0
73	0x41500000	13.0
74	0xc0000000	-2.0
75	0xc0000000	-2.0
76	0x41100000	9.0
77	0xc0000000	-2.0
78	0xc1500000	-13.0
79	0xc1800000	-16.0
80	0xc1000000	-8.0
81	0xc1000000	-8.0
82	0x40e00000	7.0
83	0xc0800000	-4.0
84	0xc1600000	-14.0
85	0x40c00000	6.0
86	0xc1400000	-12.0
87	0xbf800000	-1.0
88	0xc1b00000	-22.0
89	0xbf800000	-1.0
90	0xc1880000	-17.0
91	0xc1200000	-10.0
92	0xc1800000	-16.0
93	0xc0400000	-3.0
94	0xc1700000	-15.0
95	0xc0a00000	-5.0
96	0x41100000	9.0
97	0xc1b00000	-22.0
98	0x40e00000	7.0
99	0xc1300000	-11.0
100	0xbf800000	-1.0
101	0xc1700000	-15.0
102	0x00000000	0.0
103	0xc0a00000	-5.0
104	0x40000000	2.0
105	0xc1300000	-11.0
106	0xc1200000	-10.0
107	0xc0000000	-2.0
108	0xc0400000	-3.0
109	0xc1700000	-15.0
110	0x40a00000	5.0
111	0x41200000	10.0
112	0x40400000	3.0
113	0xc1e80000	-29.0
114	0xc1200000	-10.0
115	0x41700000	15.0
116	0x40000000	2.0
117	0xc0000000	-2.0
118	0xc1000000	-8.0
119	0xc0800000	-4.0
120	0x41800000	16.0
121	0xbf800000	-1.0
122	0x40000000	2.0
123	0x40800000	4.0
124	0x41400000	12.0
125	0xc1200000	-10.0
126	0xc0e00000	-7.0
127	0x40800000	4.0
128	0xc0a00000	-5.0
129	0x41e00000	28.0
130	0x41000000	8.0
131	0x41800000	16.0
132	0x40c00000	6.0
133	0x41980000	19.0
134	0x41500000	13.0
135	0x40400000	3.0
136	0x41000000	8.0
137	0x41b00000	22.0
138	0xc0000000	-2.0
139	0x41c80000	25.0
140	0x41200000	10.0
141	0x42380000	46.0
142	0x00000000	0.0
143	0x41000000	8.0
144	0x41980000	19.0
145	0x41e00000	28.0
146	0x41a80000	21.0
147	0x40a00000	5.0
148	0x00000000	0.0
149	0xc0000000	-2.0
150	0x41980000	19.0
151	0x40e00000	7.0
152	0x41500000	13.0
153	0x41d80000	27.0
154	0x41200000	10.0
155	0x41a80000	21.0
156	0x41f00000	30.0
157	0x40400000	3.0
158	0x41d00000	26.0
159	0x41a00000	20.0
160	0x41b80000	23.0
161	0x41a00000	20.0
162	0x41700000	15.0
163	0x41800000	16.0
164	0x41500000	13.0
165	0x41300000	11.0
166	0x41d80000	27.0
167	0x40000000	2.0
168	0x41a80000	21.0
169	0x40e00000	7.0
170	0xc0800000	-4.0
171	0x41c00000	24.0
172	0x41d00000	26.0
173	0x00000000	0.0
174	0x41a80000	21.0
175	0xc1100000	-9.0
176	0x40c00000	6.0
177	0x41600000	14.0
178	0x41300000	11.0
179	0x41980000	19.0
180	0x42040000	33.0
181	0x41e80000	29.0
182	0x40000000	2.0
183	0x40e00000	7.0
184	0x40a00000	5.0
185	0x41a00000	20.0
186	0x41800000	16.0
187	0x41d00000	26.0
188	0x41d00000	26.0
189	0x41700000	15.0
190	0x40400000	3.0
191	0x40400000	3.0
192	0x41300000	11.0
193	0x41900000	18.0
194	0x41400000	12.0
195	0x41500000	13.0
196	0x41300000	11.0
197	0x41100000	9.0
198	0x40c00000	6.0
199	0x41300000	11.0
200	0x40e00000	7.0
201	0x41300000	11.0
202	0x40000000	2.0
203	0x41100000	9.0
204	0x41880000	17.0
205	0x40800000	4.0
206	0x41100000	9.0
207	0x41200000	10.0
208	0x41d00000	26.0
209	0x41400000	12.0
210	0x41c00000	24.0
211	0x40a00000	5.0
212	0x41500000	13.0
213	0x41a00000	20.0
214	0x41a80000	21.0
215	0x41e80000	29.0
216	0x41500000	13.0
217	0x41600000	14.0
218	0x41c80000	25.0
219	0x40c00000	6.0
220	0x40a00000	5.0
221	0x00000000	0.0
222	0xbf800000	-1.0
223	0x40c00000	6.0
224	0x41900000	18.0
225	0x41200000	10.0
226	0x40800000	4.0
227	0x40000000	2.0
228	0x41800000	16.0
229	0x41400000	12.0
230	0x41f80000	31.0
231	0x3f800000	1.0
232	0x40400000	3.0
233	0x00000000	0.0
234	0xc0400000	-3.0
235	0x41700000	15.0
236	0x41500000	13.0
237	0x00000000	0.0
238	0x41d00000	26.0
239	0x41000000	8.0
240	0xbf800000	-1.0
241	0x41f80000	31.0
242	0x42000000	32.0
243	0x41d00000	26.0
244	0x41300000	11.0
245	0x3f800000	1.0
246	0x41200000	10.0
247	0x41f80000	31.0
248	0x40800000	4.0
249	0x41800000	16.0
250	0x41d00000	26.0
251	0x41c80000	25.0
252	0x41c80000	25.0
253	0x40a00000	5.0
254	0x41d00000	26.0
255	0x41e00000	28.0

classifier.weight f4 [10, 128]
0	0xbf0badc4	-0.5456202
1	0x3e353574	0.17696172
2	0x3d83ddea	0.06438811
3	0xbe8b8d03	-0.2725602
4	0xbe09d5f1	-0.13460518
5	0x3e9c24c4	0.304968
6	0xbe426cec	-0.18986863
7	0xbd28fe37	-0.041258063
8	0xbf2322ca	-0.6372496
9	0xbe549498	-0.20759809
10	0x3d4323d4	0.04764159
11	0xbe9ea60d	-0.30986062
12	0x3e854abf	0.2603359
13	0x3ade07f3	0.0016939625
14	0x3eac61b3	0.3366829
15	0x3e87ae99	0.26500395
16	0x3e1b7ebe	0.15185067
17	0x3e14a404	0.14515692
18	0xbe837747	-0.2567694
19	0x3e2402d1	0.160167
20	0x3ed5b609	0.41740444
21	0xbec4ce82	-0.38438803
22	0xbe632c76	-0.22184929
23	0x3e5334fc	0.2062568
24	0xbf119be3	-0.5687849
25	0x3e34ed80	0.17668724
26	0xba7cd500	-0.00096447766
27	0x3ccb9371	0.024850579
28	0x3dc937b2	0.09825076
29	0xbcee0354	-0.029054321
30	0xbdba0fad	-0.09085021
31	0xbee75c86	-0.45187777
32	0x3de273af	0.11057221
33	0xbef9d10f	-0.48792312
34	0x3d093512	0.033497877
35	0x3da390ca	0.07986601
36	0x3e8b72e3	0.2723609
37	0x3cd3ab17	0.025838418
38	0x3d88b691	0.06675447
39	0xbd63b149	-0.055588994
40	0x3f1bca3f	0.6085548
41	0xbe179125	-0.14801462
42	0x3e4a7025	0.19769342
43	0xbcc3b8e3	-0.023891872
44	0xbc4accbe	-0.012377916
45	0x3eba1eeb	0.36351714
46	0x3ecdf0a8	0.4022267
47	0x3e048f14	0.12945205
48	0x3ec92e38	0.39293075
49	0x3a9d5dd4	0.0012006112
50	0x3ddd2e6b	0.10799869
51	0xbe49b80a	-0.19699112
52	0xbe9c8cc4	-0.30576146
53	0x3ea39e1d	0.31956568
54	0x3eb8aa2a	0.36067325
55	0x3e3624f9	0.17787541
56	0x3e007a83	0.12546735
57	0x3d889ce7	0.06670552
58	0xbd5699d4	-0.052392796
59	0x3effc86e	0.49957603
60	0x3ec8e081	0.39233783
61	0xbde7011b	-0.11279508
62	0xbefb03a5	-0.49026218
63	0xbdc1dcd3	-0.09465947
64	0x3eeb3da5	0.4594547
65	0xbd50c473	-0.0509686
66	0x3d4c4cc9	0.049877916
67	0x3cb3474e	0.021884587
68	0xbee8a188	-0.4543574
69	0xbecb76ca	-0.39739066
70	0xbe290263	-0.16504817
71	0xbdf936e6	-0.12168674
72	0x3d14f8e6	0.03637018
73	0x3f006e03	0.50167865
74	0x3cdcec3a	0.02696811
75	0x3e230175	0.15918525
76	0xbcafb4ae	-0.02144846
77	0x3e645d35	0.2230118
78	0x3e9205e4	0.2852012
79	0xbe33f23e	-0.17572877
80	0xbe1ca141	-0.15295888
81	0xbc7d3097	-0.015453479
82	0xbe0399e4	-0.12851673
83	0x3df35539	0.11881489
84	0xbeaecd5b	-0.3414105
85	0xbbc2c54d	-0.0059439302
86	0xbdde760c	-0.108623594
87	0xbe0acac0	-0.13553905
88	0xbf036e2a	-0.5133997
89	0x3d66824f	0.056276616
90	0x3ea59468	0.32339787
91	0xbf07ea53	-0.53091925
92	0x3e9864ec	0.29764497
93	0x3e75849c	0.23976368
94	0xbe83f439	-0.25772265
95	0xbe64f4ab	-0.22358958
96	0x3ec4d3fc	0.3844298
97	0x3f005d89	0.50142723
98	0x3ea30fee	0.3184809
99	0xbdc7306c	-0.097260326
100	0xbe4da443	-0.20082192
101	0x3e9203ac	0.28518426
102	0xbe2af4d0	-0.16694951
103	0x3e3f15d2	0.18660668
104	0x3edc7064	0.43054497
105	0xbd4f6e6d	-0.05064242
106	0x3eba7ca6	0.36423224
107	0x3dc054a5	0.09391145
108	0x3dcfcc32	0.10146369
109	0xbca0f4b7	-0.01964794
110	0x3e7ec81d	0.24881025
111	0xbd52cb66	-0.051463507
112	0x3f274f10	0.65355015
113	0xbc6fc817	-0.0146351075
114	0x3d921c8d	0.07134352
115	0xbde1ba76	-0.11021893
116	0xbcd25533	-0.025675392
117	0x3e15f38b	0.14643686
118	0xbd3633e1	-0.04448307
119	0x3d823725	0.06358174
120	0x3e8089b2	0.25105053
121	0x3e4faad6	0.20280012
122	0x3ee0533b	0.438135
123	0x3cedf2be	0.029046413
124	0xbd2b2165	-0.041779894
125	0x3ea9a4ae	0.33133453
126	0x3e3c860a	0.18410507
127	0xbed37224	-0.4129802
128	0x3e0382c4	0.12842852
129	0xbe55fc2a	-0.20896974
130	0xbd964bf5	-0.073387064
131	0x3e003d7b	0.12523453
132	0xbe84c764	-0.25933373
133	0x3e488bc4	0.19584566
134	0xbd851907	-0.06498914
135	0x3e8ad545	0.27115837
136	0x3d9c11b2	0.076205626
137	0x3efb5e7c	0.49095523
138	0xbe840902	-0.25788122
139	0xbec36a73	-0.38167152
140	0xbe0abb23	-0.1354795
141	0x3eb8ad66	0.36069793
142	0x3e5f1612	0.21785763
143	0x3e1384c5	0.14406116
144	0xbe9e8e4b	-0.30967936
145	0x3d28d0fa	0.04121492
146	0x3ecf51ae	0.40492004
147	0x3e35403b	0.17700283
148	0xbf04cfd1	-0.518796
149	0x3e8be512	0.27323204
150	0x3ea7fb99	0.3280914
151	0xbe98a802	-0.2981568
152	0x3dace02e	0.084411964
153	0xbf04debc	-0.51902366
154	0xbedb2e0b	-0.42808565
155	0x3e987bea	0.2978204
156	0xbea1e52a	-0.3162015
157	0xbe1347cf	-0.14382862
158	0xbeaeadd0	-0.34116983
159	0xbee09a9b	-0.43867955
160	0xbe5352a7	-0.20636998
161	0x3ef6b7c2	0.4818707
162	0x3e6572ac	0.22407025
163	0xbe81a93c	-0.25324428
164	0xbe9795ee	-0.29606575
165	0x3eb4332d	0.35195294
166	0x3e2efc4c	0.17088431
167	0xbde2d6da	-0.11076136
168	0x3e8ddcf8	0.27707648
169	0x3eb67b06	0.35640734
170	0x3c983a26	0.018582415
171	0x3ec336a6	0.3812763
172	0xbc97d9f5	-0.018536547
173	0x3e139814	0.14413482
174	0x3eada00f	0.33911178
175	0x3e30ef9e	0.17278907
176	0xbdc802dd	-0.09766171
177	0x3e31723a	0.1732873
178	0xbe91e663	-0.28496084
179	0x3e862773	0.26201972
180	0x3ddcd8d7	0.107835464
181	0xbe7dffe0	-0.2480464
182	0x3c71e84f	0.014764859
183	0xbee73eca	-0.45165092
184	0x3cb0f52a	0.021601278
185	0xbe7f4b98	-0.2493118
186	0x3e998683	0.29985437
187	0xbe0724e4	-0.13197666
188	0xbe6fc3ca	-0.23414531
189	0xbe957212	-0.2918859
190	0x3eacae35	0.3372666
191	0x3ee36fc8	0.4442122
192	0xbe8a84bd	-0.27054396
193	0xbdb68a06	-0.08913045
194	0xbd720a25	-0.059091706
195	0xbe5c85c8	-0.21535408
196	0x3e259b43	0.16172509
197	0x3d99f3bc	0.07517192
198	0x3e91486f	0.28375575
199	0x3d435609	0.04768947
200	0x3cd742b9	0.026276933
201	0xbe4610a8	-0.19342291
202	0x3db9ba1c	0.09068701
203	0xbedf604b	-0.43628153
204	0xbdd57e1b	-0.10424443
205	0xbd08c922	-0.03339494
206	0x3eb5e23f	0.35524175
207	0x3e325476	0.17415032
208	0xbdd41f2d	-0.10357509
209	0x3e04a0f4	0.12952024
210	0xbd5f13de	-0.054462306
211	0x3ed72517	0.42020485
212	0x3ed885a6	0.42289466
213	0x3d88d5ef	0.066814296
214	0x3e25f3ed	0.16206332
215	0x3d83e37a	0.06439872
216	0x3ec3775d	0.38177004
217	0x3e080061	0.13281395
218	0x3ee2a2d1	0.44264844
219	0xbe0d7fbd	-0.1381826
220	0x3e2ce7a0	0.16885233
221	0xbe932a57	-0.2874324
222	0xbd34cf1e	-0.044142835
223	0x3e76d982	0.2410641
224	0xbea5c8ed	-0.32379857
225	0xbe53e667	-0.2069336
226	0xbe60585f	-0.21908711
227	0xbd19a873	-0.03751416
228	0xbe86fd9d	-0.26365367
229	0x3dd90e5f	0.10598444
230	0x3e757067	0.2396866
231	0xbcd85c64	-0.026411243
232	0xbe0b34cd	-0.1359436
233	0xbe58beed	-0.21166582
234	0x3e5586f2	0.20852259
235	0xbe554677	-0.20827661
236	0xbdb515f1	-0.088420756
237	0x3e02d0b0	0.1277492
238	0xbec7c9af	-0.3902106
239	0xbebc5601	-0.36784366
240	0xbdb6e040	-0.08929491
241	0xbe9a03df	-0.30081078
242	0x3ea145e6	0.3149864
243	0xbe5c374a	-0.21505466
244	0xbe2f3372	-0.17109469
245	0xbf10c0dd	-0.56544286
246	0xbe0cf962	-0.13767007
247	0xbec95302	-0.39321142
248	0x3d608206	0.0548115
249	0xbeb3d156	-0.35120648
250	0xbe3752c5	-0.17902668
251	0x3dc68a41	0.096943386
252	0x3ee3aef4	0.44469416
253	0xbed38546	-0.41312617
254	0x3ebf1e32	0.37327725
255	0x3ed54700	0.4165573

classifier.bias f4 [10]
0	0xbd939922	-0.07206942
1	0x3e408167	0.18799363
2	0x3c9337d8	0.017970964
3	0xbce5fb3b	-0.028073898
4	0xbce5700b	-0.028007528
5	0xbd9578e7	-0.07298451
6	0xbe24aca1	-0.16081478
7	0x3de5dc09	0.11223609
8	0xbdabbc10	-0.083854795
9	0x3d9e40ce	0.07727204
