lstm_weight_load/seq20_last.pth (torch, 279081 bytes, 5 tensors)

lstm1.weight_ih_l0 f4 [512, 5]
0	0x3e19137a	0.14948836
1	0xbc072f4d	-0.0082510235
2	0x3d915219	0.07095737
3	0xbdd24804	-0.10267642
4	0x3d691ae7	0.05691042
5	0x3e39d7b7	0.18148695
6	0xbd510af5	-0.05103584
7	0x3cbf1881	0.023327114
8	0x3d887563	0.06663015
9	0xbc9d721e	-0.019219454
10	0x3d21eb49	0.039531026
11	0x3e1b6ae8	0.151775
12	0x3d426542	0.04745985
13	0x3c3db986	0.011579877
14	0x3d09fa5f	0.033686038
15	0x3dc531e7	0.09628659
16	0x3d4d74ff	0.050160404
17	0x3c6d3334	0.01447754
18	0x3c34cb1c	0.011034753
19	0x3be57f95	0.0070037344
20	0x3c33d8eb	0.01097701
21	0x3babee54	0.005246917
22	0xbda6d6d2	-0.081464425
23	0xbd4bf54e	-0.049794488
24	0x3b814bd8	0.003945809
25	0xbdd30d44	-0.103052646
26	0xbd70c5c2	-0.058782347
27	0x3df3cb5e	0.119040236
28	0xbd9e08c8	-0.07716519
29	0x3dd3dbc5	0.10344652
30	0x3c926c5e	0.01787394
31	0x3d383a16	0.04497727
32	0x3d924c46	0.07143454
33	0xbd53c02e	-0.05169695
34	0xbb7270b2	-0.0036993441
35	0x3d3e09a8	0.046395928
36	0x3d31b055	0.043381054
37	0x3da5d369	0.08096964
38	0xbd433b6d	-0.047664095
39	0xbd5205e5	-0.051275153
40	0xbb188ce0	-0.0023277327
41	0xbdb632e8	-0.08896428
42	0xbd8d177e	-0.068892464
43	0xbe02de39	-0.12780084
44	0xbd8bf832	-0.06834449
45	0x3d9d7bab	0.076896034
46	0x3d4e2201	0.050325397
47	0x3cb131d7	0.02163021
48	0xbc9f2fc0	-0.019431949
49	0xbdde1eab	-0.10845693
50	0x3d5e4116	0.05426129
51	0x3cee40c0	0.02908361
52	0x3c8056ac	0.015666328
53	0x3d14a586	0.036290668
54	0xbcf957e4	-0.030437417
55	0x3dc5ca3c	0.09657714
56	0xbd8fe0ce	-0.070253
57	0x3d9d3ebc	0.07677981
58	0x3d5256fd	0.05135249
59	0x3c223740	0.009900868
60	0x3d8f65c7	0.07001834
61	0xbdfb852d	-0.12281261
62	0xbde3599b	-0.11101075
63	0xbdd0e66a	-0.10200198
64	0x3d231f19	0.03982458
65	0xbc775301	-0.015095473
66	0xbd6383a4	-0.055545464
67	0xbdba4d38	-0.090967596
68	0x3d54e089	0.051971946
69	0xbdb13e7c	-0.08654496
70	0x3decc795	0.11561505
71	0x3ca3c394	0.01999072
72	0x3c88808b	0.016662857
73	0xbd93be97	-0.072140865
74	0xb8be3884	-9.070433e-05
75	0xbe85b277	-0.2611272
76	0x3d567f32	0.052367397
77	0xbd6d8a56	-0.057993256
78	0x3b4d0c3f	0.0031287817
79	0xbdec9b3d	-0.11553047
80	0x3ce259a0	0.027630627
81	0x3d7f18b9	0.062279437
82	0x3dbe9fc7	0.09307819
83	0x3dd45de0	0.10369468
84	0xbec7485d	-0.38922396
85	0x3cb74fd0	0.022376925
86	0xbe1b5f48	-0.15173066
87	0xbe3ad85c	-0.18246597
88	0xbe1e62e4	-0.15467411
89	0xbd396be0	-0.045268893
90	0xbd6fb921	-0.058526162
91	0xbbb16bce	-0.0054144626
92	0xbcf18782	-0.02948356
93	0x3d11347b	0.03545044
94	0x3d3ba3e4	0.045810595
95	0x3de47d3f	0.11156701
96	0x3d712e8f	0.058882292
97	0xbd5e6f0b	-0.054305118
98	0x3d53b998	0.051690668
99	0xbd213602	-0.039358146
100	0xbe30f808	-0.17282116
101	0xbe170bfc	-0.14750665
102	0xbd76f543	-0.060292494
103	0x3bb1b129	0.0054227305
104	0x3c57cbd3	0.013171154
105	0x3e1443f3	0.14479046
106	0xbd23bac8	-0.03997305
107	0x3d070dce	0.03297215
108	0x3df7fd11	0.121088155
109	0x3d58ffdd	0.052978385
110	0x3cfd56f8	0.030925259
111	0x3d1b199d	0.037866224
112	0xbdbeaef8	-0.093107164
113	0x3d34a2a5	0.044100422
114	0xbd9bd045	-0.07608084
115	0x3b62713a	0.0034552352
116	0xba676682	-0.00088272255
117	0x3b18d282	0.0023318832
118	0x3c0477b8	0.008085184
119	0xbdced8ef	-0.100999705
120	0x3b77c649	0.0037807396
121	0x3d8218f3	0.06352415
122	0x3cdfc6e5	0.02731652
123	0xbd950b89	-0.07277591
124	0xbe522f1e	-0.20525786
125	0x3d63e9ad	0.055642772
126	0x3da48ee5	0.080350675
127	0xbdb0d08b	-0.086335264
128	0xbdc57c30	-0.096428275
129	0xbbb08e19	-0.005388033
130	0xbd06e0f5	-0.03292938
131	0xbd114538	-0.035466403
132	0xbd8eb57b	-0.069682084
133	0xbdb48ecd	-0.088162996
134	0xbd8581ef	-0.065189235
135	0x3d3c5c2d	0.045986343
136	0xbd2ba1a5	-0.041902203
137	0xbd3e846d	-0.04651301
138	0x3beba602	0.0071914205
139	0xbd50f74d	-0.051017094
140	0x3e0a2dc9	0.13494028
141	0xbe28b854	-0.16476566
142	0xbd84cf4c	-0.06484851
143	0xbd17a251	-0.03702003
144	0x3e0af82f	0.13571237
145	0xbd87851d	-0.06617186
146	0xbe8aa396	-0.2707793
147	0xbe0887fa	-0.13333121
148	0x3dc4f58a	0.09617145
149	0xbe0aa3d8	-0.13539064
150	0x3db6a129	0.089174576
151	0xbddcd613	-0.10783019
152	0x3c3ff630	0.0117164105
153	0xba814b40	-0.0009864345
154	0xbe4dd298	-0.20099866
155	0x3e55e1c9	0.20886911
156	0x3eb909fd	0.36140433
157	0x3d16e8bd	0.03684305
158	0x3da6bdbb	0.08141657
159	0x3e12e785	0.1434613
160	0xbccb5994	-0.024822988
161	0xbdd6f109	-0.104951926
162	0xbe1e2b76	-0.15446267
163	0x3da7321e	0.08163856
164	0x3a6c4c82	0.0009014086
165	0x3c78cd26	0.01518563
166	0xbcc08ff3	-0.02350614
167	0xbdad4d2b	-0.08461984
168	0xbe6d70ec	-0.23187608
169	0xbe4be4ae	-0.19911453
170	0x3d9d5964	0.076830655
171	0x3d8c992b	0.06865152
172	0x3b3d5570	0.0028890036
173	0x3d9be5ec	0.076122135
174	0x3c4eaa2f	0.012613817
175	0x3e2e5a3b	0.17026608
176	0x3e4a410d	0.19751377
177	0x3da30762	0.079603925
178	0xbe206a8d	-0.15665646
179	0xbe9ccd95	-0.30625597
180	0x3e060466	0.13087615
181	0xbdb7c1d8	-0.0897252
182	0xbc926eb5	-0.017875055
183	0x3d40844b	0.047001164
184	0x3dcd46f7	0.10023301
185	0xbea2a73f	-0.31768224
186	0xbd176052	-0.036957093
187	0x3dc1a9b6	0.09456198
188	0x3cb1eab2	0.021718357
189	0xbf20567f	-0.6263198
190	0xbd755fa4	-0.059905663
191	0xbec5b0a1	-0.3861132
192	0xbe5f92ed	-0.21833391
193	0x3e3dc9a5	0.18533953
194	0xbed15b09	-0.40889767
195	0x3d003987	0.031304862
196	0x3d5a9485	0.053364296
197	0xbda064d1	-0.07831729
198	0x3d00c0fa	0.031434037
199	0xbd7a57d1	-0.061118905
200	0x3d9426eb	0.072339855
201	0x3d24a946	0.040200494
202	0xbc9fb328	-0.019494608
203	0x3c1a81e6	0.009430384
204	0xbe0a981d	-0.13534589
205	0x3d9a292d	0.07527385
206	0x3cc2f1eb	0.023796996
207	0xbd875a1e	-0.06608985
208	0xbd8cfd6b	-0.06884273
209	0x3d7a264d	0.061071683
210	0x3e330b5e	0.17484805
211	0x3d5db338	0.054125994
212	0xbdbec07b	-0.093140565
213	0x3c0f42f3	0.008743989
214	0x3d8a97ab	0.067672096
215	0xbdb8c182	-0.09021284
216	0xbdff4bb0	-0.12465608
217	0xbe08552a	-0.13313738
218	0xbde58c0c	-0.112083524
219	0xbdf14c42	-0.11782123
220	0x3e9177bb	0.2841166
221	0xbc91c398	-0.017793462
222	0x3d7e8f91	0.062148634
223	0x3e5f995b	0.21835844
224	0x3f597826	0.84948957
225	0xbe265e31	-0.16246869
226	0xbe9039d2	-0.28169113
227	0xbcff1311	-0.031137021
228	0x3e294bfa	0.16532889
229	0xbde8ad98	-0.113612354
230	0x3d6608cf	0.056160744
231	0xbdb9071c	-0.09034559
232	0xbdad3fcb	-0.08459433
233	0x3d462cc4	0.048382536
234	0xbcc0654f	-0.023485808
235	0x3db2576b	0.0870808
236	0xbd2dde84	-0.042448536
237	0x3d15ba31	0.03655452
238	0xbdebee92	-0.11520113
239	0xbd324146	-0.04351928
240	0x3e0de9b3	0.1385868
241	0xbd91f484	-0.07126716
242	0x3d1aafee	0.037765436
243	0x3c40155f	0.011723845
244	0x3cfb1a17	0.030652089
245	0x3df62001	0.12017823
246	0x3d778d0d	0.06043725
247	0xbc9c4c2d	-0.019079292
248	0xbbf06f30	-0.0073374733
249	0xbbd93d76	-0.006629641
250	0xbe7ce184	-0.24695402
251	0x3deb3d48	0.11486298
252	0x3df02ad9	0.117269225
253	0xbe13866c	-0.14406747
254	0xbe578e7a	-0.21050444
255	0x3de7ed10	0.11324513

lstm1.weight_hh_l0 f4 [512, 128]
0	0xbd81b9b7	-0.063342504
1	0xbd055d4b	-0.032559674
2	0xbd8918c2	-0.06694175
3	0xbc4dcd42	-0.012561144
4	0x3da13e8a	0.078732565
5	0x3d5aa398	0.05337867
6	0x3c49c080	0.012313962
7	0x3d1fc295	0.039003927
8	0xbd7939b1	-0.060846034
9	0x3dace222	0.08441569
10	0x3d05abfa	0.032634713
11	0x3d2da2be	0.04239153
12	0x3a97c362	0.0011578614
13	0xbbaf1618	-0.00534321
14	0x3d85b85c	0.065293044
15	0x3dbeb2e6	0.09311466
16	0x3c4e0976	0.012575498
17	0xbc992904	-0.018696316
18	0x3d883c8c	0.066521734
19	0xbdc4536c	-0.09586224
20	0x3dad253f	0.0845437
21	0x3d752d30	0.059857547
22	0x3d0f1db5	0.03494044
23	0xbd325fc6	-0.043548368
24	0x3d29fd5d	0.04150139
25	0x3d736f91	0.05943257
26	0x3d8ec07e	0.06970309
27	0x3c60e19c	0.0137256645
28	0xba49b7f7	-0.00076949544
29	0x3d644c0e	0.055736594
30	0x3d3ccc5a	0.046093322
31	0x3dd11966	0.102099225
32	0x3a35faee	0.00069419935
33	0xbc3e1bb2	-0.011603283
34	0x3c80c36b	0.015718183
35	0x3d255826	0.040367268
36	0xbc8a4e20	-0.016882956
37	0xbe875f0e	-0.26439708
38	0xbe92c9f5	-0.28669706
39	0xbd2cb296	-0.0421625
40	0xbcb522b7	-0.02211128
41	0xbd6f2eed	-0.05839436
42	0xbd330a92	-0.043711253
43	0xbd43840f	-0.047733363
44	0xbdcfe66c	-0.10151371
45	0x3d9f8048	0.077881396
46	0xbd9b4404	-0.07581332
47	0x3db315c0	0.08744383
48	0x3da45de2	0.08025719
49	0xbdd3d636	-0.10343592
50	0x3df1157a	0.117716745
51	0x3ddf6651	0.10908187
52	0xbcb9359d	-0.022608573
53	0x3dacd597	0.084391765
54	0xbd49b5c6	-0.04924562
55	0xbd8cbee2	-0.068723455
56	0xbd634feb	-0.055496138
57	0xbc5a7e99	-0.013335847
58	0x3d3b6182	0.045747288
59	0xbba6c316	-0.005089174
60	0x3cb1fc3a	0.021726716
61	0xbce95ccc	-0.028486632
62	0xbd6fb383	-0.058520805
63	0x3c96d81f	0.018413601
64	0xbcd99290	-0.026559144
65	0x3dc981e4	0.09839228
66	0x3d6f3600	0.058401108
67	0x3d4fd0c5	0.050736208
68	0x3da07fa7	0.07836848
69	0x3db14809	0.08656318
70	0x3dfd8823	0.12379482
71	0xbdbc773a	-0.09202428
72	0xbda82423	-0.082100175
73	0xbdfdc8b2	-0.12391795
74	0x3db412e0	0.087926626
75	0x3ca0c6bd	0.019626016
76	0xbd6119d5	-0.054956276
77	0xbd693f6d	-0.056945253
78	0x3d8fa11f	0.07013153
79	0x3d443b86	0.04790833
80	0x3d5bac18	0.05363092
81	0x3d273f33	0.040831756
82	0x3bca6040	0.0061760247
83	0xbd67151e	-0.056416623
84	0xbd1439c1	-0.03618789
85	0xbbe28438	-0.0069127344
86	0x3d6d0cd3	0.05787356
87	0x3dc2d84e	0.09513913
88	0xbd3f3163	-0.04667796
89	0x3d6ae4fd	0.057347286
90	0x3cc98a83	0.02460218
91	0xbcbfcbe0	-0.023412645
92	0xbd20a4cd	-0.039219666
93	0x3d586d4c	0.05283861
94	0xbdc0fa92	-0.094227925
95	0xbd464dce	-0.048414044
96	0xbdc5e0c4	-0.09662011
97	0xbcfd98a0	-0.030956566
98	0x3c929d92	0.017897401
99	0x3cf59f6e	0.029983249
100	0x3d84f0ea	0.06491263
101	0xbd91a2db	-0.0711114
102	0xbdc82ca9	-0.09774143
103	0xbda315de	-0.07963155
104	0xbc82d276	-0.015969496
105	0x3c3a1c23	0.011359247
106	0x3da758f5	0.08171264
107	0x3e0c9aaa	0.13730875
108	0xbc72308e	-0.014782084
109	0x3d88c41e	0.066780314
110	0xbd83c051	-0.06433166
111	0xba68c400	-0.0008879304
112	0x3d05275c	0.03250824
113	0xbcedbd39	-0.029020892
114	0x3cf74766	0.030185413
115	0x3cf573fe	0.029962536
116	0xbc5560b4	-0.013023544
117	0xbd5169c9	-0.051126275
118	0xbd1f883c	-0.038948283
119	0x3d81ff84	0.06347564
120	0xbdb6d70c	-0.08927736
121	0xbd768f4b	-0.06019525
122	0xbe053b3a	-0.13010874
123	0xbcdb4087	-0.026764167
124	0xbd80286a	-0.06257708
125	0x3db5b278	0.08871931
126	0xbcc4d7ea	-0.024028737
127	0x3c258f95	0.010105033
128	0xbdb3f2e8	-0.08786565
129	0xbd0ef219	-0.03489885
130	0xbd5627f2	-0.05228419
131	0xbc352337	-0.011055759
132	0xbd948190	-0.072512746
133	0x3c91ed3a	0.017813314
134	0x3d5f3629	0.05449501
135	0x3c05fa53	0.008177358
136	0x3da810d8	0.08206338
137	0x3ae134fa	0.0017181926
138	0xbd963b2a	-0.073355034
139	0xbb346025	-0.0027523127
140	0xbd4ca630	-0.049963176
141	0x3d8c9e24	0.068661004
142	0x3db602fb	0.08887287
143	0xbd7d50ee	-0.06184476
144	0x3d1103ee	0.03540414
145	0xbd1180e6	-0.035523318
146	0x3d152b9a	0.036418535
147	0xbc1de100	-0.009636164
148	0xbbe4a6c2	-0.006977887
149	0xbd602ab5	-0.05472823
150	0xbd03754a	-0.032094277
151	0x3d8e1e25	0.06939343
152	0xbd853e64	-0.06506041
153	0xbd1a65d0	-0.037694752
154	0x3d3b539f	0.045734044
155	0x3d259bed	0.040431906
156	0x3e0cd5a8	0.13753378
157	0xbce6d040	-0.028175473
158	0x3d629310	0.05531603
159	0x3d9dc516	0.07703607
160	0x3ddaaf58	0.106779754
161	0xbc94f2b6	-0.01818214
162	0x3c8d5816	0.017253917
163	0xbcf05436	-0.02933703
164	0x3cac82e1	0.021058502
165	0x3cd391d2	0.025826368
166	0x3d61573a	0.055014826
167	0xbd780d13	-0.060559344
168	0xbcc58eca	-0.024115939
169	0x3adfdf72	0.0017080142
170	0xbc1e419b	-0.009659196
171	0xbdf44195	-0.11926571
172	0xbde78ba0	-0.11305928
173	0xbd9b0761	-0.07569767
174	0x3d53eed7	0.051741447
175	0x3bff5b7c	0.007792888
176	0x3bf1f08b	0.0073834113
177	0x3d518492	0.05115182
178	0xbe2b09a2	-0.16702893
179	0xbd38e24c	-0.04513769
180	0xbcc021c6	-0.023453604
181	0x3daa8afe	0.08327292
182	0xbcdada4a	-0.026715416
183	0xbd761195	-0.06007536
184	0x3ca9662e	0.020678606
185	0x3cef39e8	0.029202417
186	0x3c374eca	0.011188218
187	0x3cbb2cbc	0.02284848
188	0x3d3f09d6	0.04664024
189	0xbdd38b4d	-0.10329304
190	0xbd20369c	-0.03911458
191	0xbd918c4b	-0.07106837
192	0xbd975cf3	-0.073907755
193	0x3d5eb1fe	0.054368965
194	0xbd5859cb	-0.05282001
195	0x3be715bf	0.007052153
196	0xbd493b4c	-0.049128816
197	0xbd1fba09	-0.038995776
198	0x3d93c5de	0.072154745
199	0xbdccda28	-0.100025475
200	0x3c4b1ada	0.012396539
201	0x3d52301e	0.05131542
202	0x398e2241	0.00027109872
203	0xbd1b5859	-0.03792605
204	0xbd36b2fa	-0.04460428
205	0xbc7feaf0	-0.015619978
206	0xbc6160a9	-0.013755956
207	0xbd16e1f4	-0.03683658
208	0xbd53e9c1	-0.051736597
209	0x3da2aa7d	0.07942674
210	0x3dae82a4	0.085210115
211	0x3d9b3b38	0.075796545
212	0x3d4ca4ad	0.049961735
213	0x3d125f6c	0.035735533
214	0xbdeeabdf	-0.116538756
215	0xbd2edfc1	-0.042693857
216	0xbd04cbec	-0.032421038
217	0x3d845c3f	0.06462907
218	0xbd92a510	-0.071603894
219	0x3d046ead	0.03233211
220	0xbd015514	-0.031575277
221	0xbd098df4	-0.033582643
222	0xbda37f42	-0.07983257
223	0x3c7b0c9d	0.015322831
224	0xbd275c5c	-0.040859565
225	0xbdad2c06	-0.084556624
226	0xbd8b8fe7	-0.068145566
227	0xbd30ff53	-0.043212246
228	0xbc611cd9	-0.013739788
229	0x3d1bfb53	0.03808148
230	0xbc74f408	-0.01495076
231	0xbd18779f	-0.037223455
232	0xbc36c09a	-0.011154318
233	0x3b4dc8a7	0.0031400116
234	0x3b066f12	0.002051298
235	0xbcdc1796	-0.026866715
236	0xbd9dc8f3	-0.07704344
237	0xbcb3b366	-0.02193613
238	0xbd64e43d	-0.055881727
239	0x3ceeea11	0.029164346
240	0x3d9a27e2	0.07527138
241	0x3d2efd87	0.04272225
242	0xbd828f92	-0.0637504
243	0x3d83d08a	0.0643626
244	0x3ce65d65	0.028120706
245	0xbb637b7e	-0.0034711058
246	0x3d835fe3	0.06414773
247	0x3dafbb3b	0.08580633
248	0x3ce064a8	0.027391747
249	0x3d2c3aaf	0.042048153
250	0xbdfac4fb	-0.12244602
251	0xbc863fcd	-0.016387844
252	0x3c832963	0.016010946
253	0x3d9021e8	0.07037717
254	0xbbfa8509	-0.0076452536
255	0x3d86867a	0.06568618

lstm1.bias_ih_l0 f4 [512]
0	0x3da19956	0.07890575
1	0xbdce9de8	-0.10088712
2	0xbc7191d9	-0.014744245
3	0x3dd0adc3	0.101893924
4	0xbcab85d5	-0.02093784
5	0xbdc4a07a	-0.09600921
6	0x3dc13fb5	0.09435979
7	0x3d1ed08e	0.038773112
8	0x3d88f5c3	0.066875
9	0xbdf0eefe	-0.11764334
10	0xbd83d73d	-0.06437538
11	0x3df5f482	0.12009527
12	0xbc87878a	-0.016544122
13	0x3d9daa97	0.07698553
14	0x3d4c1f2a	0.049834408
15	0xbbf9c363	-0.007622169
16	0x3d99aa51	0.075031884
17	0xbd632673	-0.05545659
18	0xbcbe6315	-0.023240605
19	0xbdad1c13	-0.0845262
20	0xb9454171	-0.00018811763
21	0x3cd49081	0.025947811
22	0xbcae5dc8	-0.021284953
23	0x3cd26ed8	0.02568762
24	0xbd69b8ef	-0.057061132
25	0xbddc3df7	-0.10754006
26	0xbd6c5967	-0.05770245
27	0x3dccfc25	0.1000903
28	0x3c9590c0	0.018257499
29	0xbd028d36	-0.03187295
30	0x3c6a7ab1	0.0143114785
31	0x3e4be6a8	0.19912207
32	0xbdef4ecf	-0.116849534
33	0xbc0ef418	-0.008725189
34	0xbcee502c	-0.029090963
35	0x3e5092a2	0.20368436
36	0x3c88f88b	0.016720077
37	0xbd3d205c	-0.04617344
38	0x3cbaac8e	0.022787359
39	0xbd29b8d7	-0.041436043
40	0xbe0478f1	-0.1293676
41	0x3d2669fa	0.04062841
42	0x3d5ff20e	0.0546742
43	0x3c9fb8b7	0.019497259
44	0x3e79abe8	0.24381983
45	0xbdfdc9d1	-0.12392009
46	0x3c2fb218	0.010723613
47	0xbd2ec418	-0.04266748
48	0x3da2ca1c	0.079487056
49	0xbb441515	-0.0029919792
50	0xbd1bc093	-0.03802545
51	0x3d201121	0.039078835
52	0x3d92ac6e	0.071617946
53	0xbdc65ca9	-0.09685642
54	0x3de30b17	0.110860996
55	0xbde30d1d	-0.110864855
56	0xbd201d34	-0.03909035
57	0x3c3a0515	0.011353751
58	0xbc866400	-0.016405106
59	0xbd840d20	-0.06447816
60	0x3dafb8b8	0.08580154
61	0xbd610ef8	-0.054945916
62	0xbd704e40	-0.058668375
63	0x3b89a96f	0.0042011063
64	0x3de75c48	0.11296898
65	0x3d440887	0.047859695
66	0x3c58cf14	0.013232965
67	0xbd5ec4cb	-0.054386895
68	0x3bb25146	0.0054418175
69	0xbd937661	-0.07200313
70	0x3ca455e6	0.02006049
71	0x3ef8ddf2	0.4860683
72	0xbca0d537	-0.019632919
73	0x3c906867	0.017627908
74	0x3d483a01	0.04888344
75	0x3a84a7dc	0.0010120827
76	0x3dee80fd	0.11645696
77	0xbd31d707	-0.043417957
78	0xbcbcf755	-0.023067156
79	0xbcf7c3aa	-0.030244667
80	0xbd28ae61	-0.041181926
81	0x3d60fdd0	0.054929554
82	0x3e0df4de	0.1386294
83	0xbb932d4b	-0.0044914833
84	0x3dbdd624	0.0926936
85	0xbd4e77a2	-0.05040706
86	0x3b712be3	0.003679984
87	0x3cbce47a	0.023058165
88	0x3e2d5101	0.16925432
89	0x3c6ef3dd	0.014584509
90	0x3c81c2bc	0.015839927
91	0x3b4dae89	0.0031384549
92	0xbdb27d4a	-0.08715303
93	0xbd3399c9	-0.043847833
94	0xbd332c81	-0.043743614
95	0xbd804253	-0.0626265
96	0xbc615dc0	-0.013755262
97	0xbcd01467	-0.025400354
98	0xbc20bd60	-0.0098107755
99	0x3cc0b37d	0.023523087
100	0xbdaec5d3	-0.08533826
101	0xbd0af720	-0.033927083
102	0xbd94928c	-0.07254514
103	0x3d72bf03	0.059264194
104	0x3d92a731	0.071607955
105	0x3d878307	0.06616788
106	0xbc06c174	-0.008224834
107	0x3e53dedf	0.20690487
108	0x3d86d1ba	0.06582971
109	0x3c8f5171	0.017494889
110	0xbd662763	-0.056189906
111	0x3d6654fb	0.056233387
112	0x3caed730	0.021342844
113	0x3d74efd0	0.059799016
114	0x3c070b1d	0.008242396
115	0x3cdd15f6	0.02698801
116	0x3cde88dc	0.027164869
117	0x3d25cbaf	0.04047745
118	0x3d102a45	0.03519656
119	0xbdad354d	-0.08457432
120	0xbd2337c9	-0.039848123
121	0xbd48d774	-0.049033597
122	0x3e8f1ed6	0.27953213
123	0x3d62cb39	0.05536959
124	0xbd81cadf	-0.06337523
125	0x3d3e5d08	0.04647544
126	0x3d905bd5	0.070487656
127	0x3d6bdbcc	0.05758266
128	0x3d6851fd	0.056718815
129	0x3d6380d2	0.055542774
130	0xbdae5e30	-0.085140586
131	0xbc91eece	-0.017814066
132	0xbd8f3a2c	-0.06993517
133	0xbd93bacb	-0.07213362
134	0xbc05edd0	-0.008174375
135	0xbdcea000	-0.10089111
136	0xbc1fedf7	-0.009761325
137	0x3d25612a	0.040375866
138	0x3d9f5c5b	0.07781287
139	0x3c17d003	0.009265902
140	0x3d7250e6	0.059159182
141	0xbc363086	-0.011119967
142	0x3c79b9ee	0.015242083
143	0xbdaec304	-0.0853329
144	0xbcafe7fd	-0.021472925
145	0xbdf5c39f	-0.120002024
146	0xbd528b24	-0.051402226
147	0xbdc85fb2	-0.097838774
148	0xbd02965f	-0.031881686
149	0x3d4cfeb7	0.050047603
150	0x3d5680b5	0.05236884
151	0x3d5b08b2	0.05347509
152	0x3d2fa0ca	0.04287795
153	0xbd9b69c0	-0.075885296
154	0xbd9d7298	-0.07687873
155	0x3d63ca07	0.05561259
156	0x3cf095cf	0.02936831
157	0x3cea29ea	0.02858444
158	0xbda638dc	-0.08116314
159	0x3cb3f241	0.021966102
160	0xbcb944ec	-0.022615872
161	0xbe235da2	-0.15953687
162	0xbded31ef	-0.1158179
163	0xbd78776f	-0.060660776
164	0xbc5e1402	-0.013554575
165	0x3dab4836	0.083633825
166	0xbc58fb10	-0.013243452
167	0x3c3b14ac	0.011418503
168	0x3d696c48	0.05698803
169	0xbbae8c1e	-0.005326762
170	0x3bbf28e3	0.0058337315
171	0xbe1d6acc	-0.15372771
172	0xbd595401	-0.053058628
173	0xbdab7692	-0.08372225
174	0x3d2e7fda	0.042602398
175	0xbdc68586	-0.09693436
176	0x3de050f7	0.10952943
177	0xbdb0f684	-0.08640769
178	0xbd86dfe7	-0.06585675
179	0xbdb6d92d	-0.08928142
180	0xbcff7ba9	-0.031186895
181	0x3bc0f11f	0.005888119
182	0xbc0ca677	-0.00858461
183	0x3c8f1f9a	0.017471123
184	0xbcef3564	-0.029200263
185	0x3a68a085	0.0008874017
186	0xbda636ae	-0.08115898
187	0xbce7ff9e	-0.02832013
188	0x3d4135d3	0.04717047
189	0x3d41a555	0.047276814
190	0xbd0a0b7a	-0.03370235
191	0xbdabef56	-0.08395259
192	0x3d3f79e7	0.046747115
193	0xbd1981ce	-0.037477307
194	0x3c524083	0.012832764
195	0x3d8a664f	0.06757795
196	0xbe0e423d	-0.13892455
197	0xbc7be2cf	-0.0153739
198	0xbd221eb4	-0.039580062
199	0x3e1e1e79	0.15441312
200	0xbd98b49c	-0.074563235
201	0x3d6ebd84	0.058286205
202	0xbd769d0c	-0.060208365
203	0x3ce03a2a	0.027371485
204	0x3c8d4b92	0.017247949
205	0x3d888f2d	0.066679336
206	0xbd7e7f65	-0.06213321
207	0xbcba0958	-0.022709534
208	0xb87f680b	-6.0893635e-05
209	0x39f3de97	0.00046514414
210	0xbdaca18d	-0.08429251
211	0xbca9a47d	-0.020708317
212	0xbc8f994b	-0.01752915
213	0xbda8ef3b	-0.082487546
214	0xbd435e56	-0.047697388
215	0xbd6c2f28	-0.05766216
216	0x3e048cea	0.1294438
217	0xbcb04d89	-0.021521347
218	0xbc155912	-0.009115474
219	0xbd59a6e0	-0.05313766
220	0x3b7b8c8a	0.0038383328
221	0xbd975121	-0.07388521
222	0x3cb5c00f	0.022186307
223	0x3d33a706	0.043860458
224	0xbcf12961	-0.029438676
225	0x3d7b2f95	0.061324675
226	0xbdc9206e	-0.098206386
227	0xbdf0016d	-0.11719022
228	0xbdf62770	-0.12019241
229	0xbd8612f5	-0.065465845
230	0x3da10e24	0.07864025
231	0xbcad6d78	-0.021170363
232	0x3d35ecec	0.0444154
233	0x3d56b973	0.052422952
234	0x3d815e06	0.06316762
235	0xbd534ce5	-0.051587004
236	0xbd20f422	-0.039295323
237	0xbd9112f6	-0.07083695
238	0xbd8203ab	-0.06348356
239	0x3d809a73	0.06279459
240	0xbd8c09e1	-0.06837822
241	0x3d277b65	0.040889163
242	0x3c3f1125	0.011661802
243	0x3c14b225	0.009075676
244	0x3b37b044	0.0028028646
245	0x3d40230c	0.046908423
246	0x3d8929f7	0.06697457
247	0xbd894713	-0.067030095
248	0xbc764504	-0.015031103
249	0x3cb8e736	0.022571187
250	0xbdbc970b	-0.09208497
251	0x3db2aea7	0.087247185
252	0xbd60a102	-0.05484105
253	0x3d15d9c7	0.03658464
254	0x3ce13674	0.027491786
255	0xbd0b13f3	-0.033954572

lstm1.bias_hh_l0 f4 [512]
0	0xbc2278c4	-0.009916488
1	0x3d57876a	0.052619375
2	0x3d174b1d	0.036936868
3	0xbd85d464	-0.06534651
4	0xbc3de636	-0.011590531
5	0x3d17a09e	0.03701841
6	0x3d00697c	0.031350598
7	0xbd7a8d0f	-0.06116968
8	0xbd2110a9	-0.03932253
9	0xbd35bf9d	-0.04437219
10	0xbcf2a406	-0.029619228
11	0xbccfdae9	-0.02537294
12	0xbd27fbc7	-0.041011598
13	0xbcdc4a00	-0.026890755
14	0xbd4a17e3	-0.049339186
15	0x3d0f0601	0.034917835
16	0xbd0c8cd5	-0.034313995
17	0xbc1498f1	-0.009069667
18	0xbdf1baab	-0.11803182
19	0x3d478930	0.048714817
20	0xbd674347	-0.056460645
21	0x3e1a0f7a	0.15044966
22	0xbd8fd05f	-0.070221655
23	0x3d49d476	0.049274884
24	0x3daff37e	0.08591364
25	0xbddfacf2	-0.109216586
26	0x3b343e46	0.0027502938
27	0xbd25167b	-0.040304642
28	0x3d6778c1	0.056511644
29	0xbdbb3e3d	-0.091427304
30	0xbda738ea	-0.08165152
31	0x3e553055	0.20819218
32	0xbda9c57f	-0.082896225
33	0xbb3e8f47	-0.00290771
34	0xbc65b9e2	-0.014021369
35	0x3e27ae2f	0.1637504
36	0xbd35f1c0	-0.044420004
37	0x3c3275c2	0.010892333
38	0xbc6dafcc	-0.014507245
39	0xbd0ecabb	-0.034861308
40	0xbd66435a	-0.056216575
41	0x3cc8f444	0.024530537
42	0xbd2235b3	-0.039601993
43	0xbdb88734	-0.09010163
44	0x3e3a4a7d	0.18192478
45	0xbd070151	-0.03296024
46	0xbda3d14a	-0.07998903
47	0xbd9aee1a	-0.075649455
48	0x3d4b657d	0.049657334
49	0x3caa571a	0.020793486
50	0x3c473ab8	0.012159996
51	0xbc148acf	-0.009066298
52	0x3dbbdc4b	0.09172877
53	0xba30b23b	-0.00067404256
54	0x3e4979ce	0.19675371
55	0xbb72f96f	-0.0037074944
56	0xbc6aebc5	-0.014338438
57	0xbc4f6aae	-0.012659712
58	0x3d4f795a	0.05065284
59	0x3cc9cd1f	0.024633942
60	0x3c88bc90	0.016691476
61	0xbc8b77a7	-0.017024828
62	0xbd280380	-0.041018963
63	0x3d0c87b7	0.034309115
64	0x3d477a62	0.048700698
65	0x3dbe2ea8	0.09286243
66	0xbd32825e	-0.04358136
67	0xbdb0545a	-0.08609839
68	0xbde4098a	-0.11134632
69	0x3d12787c	0.035759434
70	0x3d754298	0.059877962
71	0x3f138591	0.5762568
72	0xbdee2206	-0.11627583
73	0x3c4c4ca8	0.012469448
74	0x3d44eeff	0.048079487
75	0xbdcca082	-0.09991552
76	0xbb04f387	-0.0020286755
77	0x3c5eb3db	0.013592686
78	0xbdb83deb	-0.08996185
79	0xbd6eeb7e	-0.05833005
80	0x3d02826e	0.03186267
81	0x3c851b3b	0.016248336
82	0x3e2d7422	0.16938832
83	0x3d2e964e	0.04262381
84	0xba96fc49	-0.0011519279
85	0x3d2408a7	0.040047314
86	0xbc3677e8	-0.011136986
87	0xbc8388aa	-0.016056377
88	0x3c212949	0.009836503
89	0x3cae217d	0.021256203
90	0x3d97d76e	0.07414137
91	0x3d905422	0.07047297
92	0xbe025eae	-0.1273143
93	0x3d885d94	0.066584736
94	0xbd9570ae	-0.072968826
95	0xbd80733d	-0.0627198
96	0xbda0aa11	-0.078449376
97	0xbd64a42f	-0.05582064
98	0x3d208221	0.0391866
99	0x3d072e8a	0.033003367
100	0xbda52b8d	-0.08064947
101	0x3bf0e1d2	0.0073511386
102	0x3d273899	0.04082546
103	0x3d9f6a59	0.07783956
104	0x3da92743	0.08259442
105	0x3da42b3c	0.08016059
106	0x3e12c9b9	0.14334764
107	0x3e4832b0	0.19550586
108	0x3d564faa	0.052322067
109	0xbbeb638d	-0.0071834982
110	0xbcbbc1f4	-0.022919632
111	0xbda28bb6	-0.07936804
112	0x3c932f68	0.017966941
113	0x3cf68342	0.030091885
114	0xbde94987	-0.11390977
115	0xbc2e8620	-0.010652095
116	0x3d67faee	0.05663579
117	0x3e0ef6af	0.1396129
118	0xbd8c3238	-0.06845516
119	0xbc09f543	-0.008420291
120	0xbd1018ee	-0.035180025
121	0xbc56094e	-0.013063742
122	0x3eab6e9f	0.33482835
123	0xbbde8288	-0.006790463
124	0xbd76bfe7	-0.060241606
125	0x3dbc5a74	0.0919694
126	0x3c568890	0.0130940825
127	0xbc5f5ece	-0.013633443
128	0xbc10bdb8	-0.008834295
129	0x3d757fd1	0.05993635
130	0xbda9934d	-0.082800485
131	0xbd7a60cb	-0.061127465
132	0xbd9955e2	-0.07487084
133	0x3d14a305	0.03628828
134	0xbdc1e6c3	-0.094678424
135	0xbd7cfb43	-0.06176306
136	0x3cf7ee9f	0.03026515
137	0xbdb0cbbd	-0.0863261
138	0x3da0b6bb	0.07847353
139	0xbd05c142	-0.032655008
140	0xbdb2f450	-0.08738005
141	0x3c0c3c97	0.008559368
142	0xbd49f155	-0.049302418
143	0xbd94c820	-0.07264733
144	0xbd8881a1	-0.0666535
145	0x3c04e92c	0.008112233
146	0xbdaa683a	-0.08320661
147	0xbd750c4e	-0.059826188
148	0xbd9785fb	-0.073986016
149	0xbdc92035	-0.09820596
150	0x3cbe6e80	0.02324605
151	0x3d19741f	0.037464257
152	0xbdf746dd	-0.12074063
153	0x3d36f46d	0.044666696
154	0x3d2189ea	0.039438166
155	0x3c8d18e0	0.017223775
156	0x3d19414f	0.0374158
157	0xbe1452b3	-0.14484672
158	0x3c562b92	0.013071911
159	0xbe08591c	-0.13315243
160	0xbdd0a432	-0.10187568
161	0xbe4b812a	-0.19873491
162	0xbd857a68	-0.06517488
163	0xbe1d95ef	-0.15389226
164	0x3ca66dd8	0.02031605
165	0x3cfa0e23	0.030524319
166	0x3dbb733d	0.09152839
167	0xbdbaf0a9	-0.091279335
168	0x3d1a0655	0.037603695
169	0x3dc4d382	0.096106544
170	0xbdd32964	-0.10310629
171	0xbd6da033	-0.058014106
172	0xbc7b6e53	-0.015346128
173	0xbca8b0f2	-0.020592187
174	0x3d5f4ebc	0.054518446
175	0xbd30506c	-0.043045446
176	0x3dae5fcb	0.08514365
177	0xbdd8d387	-0.10587221
178	0xbd849fed	-0.06475816
179	0x3d603f3b	0.0547478
180	0x3c82cfbd	0.015968198
181	0xbd812d04	-0.06307414
182	0x3dc2e638	0.09516567
183	0xbd465ce7	-0.048428442
184	0xbda7601a	-0.08172627
185	0xbd8d63a4	-0.069037706
186	0x3d33567a	0.043783642
187	0x3d155498	0.036457628
188	0xbd7bae46	-0.061445497
189	0xbd23a8bb	-0.039955836
190	0xbd81da74	-0.06340495
191	0xbcfc6dad	-0.030814016
192	0xbdc88048	-0.09790093
193	0x3ba845d1	0.005135276
194	0x3d72a024	0.059234753
195	0x3d838468	0.06421739
196	0xbcedede6	-0.029044103
197	0xbdd1b3a4	-0.10239342
198	0xbd2ee6ef	-0.042700704
199	0x3e281604	0.16414648
200	0xbd2511c6	-0.040300153
201	0xbd81a2c6	-0.06329875
202	0xbd612e46	-0.05497577
203	0x3cae78e6	0.021297883
204	0xbd91da15	-0.07121674
205	0x3cc55cce	0.024092104
206	0xbd11caf9	-0.03559396
207	0xbdb8b162	-0.09018208
208	0x3dc2ccd9	0.09511728
209	0xbd2e1277	-0.04249808
210	0xbe18974e	-0.14901468
211	0x3d20037e	0.03906583
212	0x3d6c3d4d	0.05767565
213	0x3d89627e	0.06708239
214	0x3ddc64f7	0.10761445
215	0xbddea235	-0.10870782
216	0x3ce13ef8	0.027495846
217	0xbd649ed4	-0.055815533
218	0xbccdc512	-0.025118385
219	0xbae7ce18	-0.0017685322
220	0x3b22df04	0.0024852166
221	0x3d876455	0.06610934
222	0x3c3fcd3e	0.011706648
223	0xbd877b13	-0.066152714
224	0xbe080f21	-0.13287021
225	0xbd2aca81	-0.04169703
226	0xbdb65bed	-0.08904252
227	0xbdaa9b5f	-0.08330416
228	0xbcdd2c1a	-0.026998568
229	0xbd3b14db	-0.045674186
230	0x3da52408	0.08063513
231	0x3cd55677	0.026042206
232	0x3d220204	0.039552703
233	0x3d47ecb4	0.048809722
234	0x3d0b88ce	0.034066014
235	0xbd814d47	-0.063135676
236	0xbcbf65a1	-0.02336389
237	0xbdb6ec8d	-0.08931837
238	0xbcff6e59	-0.031180548
239	0x3d6ff255	0.058580715
240	0xbd5a5d52	-0.053311653
241	0xbbfcdc06	-0.0077166585
242	0x3c5b2b46	0.013377016
243	0x3d867fcc	0.06567344
244	0xbdcb5d76	-0.09929936
245	0xbd2e6f61	-0.042586688
246	0x3db0ba7d	0.0862932
247	0x3c567244	0.0130887665
248	0xbdb5f766	-0.08885078
249	0x3d1f4a41	0.038889173
250	0xbdb36299	-0.087590404
251	0xbca91f01	-0.020644667
252	0x3bc1be64	0.005912589
253	0xbd931fc0	-0.0718379
254	0xbd77ad42	-0.060467966
255	0x3d542196	0.051789843

fc.weight f4 [1, 128]
0	0xbdd139c5	-0.10216097
1	0xbe00aa7e	-0.12565038
2	0x3e2f139d	0.17097326
3	0xbdb84560	-0.08997607
4	0x3da01999	0.07817382
5	0x3a253ec2	0.0006303602
6	0xbe0f3295	-0.1398414
7	0x3dcc17ca	0.09965475
8	0x3d8effca	0.06982382
9	0x3de73d88	0.11291033
10	0xbde4d55f	-0.1117351
11	0xbe29369c	-0.16524738
12	0x3ddbb687	0.10728174
13	0x3df5f5ca	0.12009771
14	0x3db24061	0.087036856
15	0x3d4b6746	0.049659036
16	0xbe04a4d4	-0.12953502
17	0xbde19fbb	-0.11016794
18	0x3c0a4eee	0.00844167
19	0xbe0b4cf2	-0.13603571
20	0xbc69d1d9	-0.014271223
21	0xbd4c7ee2	-0.049925692
22	0xbdfce665	-0.12348632
23	0xbd90e090	-0.07074082
24	0xbd50bdc9	-0.050962243
25	0xbd3d92cb	-0.04628257
26	0x3d333d99	0.043759916
27	0xbd9f8fdf	-0.07791113
28	0xbe048af0	-0.12943625
29	0x3dd1e674	0.102490336
30	0xbd950f11	-0.07278264
31	0x3e8e1771	0.2775226
32	0xbccc8bb6	-0.024968963
33	0xbddf299f	-0.108966105
34	0xbd8476bf	-0.064679615
35	0xbe407a76	-0.18796715
36	0x3e0f4d8a	0.13994423
37	0xbd1e573f	-0.038657423
38	0x3c76222b	0.015022795
39	0x3e1cc3c6	0.15309057
40	0x3dc0e2b0	0.09418237
41	0xbdaeed59	-0.08541364
42	0xbe1bbc07	-0.15208445
43	0x3e40c26f	0.1882417
44	0x3ecfb686	0.40568942
45	0x3dd1e613	0.10248961
46	0xbdd05af8	-0.10173601
47	0xbcaf278d	-0.021381164
48	0x3e1b061b	0.15139048
49	0xbe021fde	-0.12707469
50	0x3d65bba3	0.056087147
51	0xbdac3d2f	-0.08410107
52	0x3e5e2ad6	0.21696028
53	0x3db08379	0.086188264
54	0xbe4bab95	-0.19889672
55	0xbd010578	-0.031499356
56	0xbcfb92c0	-0.030709624
57	0xbdd468d2	-0.103715554
58	0x3dbcfc2b	0.09227785
59	0xbe15f734	-0.14645082
60	0x3e15c2a3	0.1462503
61	0x3d9e11a4	0.077182084
62	0xbd9f1d98	-0.077693164
63	0xbd9d8941	-0.07692195
64	0xbd756874	-0.059914067
65	0xba59d070	-0.00083089527
66	0xbaa2ee8a	-0.0012430709
67	0xbd01f7be	-0.031730406
68	0x3d93ddf9	0.07220072
69	0x3df55c68	0.11980516
70	0x3d5dd6f0	0.05416006
71	0xbf11b6b3	-0.569194
72	0xbc627546	-0.0138219055
73	0xbe37e672	-0.17959002
74	0x3e377297	0.17914806
75	0x3d13b02b	0.03605668
76	0xbe0cc330	-0.13746333
77	0x3cb44c2a	0.022008974
78	0x3dac6d17	0.08419245
79	0xbd8c9edf	-0.0686624
80	0xbe196c71	-0.14982773
81	0x3da9345d	0.08261941
82	0xbe43ecf2	-0.19133356
83	0x3e0203ac	0.12696713
84	0x3dbaedbd	0.09127376
85	0xbdc475fb	-0.095928155
86	0xbd04a56a	-0.032384314
87	0xbe437262	-0.19086602
88	0xbe361a48	-0.17783463
89	0xbe4f1399	-0.2022232
90	0x3e07f6be	0.13277718
91	0xbd863b37	-0.06554263
92	0x3d70a2c3	0.05874897
93	0x3dfc0ddf	0.12307333
94	0xbdf5526f	-0.119786136
95	0xbdce7ce6	-0.10082416
96	0xbcdd2885	-0.02699686
97	0xbe0dce13	-0.13848142
98	0x3a9123f2	0.0011073335
99	0xbd893f12	-0.06701483
100	0x3e0bea41	0.1366358
101	0xbe02f830	-0.12789989
102	0xbd4b4516	-0.049626432
103	0xbe166a45	-0.14688976
104	0x3de28f02	0.11062433
105	0x3dad6b02	0.08467676
106	0x3e020509	0.12697233
107	0x3e367782	0.17819026
108	0xbbd528c1	-0.0065051024
109	0x3dc073f6	0.09397118
110	0x3e1ad1dc	0.15119117
111	0xbdd28351	-0.10278953
112	0x3df9f7a9	0.122054406
113	0x3dda8b2e	0.10671078
114	0x3d7a70fe	0.061142914
115	0x3db08daf	0.08620774
116	0xbdf07924	-0.11741856
117	0x3d95688c	0.07295331
118	0xbded10c4	-0.115754634
119	0x3d5f01ad	0.054444958
120	0xbe0e035b	-0.13868468
121	0x3e056e12	0.1303027
122	0x3ea878a3	0.3290454
123	0x3e133d3b	0.14378826
124	0x3c547fdf	0.01296994
125	0x3e0819fe	0.13291165
126	0x3cba7f0a	0.022765655
127	0x3e199632	0.14998701
